{"format": "graph-model", "generatedBy": "2.1.0", "convertedBy": "TensorFlow.js Converter v2.8.1", "signature": {"inputs": {"image_input:0": {"name": "image_input:0", "dtype": "DT_FLOAT", "tensorShape": {"dim": [{"size": "-1"}, {"size": "-1"}, {"size": "-1"}, {"size": "3"}]}}}, "outputs": {"Identity:0": {"name": "Identity:0", "dtype": "DT_FLOAT", "tensorShape": {"dim": [{"size": "-1"}, {"size": "1000"}]}}}}, "modelTopology": {"node": [{"name": "image_input", "op": "Placeholder", "attr": {"shape": {"shape": {"dim": [{"size": "-1"}, {"size": "-1"}, {"size": "-1"}, {"size": "3"}]}}, "dtype": {"type": "DT_FLOAT"}}}, {"name": "StatefulPartitionedCall/model_12/stem_conv2d/Conv2D_weights", "op": "Const", "attr": {"value": {"tensor": {"dtype": "DT_FLOAT", "tensorShape": {"dim": [{"size": "3"}, {"size": "3"}, {"size": "3"}, {"size": "56"}]}}}, "dtype": {"type": "DT_FLOAT"}}}, {"name": "StatefulPartitionedCall/model_12/stem_conv2d/Conv2D_bn_offset", "op": "Const", "attr": {"dtype": {"type": "DT_FLOAT"}, "value": {"tensor": {"dtype": "DT_FLOAT", "tensorShape": {"dim": [{"size": "56"}]}}}}}, {"name": "StatefulPartitionedCall/model_12/stack_0/block_0/depthwise_conv2d/depthwise_weights", "op": "Const", "attr": {"value": {"tensor": {"dtype": "DT_FLOAT", "tensorShape": {"dim": [{"size": "3"}, {"size": "3"}, {"size": "56"}, {"size": "1"}]}}}, "dtype": {"type": "DT_FLOAT"}}}, {"name": "StatefulPartitionedCall/model_12/stack_0/block_0/depthwise_conv2d/depthwise_bn_offset", "op": "Const", "attr": {"dtype": {"type": "DT_FLOAT"}, "value": {"tensor": {"dtype": "DT_FLOAT", "tensorShape": {"dim": [{"size": "56"}]}}}}}, {"name": "StatefulPartitionedCall/model_12/stack_0/block_0/project_conv2d/Conv2D_weights", "op": "Const", "attr": {"dtype": {"type": "DT_FLOAT"}, "value": {"tensor": {"dtype": "DT_FLOAT", "tensorShape": {"dim": [{"size": "1"}, {"size": "1"}, {"size": "56"}, {"size": "32"}]}}}}}, {"name": "StatefulPartitionedCall/model_12/stack_0/block_0/project_conv2d/Conv2D_bn_offset", "op": "Const", "attr": {"dtype": {"type": "DT_FLOAT"}, "value": {"tensor": {"dtype": "DT_FLOAT", "tensorShape": {"dim": [{"size": "32"}]}}}}}, {"name": "StatefulPartitionedCall/model_12/stack_0/block_1/depthwise_conv2d/depthwise_weights", "op": "Const", "attr": {"value": {"tensor": {"dtype": "DT_FLOAT", "tensorShape": {"dim": [{"size": "3"}, {"size": "3"}, {"size": "32"}, {"size": "1"}]}}}, "dtype": {"type": "DT_FLOAT"}}}, {"name": "StatefulPartitionedCall/model_12/stack_0/block_1/depthwise_conv2d/depthwise_bn_offset", "op": "Const", "attr": {"value": {"tensor": {"dtype": "DT_FLOAT", "tensorShape": {"dim": [{"size": "32"}]}}}, "dtype": {"type": "DT_FLOAT"}}}, {"name": "StatefulPartitionedCall/model_12/stack_0/block_1/project_conv2d/Conv2D_weights", "op": "Const", "attr": {"value": {"tensor": {"dtype": "DT_FLOAT", "tensorShape": {"dim": [{"size": "1"}, {"size": "1"}, {"size": "32"}, {"size": "32"}]}}}, "dtype": {"type": "DT_FLOAT"}}}, {"name": "StatefulPartitionedCall/model_12/stack_0/block_1/project_conv2d/Conv2D_bn_offset", "op": "Const", "attr": {"value": {"tensor": {"dtype": "DT_FLOAT", "tensorShape": {"dim": [{"size": "32"}]}}}, "dtype": {"type": "DT_FLOAT"}}}, {"name": "StatefulPartitionedCall/model_12/stack_0/block_2/depthwise_conv2d/depthwise_weights", "op": "Const", "attr": {"value": {"tensor": {"dtype": "DT_FLOAT", "tensorShape": {"dim": [{"size": "3"}, {"size": "3"}, {"size": "32"}, {"size": "1"}]}}}, "dtype": {"type": "DT_FLOAT"}}}, {"name": "StatefulPartitionedCall/model_12/stack_0/block_2/depthwise_conv2d/depthwise_bn_offset", "op": "Const", "attr": {"value": {"tensor": {"dtype": "DT_FLOAT", "tensorShape": {"dim": [{"size": "32"}]}}}, "dtype": {"type": "DT_FLOAT"}}}, {"name": "StatefulPartitionedCall/model_12/stack_0/block_2/project_conv2d/Conv2D_weights", "op": "Const", "attr": {"value": {"tensor": {"dtype": "DT_FLOAT", "tensorShape": {"dim": [{"size": "1"}, {"size": "1"}, {"size": "32"}, {"size": "32"}]}}}, "dtype": {"type": "DT_FLOAT"}}}, {"name": "StatefulPartitionedCall/model_12/stack_0/block_2/project_conv2d/Conv2D_bn_offset", "op": "Const", "attr": {"dtype": {"type": "DT_FLOAT"}, "value": {"tensor": {"dtype": "DT_FLOAT", "tensorShape": {"dim": [{"size": "32"}]}}}}}, {"name": "StatefulPartitionedCall/model_12/stack_1/block_0/expand_conv2d/Conv2D_weights", "op": "Const", "attr": {"value": {"tensor": {"dtype": "DT_FLOAT", "tensorShape": {"dim": [{"size": "1"}, {"size": "1"}, {"size": "32"}, {"size": "192"}]}}}, "dtype": {"type": "DT_FLOAT"}}}, {"name": "StatefulPartitionedCall/model_12/stack_1/block_0/expand_conv2d/Conv2D_bn_offset", "op": "Const", "attr": {"dtype": {"type": "DT_FLOAT"}, "value": {"tensor": {"dtype": "DT_FLOAT", "tensorShape": {"dim": [{"size": "192"}]}}}}}, {"name": "StatefulPartitionedCall/model_12/stack_1/block_0/depthwise_conv2d/depthwise_weights", "op": "Const", "attr": {"value": {"tensor": {"dtype": "DT_FLOAT", "tensorShape": {"dim": [{"size": "3"}, {"size": "3"}, {"size": "192"}, {"size": "1"}]}}}, "dtype": {"type": "DT_FLOAT"}}}, {"name": "StatefulPartitionedCall/model_12/stack_1/block_0/depthwise_conv2d/depthwise_bn_offset", "op": "Const", "attr": {"dtype": {"type": "DT_FLOAT"}, "value": {"tensor": {"dtype": "DT_FLOAT", "tensorShape": {"dim": [{"size": "192"}]}}}}}, {"name": "StatefulPartitionedCall/model_12/stack_1/block_0/project_conv2d/Conv2D_weights", "op": "Const", "attr": {"dtype": {"type": "DT_FLOAT"}, "value": {"tensor": {"dtype": "DT_FLOAT", "tensorShape": {"dim": [{"size": "1"}, {"size": "1"}, {"size": "192"}, {"size": "40"}]}}}}}, {"name": "StatefulPartitionedCall/model_12/stack_1/block_0/project_conv2d/Conv2D_bn_offset", "op": "Const", "attr": {"value": {"tensor": {"dtype": "DT_FLOAT", "tensorShape": {"dim": [{"size": "40"}]}}}, "dtype": {"type": "DT_FLOAT"}}}, {"name": "StatefulPartitionedCall/model_12/stack_1/block_1/expand_conv2d/Conv2D_weights", "op": "Const", "attr": {"value": {"tensor": {"dtype": "DT_FLOAT", "tensorShape": {"dim": [{"size": "1"}, {"size": "1"}, {"size": "40"}, {"size": "240"}]}}}, "dtype": {"type": "DT_FLOAT"}}}, {"name": "StatefulPartitionedCall/model_12/stack_1/block_1/expand_conv2d/Conv2D_bn_offset", "op": "Const", "attr": {"value": {"tensor": {"dtype": "DT_FLOAT", "tensorShape": {"dim": [{"size": "240"}]}}}, "dtype": {"type": "DT_FLOAT"}}}, {"name": "StatefulPartitionedCall/model_12/stack_1/block_1/depthwise_conv2d/depthwise_weights", "op": "Const", "attr": {"dtype": {"type": "DT_FLOAT"}, "value": {"tensor": {"dtype": "DT_FLOAT", "tensorShape": {"dim": [{"size": "3"}, {"size": "3"}, {"size": "240"}, {"size": "1"}]}}}}}, {"name": "StatefulPartitionedCall/model_12/stack_1/block_1/depthwise_conv2d/depthwise_bn_offset", "op": "Const", "attr": {"value": {"tensor": {"dtype": "DT_FLOAT", "tensorShape": {"dim": [{"size": "240"}]}}}, "dtype": {"type": "DT_FLOAT"}}}, {"name": "StatefulPartitionedCall/model_12/stack_5/block_8/project_conv2d/Conv2D_weights", "op": "Const", "attr": {"value": {"tensor": {"dtype": "DT_FLOAT", "tensorShape": {"dim": [{"size": "1"}, {"size": "1"}, {"size": "2064"}, {"size": "344"}]}}}, "dtype": {"type": "DT_FLOAT"}}}, {"name": "StatefulPartitionedCall/model_12/stack_1/block_1/project_conv2d/Conv2D_weights", "op": "Const", "attr": {"value": {"tensor": {"dtype": "DT_FLOAT", "tensorShape": {"dim": [{"size": "1"}, {"size": "1"}, {"size": "240"}, {"size": "40"}]}}}, "dtype": {"type": "DT_FLOAT"}}}, {"name": "StatefulPartitionedCall/model_12/stack_5/block_8/project_conv2d/Conv2D_bn_offset", "op": "Const", "attr": {"dtype": {"type": "DT_FLOAT"}, "value": {"tensor": {"dtype": "DT_FLOAT", "tensorShape": {"dim": [{"size": "344"}]}}}}}, {"name": "StatefulPartitionedCall/model_12/stack_1/block_1/project_conv2d/Conv2D_bn_offset", "op": "Const", "attr": {"value": {"tensor": {"dtype": "DT_FLOAT", "tensorShape": {"dim": [{"size": "40"}]}}}, "dtype": {"type": "DT_FLOAT"}}}, {"name": "StatefulPartitionedCall/model_12/stack_1/block_2/expand_conv2d/Conv2D_weights", "op": "Const", "attr": {"dtype": {"type": "DT_FLOAT"}, "value": {"tensor": {"dtype": "DT_FLOAT", "tensorShape": {"dim": [{"size": "1"}, {"size": "1"}, {"size": "40"}, {"size": "240"}]}}}}}, {"name": "StatefulPartitionedCall/model_12/stack_1/block_2/expand_conv2d/Conv2D_bn_offset", "op": "Const", "attr": {"dtype": {"type": "DT_FLOAT"}, "value": {"tensor": {"dtype": "DT_FLOAT", "tensorShape": {"dim": [{"size": "240"}]}}}}}, {"name": "StatefulPartitionedCall/model_12/stack_1/block_2/depthwise_conv2d/depthwise_weights", "op": "Const", "attr": {"value": {"tensor": {"dtype": "DT_FLOAT", "tensorShape": {"dim": [{"size": "3"}, {"size": "3"}, {"size": "240"}, {"size": "1"}]}}}, "dtype": {"type": "DT_FLOAT"}}}, {"name": "StatefulPartitionedCall/model_12/stack_1/block_2/depthwise_conv2d/depthwise_bn_offset", "op": "Const", "attr": {"value": {"tensor": {"dtype": "DT_FLOAT", "tensorShape": {"dim": [{"size": "240"}]}}}, "dtype": {"type": "DT_FLOAT"}}}, {"name": "StatefulPartitionedCall/model_12/stack_5/block_9/expand_conv2d/Conv2D_weights", "op": "Const", "attr": {"value": {"tensor": {"dtype": "DT_FLOAT", "tensorShape": {"dim": [{"size": "1"}, {"size": "1"}, {"size": "344"}, {"size": "2064"}]}}}, "dtype": {"type": "DT_FLOAT"}}}, {"name": "StatefulPartitionedCall/model_12/stack_1/block_2/project_conv2d/Conv2D_weights", "op": "Const", "attr": {"value": {"tensor": {"dtype": "DT_FLOAT", "tensorShape": {"dim": [{"size": "1"}, {"size": "1"}, {"size": "240"}, {"size": "40"}]}}}, "dtype": {"type": "DT_FLOAT"}}}, {"name": "StatefulPartitionedCall/model_12/stack_1/block_2/project_conv2d/Conv2D_bn_offset", "op": "Const", "attr": {"value": {"tensor": {"dtype": "DT_FLOAT", "tensorShape": {"dim": [{"size": "40"}]}}}, "dtype": {"type": "DT_FLOAT"}}}, {"name": "StatefulPartitionedCall/model_12/stack_1/block_3/expand_conv2d/Conv2D_weights", "op": "Const", "attr": {"dtype": {"type": "DT_FLOAT"}, "value": {"tensor": {"dtype": "DT_FLOAT", "tensorShape": {"dim": [{"size": "1"}, {"size": "1"}, {"size": "40"}, {"size": "240"}]}}}}}, {"name": "StatefulPartitionedCall/model_12/stack_5/block_9/expand_conv2d/Conv2D_bn_offset", "op": "Const", "attr": {"value": {"tensor": {"dtype": "DT_FLOAT", "tensorShape": {"dim": [{"size": "2064"}]}}}, "dtype": {"type": "DT_FLOAT"}}}, {"name": "StatefulPartitionedCall/model_12/stack_1/block_3/expand_conv2d/Conv2D_bn_offset", "op": "Const", "attr": {"value": {"tensor": {"dtype": "DT_FLOAT", "tensorShape": {"dim": [{"size": "240"}]}}}, "dtype": {"type": "DT_FLOAT"}}}, {"name": "StatefulPartitionedCall/model_12/stack_1/block_3/depthwise_conv2d/depthwise_weights", "op": "Const", "attr": {"dtype": {"type": "DT_FLOAT"}, "value": {"tensor": {"dtype": "DT_FLOAT", "tensorShape": {"dim": [{"size": "3"}, {"size": "3"}, {"size": "240"}, {"size": "1"}]}}}}}, {"name": "StatefulPartitionedCall/model_12/stack_1/block_3/depthwise_conv2d/depthwise_bn_offset", "op": "Const", "attr": {"value": {"tensor": {"dtype": "DT_FLOAT", "tensorShape": {"dim": [{"size": "240"}]}}}, "dtype": {"type": "DT_FLOAT"}}}, {"name": "StatefulPartitionedCall/model_12/stack_1/block_3/project_conv2d/Conv2D_weights", "op": "Const", "attr": {"dtype": {"type": "DT_FLOAT"}, "value": {"tensor": {"dtype": "DT_FLOAT", "tensorShape": {"dim": [{"size": "1"}, {"size": "1"}, {"size": "240"}, {"size": "40"}]}}}}}, {"name": "StatefulPartitionedCall/model_12/stack_1/block_3/project_conv2d/Conv2D_bn_offset", "op": "Const", "attr": {"value": {"tensor": {"dtype": "DT_FLOAT", "tensorShape": {"dim": [{"size": "40"}]}}}, "dtype": {"type": "DT_FLOAT"}}}, {"name": "StatefulPartitionedCall/model_12/stack_1/block_4/expand_conv2d/Conv2D_weights", "op": "Const", "attr": {"value": {"tensor": {"dtype": "DT_FLOAT", "tensorShape": {"dim": [{"size": "1"}, {"size": "1"}, {"size": "40"}, {"size": "240"}]}}}, "dtype": {"type": "DT_FLOAT"}}}, {"name": "StatefulPartitionedCall/model_12/stack_5/block_9/depthwise_conv2d/depthwise_weights", "op": "Const", "attr": {"dtype": {"type": "DT_FLOAT"}, "value": {"tensor": {"dtype": "DT_FLOAT", "tensorShape": {"dim": [{"size": "5"}, {"size": "5"}, {"size": "2064"}, {"size": "1"}]}}}}}, {"name": "StatefulPartitionedCall/model_12/stack_1/block_4/expand_conv2d/Conv2D_bn_offset", "op": "Const", "attr": {"dtype": {"type": "DT_FLOAT"}, "value": {"tensor": {"dtype": "DT_FLOAT", "tensorShape": {"dim": [{"size": "240"}]}}}}}, {"name": "StatefulPartitionedCall/model_12/stack_1/block_4/depthwise_conv2d/depthwise_weights", "op": "Const", "attr": {"value": {"tensor": {"dtype": "DT_FLOAT", "tensorShape": {"dim": [{"size": "3"}, {"size": "3"}, {"size": "240"}, {"size": "1"}]}}}, "dtype": {"type": "DT_FLOAT"}}}, {"name": "StatefulPartitionedCall/model_12/stack_1/block_4/depthwise_conv2d/depthwise_bn_offset", "op": "Const", "attr": {"dtype": {"type": "DT_FLOAT"}, "value": {"tensor": {"dtype": "DT_FLOAT", "tensorShape": {"dim": [{"size": "240"}]}}}}}, {"name": "StatefulPartitionedCall/model_12/stack_5/block_9/depthwise_conv2d/depthwise_bn_offset", "op": "Const", "attr": {"dtype": {"type": "DT_FLOAT"}, "value": {"tensor": {"dtype": "DT_FLOAT", "tensorShape": {"dim": [{"size": "2064"}]}}}}}, {"name": "StatefulPartitionedCall/model_12/stack_1/block_4/project_conv2d/Conv2D_weights", "op": "Const", "attr": {"dtype": {"type": "DT_FLOAT"}, "value": {"tensor": {"dtype": "DT_FLOAT", "tensorShape": {"dim": [{"size": "1"}, {"size": "1"}, {"size": "240"}, {"size": "40"}]}}}}}, {"name": "StatefulPartitionedCall/model_12/stack_1/block_4/project_conv2d/Conv2D_bn_offset", "op": "Const", "attr": {"dtype": {"type": "DT_FLOAT"}, "value": {"tensor": {"dtype": "DT_FLOAT", "tensorShape": {"dim": [{"size": "40"}]}}}}}, {"name": "StatefulPartitionedCall/model_12/stack_1/block_5/expand_conv2d/Conv2D_weights", "op": "Const", "attr": {"dtype": {"type": "DT_FLOAT"}, "value": {"tensor": {"dtype": "DT_FLOAT", "tensorShape": {"dim": [{"size": "1"}, {"size": "1"}, {"size": "40"}, {"size": "240"}]}}}}}, {"name": "StatefulPartitionedCall/model_12/stack_1/block_5/expand_conv2d/Conv2D_bn_offset", "op": "Const", "attr": {"dtype": {"type": "DT_FLOAT"}, "value": {"tensor": {"dtype": "DT_FLOAT", "tensorShape": {"dim": [{"size": "240"}]}}}}}, {"name": "StatefulPartitionedCall/model_12/stack_1/block_5/depthwise_conv2d/depthwise_weights", "op": "Const", "attr": {"value": {"tensor": {"dtype": "DT_FLOAT", "tensorShape": {"dim": [{"size": "3"}, {"size": "3"}, {"size": "240"}, {"size": "1"}]}}}, "dtype": {"type": "DT_FLOAT"}}}, {"name": "StatefulPartitionedCall/model_12/stack_1/block_5/depthwise_conv2d/depthwise_bn_offset", "op": "Const", "attr": {"dtype": {"type": "DT_FLOAT"}, "value": {"tensor": {"dtype": "DT_FLOAT", "tensorShape": {"dim": [{"size": "240"}]}}}}}, {"name": "StatefulPartitionedCall/model_12/stack_1/block_5/project_conv2d/Conv2D_weights", "op": "Const", "attr": {"value": {"tensor": {"dtype": "DT_FLOAT", "tensorShape": {"dim": [{"size": "1"}, {"size": "1"}, {"size": "240"}, {"size": "40"}]}}}, "dtype": {"type": "DT_FLOAT"}}}, {"name": "StatefulPartitionedCall/model_12/stack_1/block_5/project_conv2d/Conv2D_bn_offset", "op": "Const", "attr": {"value": {"tensor": {"dtype": "DT_FLOAT", "tensorShape": {"dim": [{"size": "40"}]}}}, "dtype": {"type": "DT_FLOAT"}}}, {"name": "StatefulPartitionedCall/model_12/stack_2/block_0/expand_conv2d/Conv2D_weights", "op": "Const", "attr": {"dtype": {"type": "DT_FLOAT"}, "value": {"tensor": {"dtype": "DT_FLOAT", "tensorShape": {"dim": [{"size": "1"}, {"size": "1"}, {"size": "40"}, {"size": "240"}]}}}}}, {"name": "StatefulPartitionedCall/model_12/stack_2/block_0/expand_conv2d/Conv2D_bn_offset", "op": "Const", "attr": {"value": {"tensor": {"dtype": "DT_FLOAT", "tensorShape": {"dim": [{"size": "240"}]}}}, "dtype": {"type": "DT_FLOAT"}}}, {"name": "StatefulPartitionedCall/model_12/stack_2/block_0/depthwise_conv2d/depthwise_weights", "op": "Const", "attr": {"value": {"tensor": {"dtype": "DT_FLOAT", "tensorShape": {"dim": [{"size": "5"}, {"size": "5"}, {"size": "240"}, {"size": "1"}]}}}, "dtype": {"type": "DT_FLOAT"}}}, {"name": "StatefulPartitionedCall/model_12/stack_2/block_0/depthwise_conv2d/depthwise_bn_offset", "op": "Const", "attr": {"value": {"tensor": {"dtype": "DT_FLOAT", "tensorShape": {"dim": [{"size": "240"}]}}}, "dtype": {"type": "DT_FLOAT"}}}, {"name": "StatefulPartitionedCall/model_12/stack_2/block_0/project_conv2d/Conv2D_weights", "op": "Const", "attr": {"dtype": {"type": "DT_FLOAT"}, "value": {"tensor": {"dtype": "DT_FLOAT", "tensorShape": {"dim": [{"size": "1"}, {"size": "1"}, {"size": "240"}, {"size": "72"}]}}}}}, {"name": "StatefulPartitionedCall/model_12/stack_2/block_0/project_conv2d/Conv2D_bn_offset", "op": "Const", "attr": {"value": {"tensor": {"dtype": "DT_FLOAT", "tensorShape": {"dim": [{"size": "72"}]}}}, "dtype": {"type": "DT_FLOAT"}}}, {"name": "StatefulPartitionedCall/model_12/stack_2/block_1/expand_conv2d/Conv2D_weights", "op": "Const", "attr": {"dtype": {"type": "DT_FLOAT"}, "value": {"tensor": {"dtype": "DT_FLOAT", "tensorShape": {"dim": [{"size": "1"}, {"size": "1"}, {"size": "72"}, {"size": "432"}]}}}}}, {"name": "StatefulPartitionedCall/model_12/stack_2/block_1/expand_conv2d/Conv2D_bn_offset", "op": "Const", "attr": {"value": {"tensor": {"dtype": "DT_FLOAT", "tensorShape": {"dim": [{"size": "432"}]}}}, "dtype": {"type": "DT_FLOAT"}}}, {"name": "StatefulPartitionedCall/model_12/stack_2/block_1/depthwise_conv2d/depthwise_weights", "op": "Const", "attr": {"value": {"tensor": {"dtype": "DT_FLOAT", "tensorShape": {"dim": [{"size": "5"}, {"size": "5"}, {"size": "432"}, {"size": "1"}]}}}, "dtype": {"type": "DT_FLOAT"}}}, {"name": "StatefulPartitionedCall/model_12/stack_2/block_1/depthwise_conv2d/depthwise_bn_offset", "op": "Const", "attr": {"value": {"tensor": {"dtype": "DT_FLOAT", "tensorShape": {"dim": [{"size": "432"}]}}}, "dtype": {"type": "DT_FLOAT"}}}, {"name": "StatefulPartitionedCall/model_12/stack_2/block_1/project_conv2d/Conv2D_weights", "op": "Const", "attr": {"value": {"tensor": {"dtype": "DT_FLOAT", "tensorShape": {"dim": [{"size": "1"}, {"size": "1"}, {"size": "432"}, {"size": "72"}]}}}, "dtype": {"type": "DT_FLOAT"}}}, {"name": "StatefulPartitionedCall/model_12/stack_2/block_1/project_conv2d/Conv2D_bn_offset", "op": "Const", "attr": {"value": {"tensor": {"dtype": "DT_FLOAT", "tensorShape": {"dim": [{"size": "72"}]}}}, "dtype": {"type": "DT_FLOAT"}}}, {"name": "StatefulPartitionedCall/model_12/stack_2/block_2/expand_conv2d/Conv2D_weights", "op": "Const", "attr": {"dtype": {"type": "DT_FLOAT"}, "value": {"tensor": {"dtype": "DT_FLOAT", "tensorShape": {"dim": [{"size": "1"}, {"size": "1"}, {"size": "72"}, {"size": "432"}]}}}}}, {"name": "StatefulPartitionedCall/model_12/stack_2/block_2/expand_conv2d/Conv2D_bn_offset", "op": "Const", "attr": {"dtype": {"type": "DT_FLOAT"}, "value": {"tensor": {"dtype": "DT_FLOAT", "tensorShape": {"dim": [{"size": "432"}]}}}}}, {"name": "StatefulPartitionedCall/model_12/stack_2/block_2/depthwise_conv2d/depthwise_weights", "op": "Const", "attr": {"value": {"tensor": {"dtype": "DT_FLOAT", "tensorShape": {"dim": [{"size": "5"}, {"size": "5"}, {"size": "432"}, {"size": "1"}]}}}, "dtype": {"type": "DT_FLOAT"}}}, {"name": "StatefulPartitionedCall/model_12/stack_2/block_2/depthwise_conv2d/depthwise_bn_offset", "op": "Const", "attr": {"value": {"tensor": {"dtype": "DT_FLOAT", "tensorShape": {"dim": [{"size": "432"}]}}}, "dtype": {"type": "DT_FLOAT"}}}, {"name": "StatefulPartitionedCall/model_12/stack_2/block_2/project_conv2d/Conv2D_weights", "op": "Const", "attr": {"value": {"tensor": {"dtype": "DT_FLOAT", "tensorShape": {"dim": [{"size": "1"}, {"size": "1"}, {"size": "432"}, {"size": "72"}]}}}, "dtype": {"type": "DT_FLOAT"}}}, {"name": "StatefulPartitionedCall/model_12/stack_5/block_9/project_conv2d/Conv2D_weights", "op": "Const", "attr": {"dtype": {"type": "DT_FLOAT"}, "value": {"tensor": {"dtype": "DT_FLOAT", "tensorShape": {"dim": [{"size": "1"}, {"size": "1"}, {"size": "2064"}, {"size": "344"}]}}}}}, {"name": "StatefulPartitionedCall/model_12/stack_2/block_2/project_conv2d/Conv2D_bn_offset", "op": "Const", "attr": {"dtype": {"type": "DT_FLOAT"}, "value": {"tensor": {"dtype": "DT_FLOAT", "tensorShape": {"dim": [{"size": "72"}]}}}}}, {"name": "StatefulPartitionedCall/model_12/stack_2/block_3/expand_conv2d/Conv2D_weights", "op": "Const", "attr": {"dtype": {"type": "DT_FLOAT"}, "value": {"tensor": {"dtype": "DT_FLOAT", "tensorShape": {"dim": [{"size": "1"}, {"size": "1"}, {"size": "72"}, {"size": "432"}]}}}}}, {"name": "StatefulPartitionedCall/model_12/stack_2/block_3/expand_conv2d/Conv2D_bn_offset", "op": "Const", "attr": {"dtype": {"type": "DT_FLOAT"}, "value": {"tensor": {"dtype": "DT_FLOAT", "tensorShape": {"dim": [{"size": "432"}]}}}}}, {"name": "StatefulPartitionedCall/model_12/stack_2/block_3/depthwise_conv2d/depthwise_weights", "op": "Const", "attr": {"value": {"tensor": {"dtype": "DT_FLOAT", "tensorShape": {"dim": [{"size": "5"}, {"size": "5"}, {"size": "432"}, {"size": "1"}]}}}, "dtype": {"type": "DT_FLOAT"}}}, {"name": "StatefulPartitionedCall/model_12/stack_2/block_3/depthwise_conv2d/depthwise_bn_offset", "op": "Const", "attr": {"value": {"tensor": {"dtype": "DT_FLOAT", "tensorShape": {"dim": [{"size": "432"}]}}}, "dtype": {"type": "DT_FLOAT"}}}, {"name": "StatefulPartitionedCall/model_12/stack_5/block_9/project_conv2d/Conv2D_bn_offset", "op": "Const", "attr": {"value": {"tensor": {"dtype": "DT_FLOAT", "tensorShape": {"dim": [{"size": "344"}]}}}, "dtype": {"type": "DT_FLOAT"}}}, {"name": "StatefulPartitionedCall/model_12/stack_2/block_3/project_conv2d/Conv2D_weights", "op": "Const", "attr": {"value": {"tensor": {"dtype": "DT_FLOAT", "tensorShape": {"dim": [{"size": "1"}, {"size": "1"}, {"size": "432"}, {"size": "72"}]}}}, "dtype": {"type": "DT_FLOAT"}}}, {"name": "StatefulPartitionedCall/model_12/stack_2/block_3/project_conv2d/Conv2D_bn_offset", "op": "Const", "attr": {"dtype": {"type": "DT_FLOAT"}, "value": {"tensor": {"dtype": "DT_FLOAT", "tensorShape": {"dim": [{"size": "72"}]}}}}}, {"name": "StatefulPartitionedCall/model_12/stack_2/block_4/expand_conv2d/Conv2D_weights", "op": "Const", "attr": {"value": {"tensor": {"dtype": "DT_FLOAT", "tensorShape": {"dim": [{"size": "1"}, {"size": "1"}, {"size": "72"}, {"size": "432"}]}}}, "dtype": {"type": "DT_FLOAT"}}}, {"name": "StatefulPartitionedCall/model_12/stack_5/block_10/expand_conv2d/Conv2D_weights", "op": "Const", "attr": {"value": {"tensor": {"dtype": "DT_FLOAT", "tensorShape": {"dim": [{"size": "1"}, {"size": "1"}, {"size": "344"}, {"size": "2064"}]}}}, "dtype": {"type": "DT_FLOAT"}}}, {"name": "StatefulPartitionedCall/model_12/stack_2/block_4/expand_conv2d/Conv2D_bn_offset", "op": "Const", "attr": {"value": {"tensor": {"dtype": "DT_FLOAT", "tensorShape": {"dim": [{"size": "432"}]}}}, "dtype": {"type": "DT_FLOAT"}}}, {"name": "StatefulPartitionedCall/model_12/stack_2/block_4/depthwise_conv2d/depthwise_weights", "op": "Const", "attr": {"dtype": {"type": "DT_FLOAT"}, "value": {"tensor": {"dtype": "DT_FLOAT", "tensorShape": {"dim": [{"size": "5"}, {"size": "5"}, {"size": "432"}, {"size": "1"}]}}}}}, {"name": "StatefulPartitionedCall/model_12/stack_2/block_4/depthwise_conv2d/depthwise_bn_offset", "op": "Const", "attr": {"value": {"tensor": {"dtype": "DT_FLOAT", "tensorShape": {"dim": [{"size": "432"}]}}}, "dtype": {"type": "DT_FLOAT"}}}, {"name": "StatefulPartitionedCall/model_12/stack_5/block_10/expand_conv2d/Conv2D_bn_offset", "op": "Const", "attr": {"value": {"tensor": {"dtype": "DT_FLOAT", "tensorShape": {"dim": [{"size": "2064"}]}}}, "dtype": {"type": "DT_FLOAT"}}}, {"name": "StatefulPartitionedCall/model_12/stack_2/block_4/project_conv2d/Conv2D_weights", "op": "Const", "attr": {"dtype": {"type": "DT_FLOAT"}, "value": {"tensor": {"dtype": "DT_FLOAT", "tensorShape": {"dim": [{"size": "1"}, {"size": "1"}, {"size": "432"}, {"size": "72"}]}}}}}, {"name": "StatefulPartitionedCall/model_12/stack_2/block_4/project_conv2d/Conv2D_bn_offset", "op": "Const", "attr": {"dtype": {"type": "DT_FLOAT"}, "value": {"tensor": {"dtype": "DT_FLOAT", "tensorShape": {"dim": [{"size": "72"}]}}}}}, {"name": "StatefulPartitionedCall/model_12/stack_2/block_5/expand_conv2d/Conv2D_weights", "op": "Const", "attr": {"dtype": {"type": "DT_FLOAT"}, "value": {"tensor": {"dtype": "DT_FLOAT", "tensorShape": {"dim": [{"size": "1"}, {"size": "1"}, {"size": "72"}, {"size": "432"}]}}}}}, {"name": "StatefulPartitionedCall/model_12/stack_2/block_5/expand_conv2d/Conv2D_bn_offset", "op": "Const", "attr": {"dtype": {"type": "DT_FLOAT"}, "value": {"tensor": {"dtype": "DT_FLOAT", "tensorShape": {"dim": [{"size": "432"}]}}}}}, {"name": "StatefulPartitionedCall/model_12/stack_2/block_5/depthwise_conv2d/depthwise_weights", "op": "Const", "attr": {"value": {"tensor": {"dtype": "DT_FLOAT", "tensorShape": {"dim": [{"size": "5"}, {"size": "5"}, {"size": "432"}, {"size": "1"}]}}}, "dtype": {"type": "DT_FLOAT"}}}, {"name": "StatefulPartitionedCall/model_12/stack_2/block_5/depthwise_conv2d/depthwise_bn_offset", "op": "Const", "attr": {"dtype": {"type": "DT_FLOAT"}, "value": {"tensor": {"dtype": "DT_FLOAT", "tensorShape": {"dim": [{"size": "432"}]}}}}}, {"name": "StatefulPartitionedCall/model_12/stack_5/block_10/depthwise_conv2d/depthwise_weights", "op": "Const", "attr": {"value": {"tensor": {"dtype": "DT_FLOAT", "tensorShape": {"dim": [{"size": "5"}, {"size": "5"}, {"size": "2064"}, {"size": "1"}]}}}, "dtype": {"type": "DT_FLOAT"}}}, {"name": "StatefulPartitionedCall/model_12/stack_2/block_5/project_conv2d/Conv2D_weights", "op": "Const", "attr": {"value": {"tensor": {"dtype": "DT_FLOAT", "tensorShape": {"dim": [{"size": "1"}, {"size": "1"}, {"size": "432"}, {"size": "72"}]}}}, "dtype": {"type": "DT_FLOAT"}}}, {"name": "StatefulPartitionedCall/model_12/stack_2/block_5/project_conv2d/Conv2D_bn_offset", "op": "Const", "attr": {"dtype": {"type": "DT_FLOAT"}, "value": {"tensor": {"dtype": "DT_FLOAT", "tensorShape": {"dim": [{"size": "72"}]}}}}}, {"name": "StatefulPartitionedCall/model_12/stack_3/block_0/expand_conv2d/Conv2D_weights", "op": "Const", "attr": {"value": {"tensor": {"dtype": "DT_FLOAT", "tensorShape": {"dim": [{"size": "1"}, {"size": "1"}, {"size": "72"}, {"size": "432"}]}}}, "dtype": {"type": "DT_FLOAT"}}}, {"name": "StatefulPartitionedCall/model_12/stack_5/block_10/depthwise_conv2d/depthwise_bn_offset", "op": "Const", "attr": {"dtype": {"type": "DT_FLOAT"}, "value": {"tensor": {"dtype": "DT_FLOAT", "tensorShape": {"dim": [{"size": "2064"}]}}}}}, {"name": "StatefulPartitionedCall/model_12/stack_3/block_0/expand_conv2d/Conv2D_bn_offset", "op": "Const", "attr": {"dtype": {"type": "DT_FLOAT"}, "value": {"tensor": {"dtype": "DT_FLOAT", "tensorShape": {"dim": [{"size": "432"}]}}}}}, {"name": "StatefulPartitionedCall/model_12/stack_3/block_0/depthwise_conv2d/depthwise_weights", "op": "Const", "attr": {"value": {"tensor": {"dtype": "DT_FLOAT", "tensorShape": {"dim": [{"size": "3"}, {"size": "3"}, {"size": "432"}, {"size": "1"}]}}}, "dtype": {"type": "DT_FLOAT"}}}, {"name": "StatefulPartitionedCall/model_12/stack_3/block_0/depthwise_conv2d/depthwise_bn_offset", "op": "Const", "attr": {"dtype": {"type": "DT_FLOAT"}, "value": {"tensor": {"dtype": "DT_FLOAT", "tensorShape": {"dim": [{"size": "432"}]}}}}}, {"name": "StatefulPartitionedCall/model_12/stack_3/block_0/project_conv2d/Conv2D_weights", "op": "Const", "attr": {"value": {"tensor": {"dtype": "DT_FLOAT", "tensorShape": {"dim": [{"size": "1"}, {"size": "1"}, {"size": "432"}, {"size": "144"}]}}}, "dtype": {"type": "DT_FLOAT"}}}, {"name": "StatefulPartitionedCall/model_12/stack_3/block_0/project_conv2d/Conv2D_bn_offset", "op": "Const", "attr": {"dtype": {"type": "DT_FLOAT"}, "value": {"tensor": {"dtype": "DT_FLOAT", "tensorShape": {"dim": [{"size": "144"}]}}}}}, {"name": "StatefulPartitionedCall/model_12/stack_3/block_1/expand_conv2d/Conv2D_weights", "op": "Const", "attr": {"value": {"tensor": {"dtype": "DT_FLOAT", "tensorShape": {"dim": [{"size": "1"}, {"size": "1"}, {"size": "144"}, {"size": "864"}]}}}, "dtype": {"type": "DT_FLOAT"}}}, {"name": "StatefulPartitionedCall/model_12/stack_3/block_1/expand_conv2d/Conv2D_bn_offset", "op": "Const", "attr": {"value": {"tensor": {"dtype": "DT_FLOAT", "tensorShape": {"dim": [{"size": "864"}]}}}, "dtype": {"type": "DT_FLOAT"}}}, {"name": "StatefulPartitionedCall/model_12/stack_3/block_1/depthwise_conv2d/depthwise_weights", "op": "Const", "attr": {"value": {"tensor": {"dtype": "DT_FLOAT", "tensorShape": {"dim": [{"size": "3"}, {"size": "3"}, {"size": "864"}, {"size": "1"}]}}}, "dtype": {"type": "DT_FLOAT"}}}, {"name": "StatefulPartitionedCall/model_12/stack_3/block_1/depthwise_conv2d/depthwise_bn_offset", "op": "Const", "attr": {"dtype": {"type": "DT_FLOAT"}, "value": {"tensor": {"dtype": "DT_FLOAT", "tensorShape": {"dim": [{"size": "864"}]}}}}}, {"name": "StatefulPartitionedCall/model_12/stack_3/block_1/project_conv2d/Conv2D_weights", "op": "Const", "attr": {"value": {"tensor": {"dtype": "DT_FLOAT", "tensorShape": {"dim": [{"size": "1"}, {"size": "1"}, {"size": "864"}, {"size": "144"}]}}}, "dtype": {"type": "DT_FLOAT"}}}, {"name": "StatefulPartitionedCall/model_12/stack_3/block_1/project_conv2d/Conv2D_bn_offset", "op": "Const", "attr": {"dtype": {"type": "DT_FLOAT"}, "value": {"tensor": {"dtype": "DT_FLOAT", "tensorShape": {"dim": [{"size": "144"}]}}}}}, {"name": "StatefulPartitionedCall/model_12/stack_3/block_2/expand_conv2d/Conv2D_weights", "op": "Const", "attr": {"value": {"tensor": {"dtype": "DT_FLOAT", "tensorShape": {"dim": [{"size": "1"}, {"size": "1"}, {"size": "144"}, {"size": "864"}]}}}, "dtype": {"type": "DT_FLOAT"}}}, {"name": "StatefulPartitionedCall/model_12/stack_3/block_2/expand_conv2d/Conv2D_bn_offset", "op": "Const", "attr": {"dtype": {"type": "DT_FLOAT"}, "value": {"tensor": {"dtype": "DT_FLOAT", "tensorShape": {"dim": [{"size": "864"}]}}}}}, {"name": "StatefulPartitionedCall/model_12/stack_3/block_2/depthwise_conv2d/depthwise_weights", "op": "Const", "attr": {"value": {"tensor": {"dtype": "DT_FLOAT", "tensorShape": {"dim": [{"size": "3"}, {"size": "3"}, {"size": "864"}, {"size": "1"}]}}}, "dtype": {"type": "DT_FLOAT"}}}, {"name": "StatefulPartitionedCall/model_12/stack_3/block_2/depthwise_conv2d/depthwise_bn_offset", "op": "Const", "attr": {"value": {"tensor": {"dtype": "DT_FLOAT", "tensorShape": {"dim": [{"size": "864"}]}}}, "dtype": {"type": "DT_FLOAT"}}}, {"name": "StatefulPartitionedCall/model_12/stack_3/block_2/project_conv2d/Conv2D_weights", "op": "Const", "attr": {"value": {"tensor": {"dtype": "DT_FLOAT", "tensorShape": {"dim": [{"size": "1"}, {"size": "1"}, {"size": "864"}, {"size": "144"}]}}}, "dtype": {"type": "DT_FLOAT"}}}, {"name": "StatefulPartitionedCall/model_12/stack_3/block_2/project_conv2d/Conv2D_bn_offset", "op": "Const", "attr": {"value": {"tensor": {"dtype": "DT_FLOAT", "tensorShape": {"dim": [{"size": "144"}]}}}, "dtype": {"type": "DT_FLOAT"}}}, {"name": "StatefulPartitionedCall/model_12/stack_3/block_3/expand_conv2d/Conv2D_weights", "op": "Const", "attr": {"value": {"tensor": {"dtype": "DT_FLOAT", "tensorShape": {"dim": [{"size": "1"}, {"size": "1"}, {"size": "144"}, {"size": "864"}]}}}, "dtype": {"type": "DT_FLOAT"}}}, {"name": "StatefulPartitionedCall/model_12/stack_3/block_3/expand_conv2d/Conv2D_bn_offset", "op": "Const", "attr": {"dtype": {"type": "DT_FLOAT"}, "value": {"tensor": {"dtype": "DT_FLOAT", "tensorShape": {"dim": [{"size": "864"}]}}}}}, {"name": "StatefulPartitionedCall/model_12/stack_3/block_3/depthwise_conv2d/depthwise_weights", "op": "Const", "attr": {"value": {"tensor": {"dtype": "DT_FLOAT", "tensorShape": {"dim": [{"size": "3"}, {"size": "3"}, {"size": "864"}, {"size": "1"}]}}}, "dtype": {"type": "DT_FLOAT"}}}, {"name": "StatefulPartitionedCall/model_12/stack_3/block_3/depthwise_conv2d/depthwise_bn_offset", "op": "Const", "attr": {"dtype": {"type": "DT_FLOAT"}, "value": {"tensor": {"dtype": "DT_FLOAT", "tensorShape": {"dim": [{"size": "864"}]}}}}}, {"name": "StatefulPartitionedCall/model_12/stack_6/block_2/project_conv2d/Conv2D_weights", "op": "Const", "attr": {"value": {"tensor": {"dtype": "DT_FLOAT", "tensorShape": {"dim": [{"size": "1"}, {"size": "1"}, {"size": "3456"}, {"size": "576"}]}}}, "dtype": {"type": "DT_FLOAT"}}}, {"name": "StatefulPartitionedCall/model_12/stack_3/block_3/project_conv2d/Conv2D_weights", "op": "Const", "attr": {"value": {"tensor": {"dtype": "DT_FLOAT", "tensorShape": {"dim": [{"size": "1"}, {"size": "1"}, {"size": "864"}, {"size": "144"}]}}}, "dtype": {"type": "DT_FLOAT"}}}, {"name": "StatefulPartitionedCall/model_12/stack_3/block_3/project_conv2d/Conv2D_bn_offset", "op": "Const", "attr": {"dtype": {"type": "DT_FLOAT"}, "value": {"tensor": {"dtype": "DT_FLOAT", "tensorShape": {"dim": [{"size": "144"}]}}}}}, {"name": "StatefulPartitionedCall/model_12/stack_3/block_4/expand_conv2d/Conv2D_weights", "op": "Const", "attr": {"dtype": {"type": "DT_FLOAT"}, "value": {"tensor": {"dtype": "DT_FLOAT", "tensorShape": {"dim": [{"size": "1"}, {"size": "1"}, {"size": "144"}, {"size": "864"}]}}}}}, {"name": "StatefulPartitionedCall/model_12/stack_3/block_4/expand_conv2d/Conv2D_bn_offset", "op": "Const", "attr": {"dtype": {"type": "DT_FLOAT"}, "value": {"tensor": {"dtype": "DT_FLOAT", "tensorShape": {"dim": [{"size": "864"}]}}}}}, {"name": "StatefulPartitionedCall/model_12/stack_3/block_4/depthwise_conv2d/depthwise_weights", "op": "Const", "attr": {"dtype": {"type": "DT_FLOAT"}, "value": {"tensor": {"dtype": "DT_FLOAT", "tensorShape": {"dim": [{"size": "3"}, {"size": "3"}, {"size": "864"}, {"size": "1"}]}}}}}, {"name": "StatefulPartitionedCall/model_12/stack_3/block_4/depthwise_conv2d/depthwise_bn_offset", "op": "Const", "attr": {"dtype": {"type": "DT_FLOAT"}, "value": {"tensor": {"dtype": "DT_FLOAT", "tensorShape": {"dim": [{"size": "864"}]}}}}}, {"name": "StatefulPartitionedCall/model_12/stack_5/block_10/project_conv2d/Conv2D_weights", "op": "Const", "attr": {"dtype": {"type": "DT_FLOAT"}, "value": {"tensor": {"dtype": "DT_FLOAT", "tensorShape": {"dim": [{"size": "1"}, {"size": "1"}, {"size": "2064"}, {"size": "344"}]}}}}}, {"name": "StatefulPartitionedCall/model_12/stack_3/block_4/project_conv2d/Conv2D_weights", "op": "Const", "attr": {"dtype": {"type": "DT_FLOAT"}, "value": {"tensor": {"dtype": "DT_FLOAT", "tensorShape": {"dim": [{"size": "1"}, {"size": "1"}, {"size": "864"}, {"size": "144"}]}}}}}, {"name": "StatefulPartitionedCall/model_12/stack_5/block_10/project_conv2d/Conv2D_bn_offset", "op": "Const", "attr": {"dtype": {"type": "DT_FLOAT"}, "value": {"tensor": {"dtype": "DT_FLOAT", "tensorShape": {"dim": [{"size": "344"}]}}}}}, {"name": "StatefulPartitionedCall/model_12/stack_3/block_4/project_conv2d/Conv2D_bn_offset", "op": "Const", "attr": {"dtype": {"type": "DT_FLOAT"}, "value": {"tensor": {"dtype": "DT_FLOAT", "tensorShape": {"dim": [{"size": "144"}]}}}}}, {"name": "StatefulPartitionedCall/model_12/stack_3/block_5/expand_conv2d/Conv2D_weights", "op": "Const", "attr": {"value": {"tensor": {"dtype": "DT_FLOAT", "tensorShape": {"dim": [{"size": "1"}, {"size": "1"}, {"size": "144"}, {"size": "864"}]}}}, "dtype": {"type": "DT_FLOAT"}}}, {"name": "StatefulPartitionedCall/model_12/stack_3/block_5/expand_conv2d/Conv2D_bn_offset", "op": "Const", "attr": {"value": {"tensor": {"dtype": "DT_FLOAT", "tensorShape": {"dim": [{"size": "864"}]}}}, "dtype": {"type": "DT_FLOAT"}}}, {"name": "StatefulPartitionedCall/model_12/stack_3/block_5/depthwise_conv2d/depthwise_weights", "op": "Const", "attr": {"value": {"tensor": {"dtype": "DT_FLOAT", "tensorShape": {"dim": [{"size": "3"}, {"size": "3"}, {"size": "864"}, {"size": "1"}]}}}, "dtype": {"type": "DT_FLOAT"}}}, {"name": "StatefulPartitionedCall/model_12/stack_3/block_5/depthwise_conv2d/depthwise_bn_offset", "op": "Const", "attr": {"value": {"tensor": {"dtype": "DT_FLOAT", "tensorShape": {"dim": [{"size": "864"}]}}}, "dtype": {"type": "DT_FLOAT"}}}, {"name": "StatefulPartitionedCall/model_12/stack_6/block_0/expand_conv2d/Conv2D_weights", "op": "Const", "attr": {"value": {"tensor": {"dtype": "DT_FLOAT", "tensorShape": {"dim": [{"size": "1"}, {"size": "1"}, {"size": "344"}, {"size": "2064"}]}}}, "dtype": {"type": "DT_FLOAT"}}}, {"name": "StatefulPartitionedCall/model_12/stack_3/block_5/project_conv2d/Conv2D_weights", "op": "Const", "attr": {"value": {"tensor": {"dtype": "DT_FLOAT", "tensorShape": {"dim": [{"size": "1"}, {"size": "1"}, {"size": "864"}, {"size": "144"}]}}}, "dtype": {"type": "DT_FLOAT"}}}, {"name": "StatefulPartitionedCall/model_12/stack_6/block_2/project_conv2d/Conv2D_bn_offset", "op": "Const", "attr": {"value": {"tensor": {"dtype": "DT_FLOAT", "tensorShape": {"dim": [{"size": "576"}]}}}, "dtype": {"type": "DT_FLOAT"}}}, {"name": "StatefulPartitionedCall/model_12/stack_3/block_5/project_conv2d/Conv2D_bn_offset", "op": "Const", "attr": {"value": {"tensor": {"dtype": "DT_FLOAT", "tensorShape": {"dim": [{"size": "144"}]}}}, "dtype": {"type": "DT_FLOAT"}}}, {"name": "StatefulPartitionedCall/model_12/stack_3/block_6/expand_conv2d/Conv2D_weights", "op": "Const", "attr": {"dtype": {"type": "DT_FLOAT"}, "value": {"tensor": {"dtype": "DT_FLOAT", "tensorShape": {"dim": [{"size": "1"}, {"size": "1"}, {"size": "144"}, {"size": "864"}]}}}}}, {"name": "StatefulPartitionedCall/model_12/stack_6/block_0/expand_conv2d/Conv2D_bn_offset", "op": "Const", "attr": {"value": {"tensor": {"dtype": "DT_FLOAT", "tensorShape": {"dim": [{"size": "2064"}]}}}, "dtype": {"type": "DT_FLOAT"}}}, {"name": "StatefulPartitionedCall/model_12/stack_3/block_6/expand_conv2d/Conv2D_bn_offset", "op": "Const", "attr": {"value": {"tensor": {"dtype": "DT_FLOAT", "tensorShape": {"dim": [{"size": "864"}]}}}, "dtype": {"type": "DT_FLOAT"}}}, {"name": "StatefulPartitionedCall/model_12/stack_3/block_6/depthwise_conv2d/depthwise_weights", "op": "Const", "attr": {"dtype": {"type": "DT_FLOAT"}, "value": {"tensor": {"dtype": "DT_FLOAT", "tensorShape": {"dim": [{"size": "3"}, {"size": "3"}, {"size": "864"}, {"size": "1"}]}}}}}, {"name": "StatefulPartitionedCall/model_12/stack_3/block_6/depthwise_conv2d/depthwise_bn_offset", "op": "Const", "attr": {"dtype": {"type": "DT_FLOAT"}, "value": {"tensor": {"dtype": "DT_FLOAT", "tensorShape": {"dim": [{"size": "864"}]}}}}}, {"name": "StatefulPartitionedCall/model_12/stack_3/block_6/project_conv2d/Conv2D_weights", "op": "Const", "attr": {"dtype": {"type": "DT_FLOAT"}, "value": {"tensor": {"dtype": "DT_FLOAT", "tensorShape": {"dim": [{"size": "1"}, {"size": "1"}, {"size": "864"}, {"size": "144"}]}}}}}, {"name": "StatefulPartitionedCall/model_12/stack_3/block_6/project_conv2d/Conv2D_bn_offset", "op": "Const", "attr": {"dtype": {"type": "DT_FLOAT"}, "value": {"tensor": {"dtype": "DT_FLOAT", "tensorShape": {"dim": [{"size": "144"}]}}}}}, {"name": "StatefulPartitionedCall/model_12/stack_3/block_7/expand_conv2d/Conv2D_weights", "op": "Const", "attr": {"dtype": {"type": "DT_FLOAT"}, "value": {"tensor": {"dtype": "DT_FLOAT", "tensorShape": {"dim": [{"size": "1"}, {"size": "1"}, {"size": "144"}, {"size": "864"}]}}}}}, {"name": "StatefulPartitionedCall/model_12/stack_6/block_0/depthwise_conv2d/depthwise_weights", "op": "Const", "attr": {"dtype": {"type": "DT_FLOAT"}, "value": {"tensor": {"dtype": "DT_FLOAT", "tensorShape": {"dim": [{"size": "3"}, {"size": "3"}, {"size": "2064"}, {"size": "1"}]}}}}}, {"name": "StatefulPartitionedCall/model_12/stack_3/block_7/expand_conv2d/Conv2D_bn_offset", "op": "Const", "attr": {"dtype": {"type": "DT_FLOAT"}, "value": {"tensor": {"dtype": "DT_FLOAT", "tensorShape": {"dim": [{"size": "864"}]}}}}}, {"name": "StatefulPartitionedCall/model_12/stack_3/block_7/depthwise_conv2d/depthwise_weights", "op": "Const", "attr": {"value": {"tensor": {"dtype": "DT_FLOAT", "tensorShape": {"dim": [{"size": "3"}, {"size": "3"}, {"size": "864"}, {"size": "1"}]}}}, "dtype": {"type": "DT_FLOAT"}}}, {"name": "StatefulPartitionedCall/model_12/stack_3/block_7/depthwise_conv2d/depthwise_bn_offset", "op": "Const", "attr": {"dtype": {"type": "DT_FLOAT"}, "value": {"tensor": {"dtype": "DT_FLOAT", "tensorShape": {"dim": [{"size": "864"}]}}}}}, {"name": "StatefulPartitionedCall/model_12/stack_6/block_0/depthwise_conv2d/depthwise_bn_offset", "op": "Const", "attr": {"value": {"tensor": {"dtype": "DT_FLOAT", "tensorShape": {"dim": [{"size": "2064"}]}}}, "dtype": {"type": "DT_FLOAT"}}}, {"name": "StatefulPartitionedCall/model_12/stack_3/block_7/project_conv2d/Conv2D_weights", "op": "Const", "attr": {"dtype": {"type": "DT_FLOAT"}, "value": {"tensor": {"dtype": "DT_FLOAT", "tensorShape": {"dim": [{"size": "1"}, {"size": "1"}, {"size": "864"}, {"size": "144"}]}}}}}, {"name": "StatefulPartitionedCall/model_12/stack_3/block_7/project_conv2d/Conv2D_bn_offset", "op": "Const", "attr": {"dtype": {"type": "DT_FLOAT"}, "value": {"tensor": {"dtype": "DT_FLOAT", "tensorShape": {"dim": [{"size": "144"}]}}}}}, {"name": "StatefulPartitionedCall/model_12/stack_4/block_0/expand_conv2d/Conv2D_weights", "op": "Const", "attr": {"value": {"tensor": {"dtype": "DT_FLOAT", "tensorShape": {"dim": [{"size": "1"}, {"size": "1"}, {"size": "144"}, {"size": "864"}]}}}, "dtype": {"type": "DT_FLOAT"}}}, {"name": "StatefulPartitionedCall/model_12/stack_4/block_0/expand_conv2d/Conv2D_bn_offset", "op": "Const", "attr": {"value": {"tensor": {"dtype": "DT_FLOAT", "tensorShape": {"dim": [{"size": "864"}]}}}, "dtype": {"type": "DT_FLOAT"}}}, {"name": "StatefulPartitionedCall/model_12/stack_4/block_0/depthwise_conv2d/depthwise_weights", "op": "Const", "attr": {"value": {"tensor": {"dtype": "DT_FLOAT", "tensorShape": {"dim": [{"size": "5"}, {"size": "5"}, {"size": "864"}, {"size": "1"}]}}}, "dtype": {"type": "DT_FLOAT"}}}, {"name": "StatefulPartitionedCall/model_12/stack_4/block_0/depthwise_conv2d/depthwise_bn_offset", "op": "Const", "attr": {"dtype": {"type": "DT_FLOAT"}, "value": {"tensor": {"dtype": "DT_FLOAT", "tensorShape": {"dim": [{"size": "864"}]}}}}}, {"name": "StatefulPartitionedCall/model_12/stack_4/block_0/project_conv2d/Conv2D_weights", "op": "Const", "attr": {"dtype": {"type": "DT_FLOAT"}, "value": {"tensor": {"dtype": "DT_FLOAT", "tensorShape": {"dim": [{"size": "1"}, {"size": "1"}, {"size": "864"}, {"size": "200"}]}}}}}, {"name": "StatefulPartitionedCall/model_12/stack_4/block_0/project_conv2d/Conv2D_bn_offset", "op": "Const", "attr": {"value": {"tensor": {"dtype": "DT_FLOAT", "tensorShape": {"dim": [{"size": "200"}]}}}, "dtype": {"type": "DT_FLOAT"}}}, {"name": "StatefulPartitionedCall/model_12/stack_4/block_1/expand_conv2d/Conv2D_weights", "op": "Const", "attr": {"dtype": {"type": "DT_FLOAT"}, "value": {"tensor": {"dtype": "DT_FLOAT", "tensorShape": {"dim": [{"size": "1"}, {"size": "1"}, {"size": "200"}, {"size": "1200"}]}}}}}, {"name": "StatefulPartitionedCall/model_12/stack_4/block_1/expand_conv2d/Conv2D_bn_offset", "op": "Const", "attr": {"value": {"tensor": {"dtype": "DT_FLOAT", "tensorShape": {"dim": [{"size": "1200"}]}}}, "dtype": {"type": "DT_FLOAT"}}}, {"name": "StatefulPartitionedCall/model_12/stack_4/block_1/depthwise_conv2d/depthwise_weights", "op": "Const", "attr": {"dtype": {"type": "DT_FLOAT"}, "value": {"tensor": {"dtype": "DT_FLOAT", "tensorShape": {"dim": [{"size": "5"}, {"size": "5"}, {"size": "1200"}, {"size": "1"}]}}}}}, {"name": "StatefulPartitionedCall/model_12/stack_4/block_1/depthwise_conv2d/depthwise_bn_offset", "op": "Const", "attr": {"value": {"tensor": {"dtype": "DT_FLOAT", "tensorShape": {"dim": [{"size": "1200"}]}}}, "dtype": {"type": "DT_FLOAT"}}}, {"name": "StatefulPartitionedCall/model_12/stack_4/block_1/project_conv2d/Conv2D_weights", "op": "Const", "attr": {"value": {"tensor": {"dtype": "DT_FLOAT", "tensorShape": {"dim": [{"size": "1"}, {"size": "1"}, {"size": "1200"}, {"size": "200"}]}}}, "dtype": {"type": "DT_FLOAT"}}}, {"name": "StatefulPartitionedCall/model_12/stack_4/block_1/project_conv2d/Conv2D_bn_offset", "op": "Const", "attr": {"value": {"tensor": {"dtype": "DT_FLOAT", "tensorShape": {"dim": [{"size": "200"}]}}}, "dtype": {"type": "DT_FLOAT"}}}, {"name": "StatefulPartitionedCall/model_12/stack_4/block_2/expand_conv2d/Conv2D_weights", "op": "Const", "attr": {"value": {"tensor": {"dtype": "DT_FLOAT", "tensorShape": {"dim": [{"size": "1"}, {"size": "1"}, {"size": "200"}, {"size": "1200"}]}}}, "dtype": {"type": "DT_FLOAT"}}}, {"name": "StatefulPartitionedCall/model_12/stack_4/block_2/expand_conv2d/Conv2D_bn_offset", "op": "Const", "attr": {"value": {"tensor": {"dtype": "DT_FLOAT", "tensorShape": {"dim": [{"size": "1200"}]}}}, "dtype": {"type": "DT_FLOAT"}}}, {"name": "StatefulPartitionedCall/model_12/stack_4/block_2/depthwise_conv2d/depthwise_weights", "op": "Const", "attr": {"value": {"tensor": {"dtype": "DT_FLOAT", "tensorShape": {"dim": [{"size": "5"}, {"size": "5"}, {"size": "1200"}, {"size": "1"}]}}}, "dtype": {"type": "DT_FLOAT"}}}, {"name": "StatefulPartitionedCall/model_12/stack_4/block_2/depthwise_conv2d/depthwise_bn_offset", "op": "Const", "attr": {"value": {"tensor": {"dtype": "DT_FLOAT", "tensorShape": {"dim": [{"size": "1200"}]}}}, "dtype": {"type": "DT_FLOAT"}}}, {"name": "StatefulPartitionedCall/model_12/stack_4/block_2/project_conv2d/Conv2D_weights", "op": "Const", "attr": {"dtype": {"type": "DT_FLOAT"}, "value": {"tensor": {"dtype": "DT_FLOAT", "tensorShape": {"dim": [{"size": "1"}, {"size": "1"}, {"size": "1200"}, {"size": "200"}]}}}}}, {"name": "StatefulPartitionedCall/model_12/stack_4/block_2/project_conv2d/Conv2D_bn_offset", "op": "Const", "attr": {"value": {"tensor": {"dtype": "DT_FLOAT", "tensorShape": {"dim": [{"size": "200"}]}}}, "dtype": {"type": "DT_FLOAT"}}}, {"name": "StatefulPartitionedCall/model_12/stack_4/block_3/expand_conv2d/Conv2D_weights", "op": "Const", "attr": {"value": {"tensor": {"dtype": "DT_FLOAT", "tensorShape": {"dim": [{"size": "1"}, {"size": "1"}, {"size": "200"}, {"size": "1200"}]}}}, "dtype": {"type": "DT_FLOAT"}}}, {"name": "StatefulPartitionedCall/model_12/stack_4/block_3/expand_conv2d/Conv2D_bn_offset", "op": "Const", "attr": {"dtype": {"type": "DT_FLOAT"}, "value": {"tensor": {"dtype": "DT_FLOAT", "tensorShape": {"dim": [{"size": "1200"}]}}}}}, {"name": "StatefulPartitionedCall/model_12/stack_4/block_3/depthwise_conv2d/depthwise_weights", "op": "Const", "attr": {"value": {"tensor": {"dtype": "DT_FLOAT", "tensorShape": {"dim": [{"size": "5"}, {"size": "5"}, {"size": "1200"}, {"size": "1"}]}}}, "dtype": {"type": "DT_FLOAT"}}}, {"name": "StatefulPartitionedCall/model_12/stack_4/block_3/depthwise_conv2d/depthwise_bn_offset", "op": "Const", "attr": {"value": {"tensor": {"dtype": "DT_FLOAT", "tensorShape": {"dim": [{"size": "1200"}]}}}, "dtype": {"type": "DT_FLOAT"}}}, {"name": "StatefulPartitionedCall/model_12/stack_4/block_3/project_conv2d/Conv2D_weights", "op": "Const", "attr": {"value": {"tensor": {"dtype": "DT_FLOAT", "tensorShape": {"dim": [{"size": "1"}, {"size": "1"}, {"size": "1200"}, {"size": "200"}]}}}, "dtype": {"type": "DT_FLOAT"}}}, {"name": "StatefulPartitionedCall/model_12/stack_6/block_0/project_conv2d/Conv2D_weights", "op": "Const", "attr": {"value": {"tensor": {"dtype": "DT_FLOAT", "tensorShape": {"dim": [{"size": "1"}, {"size": "1"}, {"size": "2064"}, {"size": "576"}]}}}, "dtype": {"type": "DT_FLOAT"}}}, {"name": "StatefulPartitionedCall/model_12/stack_4/block_3/project_conv2d/Conv2D_bn_offset", "op": "Const", "attr": {"dtype": {"type": "DT_FLOAT"}, "value": {"tensor": {"dtype": "DT_FLOAT", "tensorShape": {"dim": [{"size": "200"}]}}}}}, {"name": "StatefulPartitionedCall/model_12/stack_4/block_4/expand_conv2d/Conv2D_weights", "op": "Const", "attr": {"value": {"tensor": {"dtype": "DT_FLOAT", "tensorShape": {"dim": [{"size": "1"}, {"size": "1"}, {"size": "200"}, {"size": "1200"}]}}}, "dtype": {"type": "DT_FLOAT"}}}, {"name": "StatefulPartitionedCall/model_12/top_conv2d/Conv2D_weights", "op": "Const", "attr": {"dtype": {"type": "DT_FLOAT"}, "value": {"tensor": {"dtype": "DT_FLOAT", "tensorShape": {"dim": [{"size": "1"}, {"size": "1"}, {"size": "576"}, {"size": "2304"}]}}}}}, {"name": "StatefulPartitionedCall/model_12/stack_4/block_4/expand_conv2d/Conv2D_bn_offset", "op": "Const", "attr": {"value": {"tensor": {"dtype": "DT_FLOAT", "tensorShape": {"dim": [{"size": "1200"}]}}}, "dtype": {"type": "DT_FLOAT"}}}, {"name": "StatefulPartitionedCall/model_12/stack_4/block_4/depthwise_conv2d/depthwise_weights", "op": "Const", "attr": {"value": {"tensor": {"dtype": "DT_FLOAT", "tensorShape": {"dim": [{"size": "5"}, {"size": "5"}, {"size": "1200"}, {"size": "1"}]}}}, "dtype": {"type": "DT_FLOAT"}}}, {"name": "StatefulPartitionedCall/model_12/stack_4/block_4/depthwise_conv2d/depthwise_bn_offset", "op": "Const", "attr": {"dtype": {"type": "DT_FLOAT"}, "value": {"tensor": {"dtype": "DT_FLOAT", "tensorShape": {"dim": [{"size": "1200"}]}}}}}, {"name": "StatefulPartitionedCall/model_12/stack_6/block_0/project_conv2d/Conv2D_bn_offset", "op": "Const", "attr": {"dtype": {"type": "DT_FLOAT"}, "value": {"tensor": {"dtype": "DT_FLOAT", "tensorShape": {"dim": [{"size": "576"}]}}}}}, {"name": "StatefulPartitionedCall/model_12/stack_4/block_4/project_conv2d/Conv2D_weights", "op": "Const", "attr": {"value": {"tensor": {"dtype": "DT_FLOAT", "tensorShape": {"dim": [{"size": "1"}, {"size": "1"}, {"size": "1200"}, {"size": "200"}]}}}, "dtype": {"type": "DT_FLOAT"}}}, {"name": "StatefulPartitionedCall/model_12/stack_6/block_1/expand_conv2d/Conv2D_weights", "op": "Const", "attr": {"dtype": {"type": "DT_FLOAT"}, "value": {"tensor": {"dtype": "DT_FLOAT", "tensorShape": {"dim": [{"size": "1"}, {"size": "1"}, {"size": "576"}, {"size": "3456"}]}}}}}, {"name": "StatefulPartitionedCall/model_12/stack_4/block_4/project_conv2d/Conv2D_bn_offset", "op": "Const", "attr": {"dtype": {"type": "DT_FLOAT"}, "value": {"tensor": {"dtype": "DT_FLOAT", "tensorShape": {"dim": [{"size": "200"}]}}}}}, {"name": "StatefulPartitionedCall/model_12/stack_4/block_5/expand_conv2d/Conv2D_weights", "op": "Const", "attr": {"value": {"tensor": {"dtype": "DT_FLOAT", "tensorShape": {"dim": [{"size": "1"}, {"size": "1"}, {"size": "200"}, {"size": "1200"}]}}}, "dtype": {"type": "DT_FLOAT"}}}, {"name": "StatefulPartitionedCall/model_12/stack_4/block_5/expand_conv2d/Conv2D_bn_offset", "op": "Const", "attr": {"value": {"tensor": {"dtype": "DT_FLOAT", "tensorShape": {"dim": [{"size": "1200"}]}}}, "dtype": {"type": "DT_FLOAT"}}}, {"name": "StatefulPartitionedCall/model_12/stack_4/block_5/depthwise_conv2d/depthwise_weights", "op": "Const", "attr": {"dtype": {"type": "DT_FLOAT"}, "value": {"tensor": {"dtype": "DT_FLOAT", "tensorShape": {"dim": [{"size": "5"}, {"size": "5"}, {"size": "1200"}, {"size": "1"}]}}}}}, {"name": "StatefulPartitionedCall/model_12/stack_4/block_5/depthwise_conv2d/depthwise_bn_offset", "op": "Const", "attr": {"value": {"tensor": {"dtype": "DT_FLOAT", "tensorShape": {"dim": [{"size": "1200"}]}}}, "dtype": {"type": "DT_FLOAT"}}}, {"name": "StatefulPartitionedCall/model_12/stack_6/block_1/expand_conv2d/Conv2D_bn_offset", "op": "Const", "attr": {"dtype": {"type": "DT_FLOAT"}, "value": {"tensor": {"dtype": "DT_FLOAT", "tensorShape": {"dim": [{"size": "3456"}]}}}}}, {"name": "StatefulPartitionedCall/model_12/stack_4/block_5/project_conv2d/Conv2D_weights", "op": "Const", "attr": {"dtype": {"type": "DT_FLOAT"}, "value": {"tensor": {"dtype": "DT_FLOAT", "tensorShape": {"dim": [{"size": "1"}, {"size": "1"}, {"size": "1200"}, {"size": "200"}]}}}}}, {"name": "StatefulPartitionedCall/model_12/stack_4/block_5/project_conv2d/Conv2D_bn_offset", "op": "Const", "attr": {"value": {"tensor": {"dtype": "DT_FLOAT", "tensorShape": {"dim": [{"size": "200"}]}}}, "dtype": {"type": "DT_FLOAT"}}}, {"name": "StatefulPartitionedCall/model_12/stack_4/block_6/expand_conv2d/Conv2D_weights", "op": "Const", "attr": {"value": {"tensor": {"dtype": "DT_FLOAT", "tensorShape": {"dim": [{"size": "1"}, {"size": "1"}, {"size": "200"}, {"size": "1200"}]}}}, "dtype": {"type": "DT_FLOAT"}}}, {"name": "StatefulPartitionedCall/model_12/stack_4/block_6/expand_conv2d/Conv2D_bn_offset", "op": "Const", "attr": {"value": {"tensor": {"dtype": "DT_FLOAT", "tensorShape": {"dim": [{"size": "1200"}]}}}, "dtype": {"type": "DT_FLOAT"}}}, {"name": "StatefulPartitionedCall/model_12/stack_4/block_6/depthwise_conv2d/depthwise_weights", "op": "Const", "attr": {"value": {"tensor": {"dtype": "DT_FLOAT", "tensorShape": {"dim": [{"size": "5"}, {"size": "5"}, {"size": "1200"}, {"size": "1"}]}}}, "dtype": {"type": "DT_FLOAT"}}}, {"name": "StatefulPartitionedCall/model_12/stack_4/block_6/depthwise_conv2d/depthwise_bn_offset", "op": "Const", "attr": {"dtype": {"type": "DT_FLOAT"}, "value": {"tensor": {"dtype": "DT_FLOAT", "tensorShape": {"dim": [{"size": "1200"}]}}}}}, {"name": "StatefulPartitionedCall/model_12/stack_6/block_1/depthwise_conv2d/depthwise_weights", "op": "Const", "attr": {"dtype": {"type": "DT_FLOAT"}, "value": {"tensor": {"dtype": "DT_FLOAT", "tensorShape": {"dim": [{"size": "3"}, {"size": "3"}, {"size": "3456"}, {"size": "1"}]}}}}}, {"name": "StatefulPartitionedCall/model_12/stack_4/block_6/project_conv2d/Conv2D_weights", "op": "Const", "attr": {"dtype": {"type": "DT_FLOAT"}, "value": {"tensor": {"dtype": "DT_FLOAT", "tensorShape": {"dim": [{"size": "1"}, {"size": "1"}, {"size": "1200"}, {"size": "200"}]}}}}}, {"name": "StatefulPartitionedCall/model_12/stack_6/block_1/depthwise_conv2d/depthwise_bn_offset", "op": "Const", "attr": {"value": {"tensor": {"dtype": "DT_FLOAT", "tensorShape": {"dim": [{"size": "3456"}]}}}, "dtype": {"type": "DT_FLOAT"}}}, {"name": "StatefulPartitionedCall/model_12/stack_4/block_6/project_conv2d/Conv2D_bn_offset", "op": "Const", "attr": {"value": {"tensor": {"dtype": "DT_FLOAT", "tensorShape": {"dim": [{"size": "200"}]}}}, "dtype": {"type": "DT_FLOAT"}}}, {"name": "StatefulPartitionedCall/model_12/stack_4/block_7/expand_conv2d/Conv2D_weights", "op": "Const", "attr": {"dtype": {"type": "DT_FLOAT"}, "value": {"tensor": {"dtype": "DT_FLOAT", "tensorShape": {"dim": [{"size": "1"}, {"size": "1"}, {"size": "200"}, {"size": "1200"}]}}}}}, {"name": "StatefulPartitionedCall/model_12/stack_4/block_7/expand_conv2d/Conv2D_bn_offset", "op": "Const", "attr": {"value": {"tensor": {"dtype": "DT_FLOAT", "tensorShape": {"dim": [{"size": "1200"}]}}}, "dtype": {"type": "DT_FLOAT"}}}, {"name": "StatefulPartitionedCall/model_12/stack_4/block_7/depthwise_conv2d/depthwise_weights", "op": "Const", "attr": {"dtype": {"type": "DT_FLOAT"}, "value": {"tensor": {"dtype": "DT_FLOAT", "tensorShape": {"dim": [{"size": "5"}, {"size": "5"}, {"size": "1200"}, {"size": "1"}]}}}}}, {"name": "StatefulPartitionedCall/model_12/stack_4/block_7/depthwise_conv2d/depthwise_bn_offset", "op": "Const", "attr": {"value": {"tensor": {"dtype": "DT_FLOAT", "tensorShape": {"dim": [{"size": "1200"}]}}}, "dtype": {"type": "DT_FLOAT"}}}, {"name": "StatefulPartitionedCall/model_12/stack_4/block_7/project_conv2d/Conv2D_weights", "op": "Const", "attr": {"value": {"tensor": {"dtype": "DT_FLOAT", "tensorShape": {"dim": [{"size": "1"}, {"size": "1"}, {"size": "1200"}, {"size": "200"}]}}}, "dtype": {"type": "DT_FLOAT"}}}, {"name": "StatefulPartitionedCall/model_12/stack_4/block_7/project_conv2d/Conv2D_bn_offset", "op": "Const", "attr": {"value": {"tensor": {"dtype": "DT_FLOAT", "tensorShape": {"dim": [{"size": "200"}]}}}, "dtype": {"type": "DT_FLOAT"}}}, {"name": "StatefulPartitionedCall/model_12/stack_5/block_0/expand_conv2d/Conv2D_weights", "op": "Const", "attr": {"value": {"tensor": {"dtype": "DT_FLOAT", "tensorShape": {"dim": [{"size": "1"}, {"size": "1"}, {"size": "200"}, {"size": "1200"}]}}}, "dtype": {"type": "DT_FLOAT"}}}, {"name": "StatefulPartitionedCall/model_12/stack_5/block_0/expand_conv2d/Conv2D_bn_offset", "op": "Const", "attr": {"value": {"tensor": {"dtype": "DT_FLOAT", "tensorShape": {"dim": [{"size": "1200"}]}}}, "dtype": {"type": "DT_FLOAT"}}}, {"name": "StatefulPartitionedCall/model_12/stack_5/block_0/depthwise_conv2d/depthwise_weights", "op": "Const", "attr": {"value": {"tensor": {"dtype": "DT_FLOAT", "tensorShape": {"dim": [{"size": "5"}, {"size": "5"}, {"size": "1200"}, {"size": "1"}]}}}, "dtype": {"type": "DT_FLOAT"}}}, {"name": "StatefulPartitionedCall/model_12/stack_5/block_0/depthwise_conv2d/depthwise_bn_offset", "op": "Const", "attr": {"dtype": {"type": "DT_FLOAT"}, "value": {"tensor": {"dtype": "DT_FLOAT", "tensorShape": {"dim": [{"size": "1200"}]}}}}}, {"name": "StatefulPartitionedCall/model_12/stack_5/block_0/project_conv2d/Conv2D_weights", "op": "Const", "attr": {"value": {"tensor": {"dtype": "DT_FLOAT", "tensorShape": {"dim": [{"size": "1"}, {"size": "1"}, {"size": "1200"}, {"size": "344"}]}}}, "dtype": {"type": "DT_FLOAT"}}}, {"name": "StatefulPartitionedCall/model_12/stack_5/block_0/project_conv2d/Conv2D_bn_offset", "op": "Const", "attr": {"value": {"tensor": {"dtype": "DT_FLOAT", "tensorShape": {"dim": [{"size": "344"}]}}}, "dtype": {"type": "DT_FLOAT"}}}, {"name": "StatefulPartitionedCall/model_12/stack_5/block_1/expand_conv2d/Conv2D_weights", "op": "Const", "attr": {"dtype": {"type": "DT_FLOAT"}, "value": {"tensor": {"dtype": "DT_FLOAT", "tensorShape": {"dim": [{"size": "1"}, {"size": "1"}, {"size": "344"}, {"size": "2064"}]}}}}}, {"name": "StatefulPartitionedCall/model_12/top_conv2d/Conv2D_bn_offset", "op": "Const", "attr": {"value": {"tensor": {"dtype": "DT_FLOAT", "tensorShape": {"dim": [{"size": "2304"}]}}}, "dtype": {"type": "DT_FLOAT"}}}, {"name": "StatefulPartitionedCall/model_12/stack_5/block_1/expand_conv2d/Conv2D_bn_offset", "op": "Const", "attr": {"value": {"tensor": {"dtype": "DT_FLOAT", "tensorShape": {"dim": [{"size": "2064"}]}}}, "dtype": {"type": "DT_FLOAT"}}}, {"name": "StatefulPartitionedCall/model_12/stack_5/block_1/depthwise_conv2d/depthwise_weights", "op": "Const", "attr": {"value": {"tensor": {"dtype": "DT_FLOAT", "tensorShape": {"dim": [{"size": "5"}, {"size": "5"}, {"size": "2064"}, {"size": "1"}]}}}, "dtype": {"type": "DT_FLOAT"}}}, {"name": "StatefulPartitionedCall/model_12/stack_5/block_1/depthwise_conv2d/depthwise_bn_offset", "op": "Const", "attr": {"value": {"tensor": {"dtype": "DT_FLOAT", "tensorShape": {"dim": [{"size": "2064"}]}}}, "dtype": {"type": "DT_FLOAT"}}}, {"name": "StatefulPartitionedCall/model_12/stack_5/block_1/project_conv2d/Conv2D_weights", "op": "Const", "attr": {"value": {"tensor": {"dtype": "DT_FLOAT", "tensorShape": {"dim": [{"size": "1"}, {"size": "1"}, {"size": "2064"}, {"size": "344"}]}}}, "dtype": {"type": "DT_FLOAT"}}}, {"name": "StatefulPartitionedCall/model_12/stack_5/block_1/project_conv2d/Conv2D_bn_offset", "op": "Const", "attr": {"dtype": {"type": "DT_FLOAT"}, "value": {"tensor": {"dtype": "DT_FLOAT", "tensorShape": {"dim": [{"size": "344"}]}}}}}, {"name": "StatefulPartitionedCall/model_12/stack_5/block_2/expand_conv2d/Conv2D_weights", "op": "Const", "attr": {"dtype": {"type": "DT_FLOAT"}, "value": {"tensor": {"dtype": "DT_FLOAT", "tensorShape": {"dim": [{"size": "1"}, {"size": "1"}, {"size": "344"}, {"size": "2064"}]}}}}}, {"name": "StatefulPartitionedCall/model_12/stack_5/block_2/expand_conv2d/Conv2D_bn_offset", "op": "Const", "attr": {"value": {"tensor": {"dtype": "DT_FLOAT", "tensorShape": {"dim": [{"size": "2064"}]}}}, "dtype": {"type": "DT_FLOAT"}}}, {"name": "StatefulPartitionedCall/model_12/stack_5/block_2/depthwise_conv2d/depthwise_weights", "op": "Const", "attr": {"value": {"tensor": {"dtype": "DT_FLOAT", "tensorShape": {"dim": [{"size": "5"}, {"size": "5"}, {"size": "2064"}, {"size": "1"}]}}}, "dtype": {"type": "DT_FLOAT"}}}, {"name": "StatefulPartitionedCall/model_12/stack_5/block_2/depthwise_conv2d/depthwise_bn_offset", "op": "Const", "attr": {"value": {"tensor": {"dtype": "DT_FLOAT", "tensorShape": {"dim": [{"size": "2064"}]}}}, "dtype": {"type": "DT_FLOAT"}}}, {"name": "StatefulPartitionedCall/model_12/stack_5/block_2/project_conv2d/Conv2D_weights", "op": "Const", "attr": {"dtype": {"type": "DT_FLOAT"}, "value": {"tensor": {"dtype": "DT_FLOAT", "tensorShape": {"dim": [{"size": "1"}, {"size": "1"}, {"size": "2064"}, {"size": "344"}]}}}}}, {"name": "StatefulPartitionedCall/model_12/stack_5/block_2/project_conv2d/Conv2D_bn_offset", "op": "Const", "attr": {"dtype": {"type": "DT_FLOAT"}, "value": {"tensor": {"dtype": "DT_FLOAT", "tensorShape": {"dim": [{"size": "344"}]}}}}}, {"name": "StatefulPartitionedCall/model_12/stack_5/block_3/expand_conv2d/Conv2D_weights", "op": "Const", "attr": {"value": {"tensor": {"dtype": "DT_FLOAT", "tensorShape": {"dim": [{"size": "1"}, {"size": "1"}, {"size": "344"}, {"size": "2064"}]}}}, "dtype": {"type": "DT_FLOAT"}}}, {"name": "StatefulPartitionedCall/model_12/stack_6/block_1/project_conv2d/Conv2D_weights", "op": "Const", "attr": {"value": {"tensor": {"dtype": "DT_FLOAT", "tensorShape": {"dim": [{"size": "1"}, {"size": "1"}, {"size": "3456"}, {"size": "576"}]}}}, "dtype": {"type": "DT_FLOAT"}}}, {"name": "StatefulPartitionedCall/model_12/stack_5/block_3/expand_conv2d/Conv2D_bn_offset", "op": "Const", "attr": {"dtype": {"type": "DT_FLOAT"}, "value": {"tensor": {"dtype": "DT_FLOAT", "tensorShape": {"dim": [{"size": "2064"}]}}}}}, {"name": "StatefulPartitionedCall/model_12/stack_5/block_3/depthwise_conv2d/depthwise_weights", "op": "Const", "attr": {"dtype": {"type": "DT_FLOAT"}, "value": {"tensor": {"dtype": "DT_FLOAT", "tensorShape": {"dim": [{"size": "5"}, {"size": "5"}, {"size": "2064"}, {"size": "1"}]}}}}}, {"name": "StatefulPartitionedCall/model_12/stack_5/block_3/depthwise_conv2d/depthwise_bn_offset", "op": "Const", "attr": {"dtype": {"type": "DT_FLOAT"}, "value": {"tensor": {"dtype": "DT_FLOAT", "tensorShape": {"dim": [{"size": "2064"}]}}}}}, {"name": "StatefulPartitionedCall/model_12/stack_6/block_1/project_conv2d/Conv2D_bn_offset", "op": "Const", "attr": {"value": {"tensor": {"dtype": "DT_FLOAT", "tensorShape": {"dim": [{"size": "576"}]}}}, "dtype": {"type": "DT_FLOAT"}}}, {"name": "StatefulPartitionedCall/model_12/stack_5/block_3/project_conv2d/Conv2D_weights", "op": "Const", "attr": {"value": {"tensor": {"dtype": "DT_FLOAT", "tensorShape": {"dim": [{"size": "1"}, {"size": "1"}, {"size": "2064"}, {"size": "344"}]}}}, "dtype": {"type": "DT_FLOAT"}}}, {"name": "StatefulPartitionedCall/model_12/stack_5/block_3/project_conv2d/Conv2D_bn_offset", "op": "Const", "attr": {"dtype": {"type": "DT_FLOAT"}, "value": {"tensor": {"dtype": "DT_FLOAT", "tensorShape": {"dim": [{"size": "344"}]}}}}}, {"name": "StatefulPartitionedCall/model_12/stack_5/block_4/expand_conv2d/Conv2D_weights", "op": "Const", "attr": {"dtype": {"type": "DT_FLOAT"}, "value": {"tensor": {"dtype": "DT_FLOAT", "tensorShape": {"dim": [{"size": "1"}, {"size": "1"}, {"size": "344"}, {"size": "2064"}]}}}}}, {"name": "StatefulPartitionedCall/model_12/stack_5/block_4/expand_conv2d/Conv2D_bn_offset", "op": "Const", "attr": {"value": {"tensor": {"dtype": "DT_FLOAT", "tensorShape": {"dim": [{"size": "2064"}]}}}, "dtype": {"type": "DT_FLOAT"}}}, {"name": "StatefulPartitionedCall/model_12/stack_5/block_4/depthwise_conv2d/depthwise_weights", "op": "Const", "attr": {"dtype": {"type": "DT_FLOAT"}, "value": {"tensor": {"dtype": "DT_FLOAT", "tensorShape": {"dim": [{"size": "5"}, {"size": "5"}, {"size": "2064"}, {"size": "1"}]}}}}}, {"name": "StatefulPartitionedCall/model_12/stack_5/block_4/depthwise_conv2d/depthwise_bn_offset", "op": "Const", "attr": {"dtype": {"type": "DT_FLOAT"}, "value": {"tensor": {"dtype": "DT_FLOAT", "tensorShape": {"dim": [{"size": "2064"}]}}}}}, {"name": "StatefulPartitionedCall/model_12/stack_6/block_2/expand_conv2d/Conv2D_weights", "op": "Const", "attr": {"dtype": {"type": "DT_FLOAT"}, "value": {"tensor": {"dtype": "DT_FLOAT", "tensorShape": {"dim": [{"size": "1"}, {"size": "1"}, {"size": "576"}, {"size": "3456"}]}}}}}, {"name": "StatefulPartitionedCall/model_12/stack_5/block_4/project_conv2d/Conv2D_weights", "op": "Const", "attr": {"dtype": {"type": "DT_FLOAT"}, "value": {"tensor": {"dtype": "DT_FLOAT", "tensorShape": {"dim": [{"size": "1"}, {"size": "1"}, {"size": "2064"}, {"size": "344"}]}}}}}, {"name": "StatefulPartitionedCall/model_12/stack_6/block_2/expand_conv2d/Conv2D_bn_offset", "op": "Const", "attr": {"dtype": {"type": "DT_FLOAT"}, "value": {"tensor": {"dtype": "DT_FLOAT", "tensorShape": {"dim": [{"size": "3456"}]}}}}}, {"name": "StatefulPartitionedCall/model_12/stack_5/block_4/project_conv2d/Conv2D_bn_offset", "op": "Const", "attr": {"value": {"tensor": {"dtype": "DT_FLOAT", "tensorShape": {"dim": [{"size": "344"}]}}}, "dtype": {"type": "DT_FLOAT"}}}, {"name": "StatefulPartitionedCall/model_12/stack_5/block_5/expand_conv2d/Conv2D_weights", "op": "Const", "attr": {"value": {"tensor": {"dtype": "DT_FLOAT", "tensorShape": {"dim": [{"size": "1"}, {"size": "1"}, {"size": "344"}, {"size": "2064"}]}}}, "dtype": {"type": "DT_FLOAT"}}}, {"name": "StatefulPartitionedCall/model_12/stack_5/block_5/expand_conv2d/Conv2D_bn_offset", "op": "Const", "attr": {"value": {"tensor": {"dtype": "DT_FLOAT", "tensorShape": {"dim": [{"size": "2064"}]}}}, "dtype": {"type": "DT_FLOAT"}}}, {"name": "StatefulPartitionedCall/model_12/stack_5/block_5/depthwise_conv2d/depthwise_weights", "op": "Const", "attr": {"dtype": {"type": "DT_FLOAT"}, "value": {"tensor": {"dtype": "DT_FLOAT", "tensorShape": {"dim": [{"size": "5"}, {"size": "5"}, {"size": "2064"}, {"size": "1"}]}}}}}, {"name": "StatefulPartitionedCall/model_12/stack_5/block_5/depthwise_conv2d/depthwise_bn_offset", "op": "Const", "attr": {"dtype": {"type": "DT_FLOAT"}, "value": {"tensor": {"dtype": "DT_FLOAT", "tensorShape": {"dim": [{"size": "2064"}]}}}}}, {"name": "StatefulPartitionedCall/model_12/stack_5/block_5/project_conv2d/Conv2D_weights", "op": "Const", "attr": {"dtype": {"type": "DT_FLOAT"}, "value": {"tensor": {"dtype": "DT_FLOAT", "tensorShape": {"dim": [{"size": "1"}, {"size": "1"}, {"size": "2064"}, {"size": "344"}]}}}}}, {"name": "StatefulPartitionedCall/model_12/stack_6/block_2/depthwise_conv2d/depthwise_weights", "op": "Const", "attr": {"dtype": {"type": "DT_FLOAT"}, "value": {"tensor": {"dtype": "DT_FLOAT", "tensorShape": {"dim": [{"size": "3"}, {"size": "3"}, {"size": "3456"}, {"size": "1"}]}}}}}, {"name": "StatefulPartitionedCall/model_12/stack_5/block_5/project_conv2d/Conv2D_bn_offset", "op": "Const", "attr": {"dtype": {"type": "DT_FLOAT"}, "value": {"tensor": {"dtype": "DT_FLOAT", "tensorShape": {"dim": [{"size": "344"}]}}}}}, {"name": "StatefulPartitionedCall/model_12/stack_5/block_6/expand_conv2d/Conv2D_weights", "op": "Const", "attr": {"dtype": {"type": "DT_FLOAT"}, "value": {"tensor": {"dtype": "DT_FLOAT", "tensorShape": {"dim": [{"size": "1"}, {"size": "1"}, {"size": "344"}, {"size": "2064"}]}}}}}, {"name": "StatefulPartitionedCall/model_12/stack_5/block_6/expand_conv2d/Conv2D_bn_offset", "op": "Const", "attr": {"value": {"tensor": {"dtype": "DT_FLOAT", "tensorShape": {"dim": [{"size": "2064"}]}}}, "dtype": {"type": "DT_FLOAT"}}}, {"name": "StatefulPartitionedCall/model_12/stack_5/block_6/depthwise_conv2d/depthwise_weights", "op": "Const", "attr": {"dtype": {"type": "DT_FLOAT"}, "value": {"tensor": {"dtype": "DT_FLOAT", "tensorShape": {"dim": [{"size": "5"}, {"size": "5"}, {"size": "2064"}, {"size": "1"}]}}}}}, {"name": "StatefulPartitionedCall/model_12/stack_5/block_6/depthwise_conv2d/depthwise_bn_offset", "op": "Const", "attr": {"value": {"tensor": {"dtype": "DT_FLOAT", "tensorShape": {"dim": [{"size": "2064"}]}}}, "dtype": {"type": "DT_FLOAT"}}}, {"name": "StatefulPartitionedCall/model_12/stack_6/block_2/depthwise_conv2d/depthwise_bn_offset", "op": "Const", "attr": {"value": {"tensor": {"dtype": "DT_FLOAT", "tensorShape": {"dim": [{"size": "3456"}]}}}, "dtype": {"type": "DT_FLOAT"}}}, {"name": "StatefulPartitionedCall/model_12/stack_5/block_6/project_conv2d/Conv2D_weights", "op": "Const", "attr": {"dtype": {"type": "DT_FLOAT"}, "value": {"tensor": {"dtype": "DT_FLOAT", "tensorShape": {"dim": [{"size": "1"}, {"size": "1"}, {"size": "2064"}, {"size": "344"}]}}}}}, {"name": "StatefulPartitionedCall/model_12/stack_5/block_6/project_conv2d/Conv2D_bn_offset", "op": "Const", "attr": {"dtype": {"type": "DT_FLOAT"}, "value": {"tensor": {"dtype": "DT_FLOAT", "tensorShape": {"dim": [{"size": "344"}]}}}}}, {"name": "StatefulPartitionedCall/model_12/stack_5/block_7/expand_conv2d/Conv2D_weights", "op": "Const", "attr": {"value": {"tensor": {"dtype": "DT_FLOAT", "tensorShape": {"dim": [{"size": "1"}, {"size": "1"}, {"size": "344"}, {"size": "2064"}]}}}, "dtype": {"type": "DT_FLOAT"}}}, {"name": "StatefulPartitionedCall/model_12/stack_5/block_7/expand_conv2d/Conv2D_bn_offset", "op": "Const", "attr": {"dtype": {"type": "DT_FLOAT"}, "value": {"tensor": {"dtype": "DT_FLOAT", "tensorShape": {"dim": [{"size": "2064"}]}}}}}, {"name": "StatefulPartitionedCall/model_12/stack_5/block_7/depthwise_conv2d/depthwise_weights", "op": "Const", "attr": {"value": {"tensor": {"dtype": "DT_FLOAT", "tensorShape": {"dim": [{"size": "5"}, {"size": "5"}, {"size": "2064"}, {"size": "1"}]}}}, "dtype": {"type": "DT_FLOAT"}}}, {"name": "StatefulPartitionedCall/model_12/stack_5/block_7/depthwise_conv2d/depthwise_bn_offset", "op": "Const", "attr": {"value": {"tensor": {"dtype": "DT_FLOAT", "tensorShape": {"dim": [{"size": "2064"}]}}}, "dtype": {"type": "DT_FLOAT"}}}, {"name": "StatefulPartitionedCall/model_12/stack_5/block_7/project_conv2d/Conv2D_weights", "op": "Const", "attr": {"dtype": {"type": "DT_FLOAT"}, "value": {"tensor": {"dtype": "DT_FLOAT", "tensorShape": {"dim": [{"size": "1"}, {"size": "1"}, {"size": "2064"}, {"size": "344"}]}}}}}, {"name": "StatefulPartitionedCall/model_12/stack_5/block_7/project_conv2d/Conv2D_bn_offset", "op": "Const", "attr": {"value": {"tensor": {"dtype": "DT_FLOAT", "tensorShape": {"dim": [{"size": "344"}]}}}, "dtype": {"type": "DT_FLOAT"}}}, {"name": "StatefulPartitionedCall/model_12/stack_5/block_8/expand_conv2d/Conv2D_weights", "op": "Const", "attr": {"value": {"tensor": {"dtype": "DT_FLOAT", "tensorShape": {"dim": [{"size": "1"}, {"size": "1"}, {"size": "344"}, {"size": "2064"}]}}}, "dtype": {"type": "DT_FLOAT"}}}, {"name": "StatefulPartitionedCall/model_12/stack_5/block_8/expand_conv2d/Conv2D_bn_offset", "op": "Const", "attr": {"dtype": {"type": "DT_FLOAT"}, "value": {"tensor": {"dtype": "DT_FLOAT", "tensorShape": {"dim": [{"size": "2064"}]}}}}}, {"name": "StatefulPartitionedCall/model_12/stack_5/block_8/depthwise_conv2d/depthwise_weights", "op": "Const", "attr": {"value": {"tensor": {"dtype": "DT_FLOAT", "tensorShape": {"dim": [{"size": "5"}, {"size": "5"}, {"size": "2064"}, {"size": "1"}]}}}, "dtype": {"type": "DT_FLOAT"}}}, {"name": "StatefulPartitionedCall/model_12/stack_5/block_8/depthwise_conv2d/depthwise_bn_offset", "op": "Const", "attr": {"dtype": {"type": "DT_FLOAT"}, "value": {"tensor": {"dtype": "DT_FLOAT", "tensorShape": {"dim": [{"size": "2064"}]}}}}}, {"name": "Func/StatefulPartitionedCall/input/_781", "op": "Const", "input": ["^image_input"], "attr": {"dtype": {"type": "DT_FLOAT"}, "value": {"tensor": {"dtype": "DT_FLOAT", "tensorShape": {"dim": [{"size": "1"}, {"size": "1"}, {"size": "2064"}, {"size": "86"}]}}}}}, {"name": "Func/StatefulPartitionedCall/input/_782", "op": "Const", "input": ["^image_input"], "attr": {"dtype": {"type": "DT_FLOAT"}, "value": {"tensor": {"dtype": "DT_FLOAT", "tensorShape": {"dim": [{"size": "86"}]}}}}}, {"name": "Func/StatefulPartitionedCall/input/_783", "op": "Const", "input": ["^image_input"], "attr": {"dtype": {"type": "DT_FLOAT"}, "value": {"tensor": {"dtype": "DT_FLOAT", "tensorShape": {"dim": [{"size": "1"}, {"size": "1"}, {"size": "86"}, {"size": "2064"}]}}}}}, {"name": "Func/StatefulPartitionedCall/input/_784", "op": "Const", "input": ["^image_input"], "attr": {"value": {"tensor": {"dtype": "DT_FLOAT", "tensorShape": {"dim": [{"size": "2064"}]}}}, "dtype": {"type": "DT_FLOAT"}}}, {"name": "StatefulPartitionedCall/model_12/tf_op_layer_BroadcastTo_13/BroadcastTo_13/input", "op": "Const", "input": ["^image_input"], "attr": {"dtype": {"type": "DT_FLOAT"}, "value": {"tensor": {"dtype": "DT_FLOAT", "tensorShape": {"dim": [{"size": "1"}, {"size": "1"}, {"size": "3"}]}}}}}, {"name": "StatefulPartitionedCall/model_12/tf_op_layer_BroadcastTo_12/BroadcastTo_12/input", "op": "Const", "input": ["^image_input"], "attr": {"dtype": {"type": "DT_FLOAT"}, "value": {"tensor": {"dtype": "DT_FLOAT", "tensorShape": {"dim": [{"size": "1"}, {"size": "1"}, {"size": "3"}]}}}}}, {"name": "StatefulPartitionedCall/model_12/tf_op_layer_Mul_6/Mul_6/y", "op": "Const", "input": ["^image_input"], "attr": {"dtype": {"type": "DT_FLOAT"}, "value": {"tensor": {"dtype": "DT_FLOAT", "tensorShape": {}}}}}, {"name": "StatefulPartitionedCall/model_12/stack_0/block_0/se_reshape/Reshape/shape/3", "op": "Const", "input": ["^image_input"], "attr": {"dtype": {"type": "DT_INT32"}, "value": {"tensor": {"dtype": "DT_INT32", "tensorShape": {}}}}}, {"name": "Func/StatefulPartitionedCall/input/_12", "op": "Const", "input": ["^image_input"], "attr": {"value": {"tensor": {"dtype": "DT_FLOAT", "tensorShape": {"dim": [{"size": "1"}, {"size": "1"}, {"size": "56"}, {"size": "14"}]}}}, "dtype": {"type": "DT_FLOAT"}}}, {"name": "Func/StatefulPartitionedCall/input/_13", "op": "Const", "input": ["^image_input"], "attr": {"dtype": {"type": "DT_FLOAT"}, "value": {"tensor": {"dtype": "DT_FLOAT", "tensorShape": {"dim": [{"size": "14"}]}}}}}, {"name": "Func/StatefulPartitionedCall/input/_14", "op": "Const", "input": ["^image_input"], "attr": {"dtype": {"type": "DT_FLOAT"}, "value": {"tensor": {"dtype": "DT_FLOAT", "tensorShape": {"dim": [{"size": "1"}, {"size": "1"}, {"size": "14"}, {"size": "56"}]}}}}}, {"name": "Func/StatefulPartitionedCall/input/_15", "op": "Const", "input": ["^image_input"], "attr": {"dtype": {"type": "DT_FLOAT"}, "value": {"tensor": {"dtype": "DT_FLOAT", "tensorShape": {"dim": [{"size": "56"}]}}}}}, {"name": "Func/StatefulPartitionedCall/input/_26", "op": "Const", "input": ["^image_input"], "attr": {"value": {"tensor": {"dtype": "DT_FLOAT", "tensorShape": {"dim": [{"size": "1"}, {"size": "1"}, {"size": "32"}, {"size": "8"}]}}}, "dtype": {"type": "DT_FLOAT"}}}, {"name": "Func/StatefulPartitionedCall/input/_27", "op": "Const", "input": ["^image_input"], "attr": {"value": {"tensor": {"dtype": "DT_FLOAT", "tensorShape": {"dim": [{"size": "8"}]}}}, "dtype": {"type": "DT_FLOAT"}}}, {"name": "Func/StatefulPartitionedCall/input/_28", "op": "Const", "input": ["^image_input"], "attr": {"value": {"tensor": {"dtype": "DT_FLOAT", "tensorShape": {"dim": [{"size": "1"}, {"size": "1"}, {"size": "8"}, {"size": "32"}]}}}, "dtype": {"type": "DT_FLOAT"}}}, {"name": "Func/StatefulPartitionedCall/input/_29", "op": "Const", "input": ["^image_input"], "attr": {"dtype": {"type": "DT_FLOAT"}, "value": {"tensor": {"dtype": "DT_FLOAT", "tensorShape": {"dim": [{"size": "32"}]}}}}}, {"name": "StatefulPartitionedCall/model_12/stack_0/block_2/se_reshape/Reshape/shape/3", "op": "Const", "input": ["^image_input"], "attr": {"value": {"tensor": {"dtype": "DT_INT32", "tensorShape": {}}}, "dtype": {"type": "DT_INT32"}}}, {"name": "Func/StatefulPartitionedCall/input/_40", "op": "Const", "input": ["^image_input"], "attr": {"value": {"tensor": {"dtype": "DT_FLOAT", "tensorShape": {"dim": [{"size": "1"}, {"size": "1"}, {"size": "32"}, {"size": "8"}]}}}, "dtype": {"type": "DT_FLOAT"}}}, {"name": "Func/StatefulPartitionedCall/input/_41", "op": "Const", "input": ["^image_input"], "attr": {"value": {"tensor": {"dtype": "DT_FLOAT", "tensorShape": {"dim": [{"size": "8"}]}}}, "dtype": {"type": "DT_FLOAT"}}}, {"name": "Func/StatefulPartitionedCall/input/_42", "op": "Const", "input": ["^image_input"], "attr": {"value": {"tensor": {"dtype": "DT_FLOAT", "tensorShape": {"dim": [{"size": "1"}, {"size": "1"}, {"size": "8"}, {"size": "32"}]}}}, "dtype": {"type": "DT_FLOAT"}}}, {"name": "Func/StatefulPartitionedCall/input/_43", "op": "Const", "input": ["^image_input"], "attr": {"dtype": {"type": "DT_FLOAT"}, "value": {"tensor": {"dtype": "DT_FLOAT", "tensorShape": {"dim": [{"size": "32"}]}}}}}, {"name": "StatefulPartitionedCall/model_12/stack_1/block_0/se_reshape/Reshape/shape/3", "op": "Const", "input": ["^image_input"], "attr": {"value": {"tensor": {"dtype": "DT_INT32", "tensorShape": {}}}, "dtype": {"type": "DT_INT32"}}}, {"name": "Func/StatefulPartitionedCall/input/_59", "op": "Const", "input": ["^image_input"], "attr": {"value": {"tensor": {"dtype": "DT_FLOAT", "tensorShape": {"dim": [{"size": "1"}, {"size": "1"}, {"size": "192"}, {"size": "8"}]}}}, "dtype": {"type": "DT_FLOAT"}}}, {"name": "Func/StatefulPartitionedCall/input/_60", "op": "Const", "input": ["^image_input"], "attr": {"dtype": {"type": "DT_FLOAT"}, "value": {"tensor": {"dtype": "DT_FLOAT", "tensorShape": {"dim": [{"size": "8"}]}}}}}, {"name": "Func/StatefulPartitionedCall/input/_61", "op": "Const", "input": ["^image_input"], "attr": {"dtype": {"type": "DT_FLOAT"}, "value": {"tensor": {"dtype": "DT_FLOAT", "tensorShape": {"dim": [{"size": "1"}, {"size": "1"}, {"size": "8"}, {"size": "192"}]}}}}}, {"name": "Func/StatefulPartitionedCall/input/_62", "op": "Const", "input": ["^image_input"], "attr": {"value": {"tensor": {"dtype": "DT_FLOAT", "tensorShape": {"dim": [{"size": "192"}]}}}, "dtype": {"type": "DT_FLOAT"}}}, {"name": "Func/StatefulPartitionedCall/input/_78", "op": "Const", "input": ["^image_input"], "attr": {"value": {"tensor": {"dtype": "DT_FLOAT", "tensorShape": {"dim": [{"size": "1"}, {"size": "1"}, {"size": "240"}, {"size": "10"}]}}}, "dtype": {"type": "DT_FLOAT"}}}, {"name": "Func/StatefulPartitionedCall/input/_79", "op": "Const", "input": ["^image_input"], "attr": {"value": {"tensor": {"dtype": "DT_FLOAT", "tensorShape": {"dim": [{"size": "10"}]}}}, "dtype": {"type": "DT_FLOAT"}}}, {"name": "Func/StatefulPartitionedCall/input/_80", "op": "Const", "input": ["^image_input"], "attr": {"dtype": {"type": "DT_FLOAT"}, "value": {"tensor": {"dtype": "DT_FLOAT", "tensorShape": {"dim": [{"size": "1"}, {"size": "1"}, {"size": "10"}, {"size": "240"}]}}}}}, {"name": "Func/StatefulPartitionedCall/input/_81", "op": "Const", "input": ["^image_input"], "attr": {"value": {"tensor": {"dtype": "DT_FLOAT", "tensorShape": {"dim": [{"size": "240"}]}}}, "dtype": {"type": "DT_FLOAT"}}}, {"name": "Func/StatefulPartitionedCall/input/_97", "op": "Const", "input": ["^image_input"], "attr": {"dtype": {"type": "DT_FLOAT"}, "value": {"tensor": {"dtype": "DT_FLOAT", "tensorShape": {"dim": [{"size": "1"}, {"size": "1"}, {"size": "240"}, {"size": "10"}]}}}}}, {"name": "Func/StatefulPartitionedCall/input/_98", "op": "Const", "input": ["^image_input"], "attr": {"value": {"tensor": {"dtype": "DT_FLOAT", "tensorShape": {"dim": [{"size": "10"}]}}}, "dtype": {"type": "DT_FLOAT"}}}, {"name": "Func/StatefulPartitionedCall/input/_99", "op": "Const", "input": ["^image_input"], "attr": {"dtype": {"type": "DT_FLOAT"}, "value": {"tensor": {"dtype": "DT_FLOAT", "tensorShape": {"dim": [{"size": "1"}, {"size": "1"}, {"size": "10"}, {"size": "240"}]}}}}}, {"name": "Func/StatefulPartitionedCall/input/_100", "op": "Const", "input": ["^image_input"], "attr": {"dtype": {"type": "DT_FLOAT"}, "value": {"tensor": {"dtype": "DT_FLOAT", "tensorShape": {"dim": [{"size": "240"}]}}}}}, {"name": "Func/StatefulPartitionedCall/input/_116", "op": "Const", "input": ["^image_input"], "attr": {"value": {"tensor": {"dtype": "DT_FLOAT", "tensorShape": {"dim": [{"size": "1"}, {"size": "1"}, {"size": "240"}, {"size": "10"}]}}}, "dtype": {"type": "DT_FLOAT"}}}, {"name": "Func/StatefulPartitionedCall/input/_117", "op": "Const", "input": ["^image_input"], "attr": {"dtype": {"type": "DT_FLOAT"}, "value": {"tensor": {"dtype": "DT_FLOAT", "tensorShape": {"dim": [{"size": "10"}]}}}}}, {"name": "Func/StatefulPartitionedCall/input/_118", "op": "Const", "input": ["^image_input"], "attr": {"value": {"tensor": {"dtype": "DT_FLOAT", "tensorShape": {"dim": [{"size": "1"}, {"size": "1"}, {"size": "10"}, {"size": "240"}]}}}, "dtype": {"type": "DT_FLOAT"}}}, {"name": "Func/StatefulPartitionedCall/input/_119", "op": "Const", "input": ["^image_input"], "attr": {"dtype": {"type": "DT_FLOAT"}, "value": {"tensor": {"dtype": "DT_FLOAT", "tensorShape": {"dim": [{"size": "240"}]}}}}}, {"name": "Func/StatefulPartitionedCall/input/_135", "op": "Const", "input": ["^image_input"], "attr": {"value": {"tensor": {"dtype": "DT_FLOAT", "tensorShape": {"dim": [{"size": "1"}, {"size": "1"}, {"size": "240"}, {"size": "10"}]}}}, "dtype": {"type": "DT_FLOAT"}}}, {"name": "Func/StatefulPartitionedCall/input/_136", "op": "Const", "input": ["^image_input"], "attr": {"value": {"tensor": {"dtype": "DT_FLOAT", "tensorShape": {"dim": [{"size": "10"}]}}}, "dtype": {"type": "DT_FLOAT"}}}, {"name": "Func/StatefulPartitionedCall/input/_137", "op": "Const", "input": ["^image_input"], "attr": {"value": {"tensor": {"dtype": "DT_FLOAT", "tensorShape": {"dim": [{"size": "1"}, {"size": "1"}, {"size": "10"}, {"size": "240"}]}}}, "dtype": {"type": "DT_FLOAT"}}}, {"name": "Func/StatefulPartitionedCall/input/_138", "op": "Const", "input": ["^image_input"], "attr": {"dtype": {"type": "DT_FLOAT"}, "value": {"tensor": {"dtype": "DT_FLOAT", "tensorShape": {"dim": [{"size": "240"}]}}}}}, {"name": "Func/StatefulPartitionedCall/input/_154", "op": "Const", "input": ["^image_input"], "attr": {"value": {"tensor": {"dtype": "DT_FLOAT", "tensorShape": {"dim": [{"size": "1"}, {"size": "1"}, {"size": "240"}, {"size": "10"}]}}}, "dtype": {"type": "DT_FLOAT"}}}, {"name": "Func/StatefulPartitionedCall/input/_155", "op": "Const", "input": ["^image_input"], "attr": {"dtype": {"type": "DT_FLOAT"}, "value": {"tensor": {"dtype": "DT_FLOAT", "tensorShape": {"dim": [{"size": "10"}]}}}}}, {"name": "Func/StatefulPartitionedCall/input/_156", "op": "Const", "input": ["^image_input"], "attr": {"value": {"tensor": {"dtype": "DT_FLOAT", "tensorShape": {"dim": [{"size": "1"}, {"size": "1"}, {"size": "10"}, {"size": "240"}]}}}, "dtype": {"type": "DT_FLOAT"}}}, {"name": "Func/StatefulPartitionedCall/input/_157", "op": "Const", "input": ["^image_input"], "attr": {"value": {"tensor": {"dtype": "DT_FLOAT", "tensorShape": {"dim": [{"size": "240"}]}}}, "dtype": {"type": "DT_FLOAT"}}}, {"name": "StatefulPartitionedCall/model_12/stack_1/block_5/se_reshape/Reshape/shape/3", "op": "Const", "input": ["^image_input"], "attr": {"dtype": {"type": "DT_INT32"}, "value": {"tensor": {"dtype": "DT_INT32", "tensorShape": {}}}}}, {"name": "Func/StatefulPartitionedCall/input/_173", "op": "Const", "input": ["^image_input"], "attr": {"dtype": {"type": "DT_FLOAT"}, "value": {"tensor": {"dtype": "DT_FLOAT", "tensorShape": {"dim": [{"size": "1"}, {"size": "1"}, {"size": "240"}, {"size": "10"}]}}}}}, {"name": "Func/StatefulPartitionedCall/input/_174", "op": "Const", "input": ["^image_input"], "attr": {"dtype": {"type": "DT_FLOAT"}, "value": {"tensor": {"dtype": "DT_FLOAT", "tensorShape": {"dim": [{"size": "10"}]}}}}}, {"name": "Func/StatefulPartitionedCall/input/_175", "op": "Const", "input": ["^image_input"], "attr": {"dtype": {"type": "DT_FLOAT"}, "value": {"tensor": {"dtype": "DT_FLOAT", "tensorShape": {"dim": [{"size": "1"}, {"size": "1"}, {"size": "10"}, {"size": "240"}]}}}}}, {"name": "Func/StatefulPartitionedCall/input/_176", "op": "Const", "input": ["^image_input"], "attr": {"value": {"tensor": {"dtype": "DT_FLOAT", "tensorShape": {"dim": [{"size": "240"}]}}}, "dtype": {"type": "DT_FLOAT"}}}, {"name": "Func/StatefulPartitionedCall/input/_192", "op": "Const", "input": ["^image_input"], "attr": {"dtype": {"type": "DT_FLOAT"}, "value": {"tensor": {"dtype": "DT_FLOAT", "tensorShape": {"dim": [{"size": "1"}, {"size": "1"}, {"size": "432"}, {"size": "18"}]}}}}}, {"name": "Func/StatefulPartitionedCall/input/_193", "op": "Const", "input": ["^image_input"], "attr": {"value": {"tensor": {"dtype": "DT_FLOAT", "tensorShape": {"dim": [{"size": "18"}]}}}, "dtype": {"type": "DT_FLOAT"}}}, {"name": "Func/StatefulPartitionedCall/input/_194", "op": "Const", "input": ["^image_input"], "attr": {"value": {"tensor": {"dtype": "DT_FLOAT", "tensorShape": {"dim": [{"size": "1"}, {"size": "1"}, {"size": "18"}, {"size": "432"}]}}}, "dtype": {"type": "DT_FLOAT"}}}, {"name": "Func/StatefulPartitionedCall/input/_195", "op": "Const", "input": ["^image_input"], "attr": {"value": {"tensor": {"dtype": "DT_FLOAT", "tensorShape": {"dim": [{"size": "432"}]}}}, "dtype": {"type": "DT_FLOAT"}}}, {"name": "Func/StatefulPartitionedCall/input/_211", "op": "Const", "input": ["^image_input"], "attr": {"dtype": {"type": "DT_FLOAT"}, "value": {"tensor": {"dtype": "DT_FLOAT", "tensorShape": {"dim": [{"size": "1"}, {"size": "1"}, {"size": "432"}, {"size": "18"}]}}}}}, {"name": "Func/StatefulPartitionedCall/input/_212", "op": "Const", "input": ["^image_input"], "attr": {"value": {"tensor": {"dtype": "DT_FLOAT", "tensorShape": {"dim": [{"size": "18"}]}}}, "dtype": {"type": "DT_FLOAT"}}}, {"name": "Func/StatefulPartitionedCall/input/_213", "op": "Const", "input": ["^image_input"], "attr": {"dtype": {"type": "DT_FLOAT"}, "value": {"tensor": {"dtype": "DT_FLOAT", "tensorShape": {"dim": [{"size": "1"}, {"size": "1"}, {"size": "18"}, {"size": "432"}]}}}}}, {"name": "Func/StatefulPartitionedCall/input/_214", "op": "Const", "input": ["^image_input"], "attr": {"value": {"tensor": {"dtype": "DT_FLOAT", "tensorShape": {"dim": [{"size": "432"}]}}}, "dtype": {"type": "DT_FLOAT"}}}, {"name": "Func/StatefulPartitionedCall/input/_230", "op": "Const", "input": ["^image_input"], "attr": {"dtype": {"type": "DT_FLOAT"}, "value": {"tensor": {"dtype": "DT_FLOAT", "tensorShape": {"dim": [{"size": "1"}, {"size": "1"}, {"size": "432"}, {"size": "18"}]}}}}}, {"name": "Func/StatefulPartitionedCall/input/_231", "op": "Const", "input": ["^image_input"], "attr": {"dtype": {"type": "DT_FLOAT"}, "value": {"tensor": {"dtype": "DT_FLOAT", "tensorShape": {"dim": [{"size": "18"}]}}}}}, {"name": "Func/StatefulPartitionedCall/input/_232", "op": "Const", "input": ["^image_input"], "attr": {"value": {"tensor": {"dtype": "DT_FLOAT", "tensorShape": {"dim": [{"size": "1"}, {"size": "1"}, {"size": "18"}, {"size": "432"}]}}}, "dtype": {"type": "DT_FLOAT"}}}, {"name": "Func/StatefulPartitionedCall/input/_233", "op": "Const", "input": ["^image_input"], "attr": {"value": {"tensor": {"dtype": "DT_FLOAT", "tensorShape": {"dim": [{"size": "432"}]}}}, "dtype": {"type": "DT_FLOAT"}}}, {"name": "Func/StatefulPartitionedCall/input/_249", "op": "Const", "input": ["^image_input"], "attr": {"value": {"tensor": {"dtype": "DT_FLOAT", "tensorShape": {"dim": [{"size": "1"}, {"size": "1"}, {"size": "432"}, {"size": "18"}]}}}, "dtype": {"type": "DT_FLOAT"}}}, {"name": "Func/StatefulPartitionedCall/input/_250", "op": "Const", "input": ["^image_input"], "attr": {"value": {"tensor": {"dtype": "DT_FLOAT", "tensorShape": {"dim": [{"size": "18"}]}}}, "dtype": {"type": "DT_FLOAT"}}}, {"name": "Func/StatefulPartitionedCall/input/_251", "op": "Const", "input": ["^image_input"], "attr": {"dtype": {"type": "DT_FLOAT"}, "value": {"tensor": {"dtype": "DT_FLOAT", "tensorShape": {"dim": [{"size": "1"}, {"size": "1"}, {"size": "18"}, {"size": "432"}]}}}}}, {"name": "Func/StatefulPartitionedCall/input/_252", "op": "Const", "input": ["^image_input"], "attr": {"value": {"tensor": {"dtype": "DT_FLOAT", "tensorShape": {"dim": [{"size": "432"}]}}}, "dtype": {"type": "DT_FLOAT"}}}, {"name": "Func/StatefulPartitionedCall/input/_268", "op": "Const", "input": ["^image_input"], "attr": {"value": {"tensor": {"dtype": "DT_FLOAT", "tensorShape": {"dim": [{"size": "1"}, {"size": "1"}, {"size": "432"}, {"size": "18"}]}}}, "dtype": {"type": "DT_FLOAT"}}}, {"name": "Func/StatefulPartitionedCall/input/_269", "op": "Const", "input": ["^image_input"], "attr": {"dtype": {"type": "DT_FLOAT"}, "value": {"tensor": {"dtype": "DT_FLOAT", "tensorShape": {"dim": [{"size": "18"}]}}}}}, {"name": "Func/StatefulPartitionedCall/input/_270", "op": "Const", "input": ["^image_input"], "attr": {"value": {"tensor": {"dtype": "DT_FLOAT", "tensorShape": {"dim": [{"size": "1"}, {"size": "1"}, {"size": "18"}, {"size": "432"}]}}}, "dtype": {"type": "DT_FLOAT"}}}, {"name": "Func/StatefulPartitionedCall/input/_271", "op": "Const", "input": ["^image_input"], "attr": {"dtype": {"type": "DT_FLOAT"}, "value": {"tensor": {"dtype": "DT_FLOAT", "tensorShape": {"dim": [{"size": "432"}]}}}}}, {"name": "StatefulPartitionedCall/model_12/stack_2/block_5/se_reshape/Reshape/shape/3", "op": "Const", "input": ["^image_input"], "attr": {"dtype": {"type": "DT_INT32"}, "value": {"tensor": {"dtype": "DT_INT32", "tensorShape": {}}}}}, {"name": "Func/StatefulPartitionedCall/input/_287", "op": "Const", "input": ["^image_input"], "attr": {"dtype": {"type": "DT_FLOAT"}, "value": {"tensor": {"dtype": "DT_FLOAT", "tensorShape": {"dim": [{"size": "1"}, {"size": "1"}, {"size": "432"}, {"size": "18"}]}}}}}, {"name": "Func/StatefulPartitionedCall/input/_288", "op": "Const", "input": ["^image_input"], "attr": {"dtype": {"type": "DT_FLOAT"}, "value": {"tensor": {"dtype": "DT_FLOAT", "tensorShape": {"dim": [{"size": "18"}]}}}}}, {"name": "Func/StatefulPartitionedCall/input/_289", "op": "Const", "input": ["^image_input"], "attr": {"dtype": {"type": "DT_FLOAT"}, "value": {"tensor": {"dtype": "DT_FLOAT", "tensorShape": {"dim": [{"size": "1"}, {"size": "1"}, {"size": "18"}, {"size": "432"}]}}}}}, {"name": "Func/StatefulPartitionedCall/input/_290", "op": "Const", "input": ["^image_input"], "attr": {"dtype": {"type": "DT_FLOAT"}, "value": {"tensor": {"dtype": "DT_FLOAT", "tensorShape": {"dim": [{"size": "432"}]}}}}}, {"name": "Func/StatefulPartitionedCall/input/_306", "op": "Const", "input": ["^image_input"], "attr": {"dtype": {"type": "DT_FLOAT"}, "value": {"tensor": {"dtype": "DT_FLOAT", "tensorShape": {"dim": [{"size": "1"}, {"size": "1"}, {"size": "864"}, {"size": "36"}]}}}}}, {"name": "Func/StatefulPartitionedCall/input/_307", "op": "Const", "input": ["^image_input"], "attr": {"dtype": {"type": "DT_FLOAT"}, "value": {"tensor": {"dtype": "DT_FLOAT", "tensorShape": {"dim": [{"size": "36"}]}}}}}, {"name": "Func/StatefulPartitionedCall/input/_308", "op": "Const", "input": ["^image_input"], "attr": {"value": {"tensor": {"dtype": "DT_FLOAT", "tensorShape": {"dim": [{"size": "1"}, {"size": "1"}, {"size": "36"}, {"size": "864"}]}}}, "dtype": {"type": "DT_FLOAT"}}}, {"name": "Func/StatefulPartitionedCall/input/_309", "op": "Const", "input": ["^image_input"], "attr": {"dtype": {"type": "DT_FLOAT"}, "value": {"tensor": {"dtype": "DT_FLOAT", "tensorShape": {"dim": [{"size": "864"}]}}}}}, {"name": "Func/StatefulPartitionedCall/input/_325", "op": "Const", "input": ["^image_input"], "attr": {"dtype": {"type": "DT_FLOAT"}, "value": {"tensor": {"dtype": "DT_FLOAT", "tensorShape": {"dim": [{"size": "1"}, {"size": "1"}, {"size": "864"}, {"size": "36"}]}}}}}, {"name": "Func/StatefulPartitionedCall/input/_326", "op": "Const", "input": ["^image_input"], "attr": {"value": {"tensor": {"dtype": "DT_FLOAT", "tensorShape": {"dim": [{"size": "36"}]}}}, "dtype": {"type": "DT_FLOAT"}}}, {"name": "Func/StatefulPartitionedCall/input/_327", "op": "Const", "input": ["^image_input"], "attr": {"dtype": {"type": "DT_FLOAT"}, "value": {"tensor": {"dtype": "DT_FLOAT", "tensorShape": {"dim": [{"size": "1"}, {"size": "1"}, {"size": "36"}, {"size": "864"}]}}}}}, {"name": "Func/StatefulPartitionedCall/input/_328", "op": "Const", "input": ["^image_input"], "attr": {"value": {"tensor": {"dtype": "DT_FLOAT", "tensorShape": {"dim": [{"size": "864"}]}}}, "dtype": {"type": "DT_FLOAT"}}}, {"name": "Func/StatefulPartitionedCall/input/_344", "op": "Const", "input": ["^image_input"], "attr": {"dtype": {"type": "DT_FLOAT"}, "value": {"tensor": {"dtype": "DT_FLOAT", "tensorShape": {"dim": [{"size": "1"}, {"size": "1"}, {"size": "864"}, {"size": "36"}]}}}}}, {"name": "Func/StatefulPartitionedCall/input/_345", "op": "Const", "input": ["^image_input"], "attr": {"dtype": {"type": "DT_FLOAT"}, "value": {"tensor": {"dtype": "DT_FLOAT", "tensorShape": {"dim": [{"size": "36"}]}}}}}, {"name": "Func/StatefulPartitionedCall/input/_346", "op": "Const", "input": ["^image_input"], "attr": {"value": {"tensor": {"dtype": "DT_FLOAT", "tensorShape": {"dim": [{"size": "1"}, {"size": "1"}, {"size": "36"}, {"size": "864"}]}}}, "dtype": {"type": "DT_FLOAT"}}}, {"name": "Func/StatefulPartitionedCall/input/_347", "op": "Const", "input": ["^image_input"], "attr": {"dtype": {"type": "DT_FLOAT"}, "value": {"tensor": {"dtype": "DT_FLOAT", "tensorShape": {"dim": [{"size": "864"}]}}}}}, {"name": "Func/StatefulPartitionedCall/input/_363", "op": "Const", "input": ["^image_input"], "attr": {"value": {"tensor": {"dtype": "DT_FLOAT", "tensorShape": {"dim": [{"size": "1"}, {"size": "1"}, {"size": "864"}, {"size": "36"}]}}}, "dtype": {"type": "DT_FLOAT"}}}, {"name": "Func/StatefulPartitionedCall/input/_364", "op": "Const", "input": ["^image_input"], "attr": {"dtype": {"type": "DT_FLOAT"}, "value": {"tensor": {"dtype": "DT_FLOAT", "tensorShape": {"dim": [{"size": "36"}]}}}}}, {"name": "Func/StatefulPartitionedCall/input/_365", "op": "Const", "input": ["^image_input"], "attr": {"dtype": {"type": "DT_FLOAT"}, "value": {"tensor": {"dtype": "DT_FLOAT", "tensorShape": {"dim": [{"size": "1"}, {"size": "1"}, {"size": "36"}, {"size": "864"}]}}}}}, {"name": "Func/StatefulPartitionedCall/input/_366", "op": "Const", "input": ["^image_input"], "attr": {"dtype": {"type": "DT_FLOAT"}, "value": {"tensor": {"dtype": "DT_FLOAT", "tensorShape": {"dim": [{"size": "864"}]}}}}}, {"name": "Func/StatefulPartitionedCall/input/_382", "op": "Const", "input": ["^image_input"], "attr": {"value": {"tensor": {"dtype": "DT_FLOAT", "tensorShape": {"dim": [{"size": "1"}, {"size": "1"}, {"size": "864"}, {"size": "36"}]}}}, "dtype": {"type": "DT_FLOAT"}}}, {"name": "Func/StatefulPartitionedCall/input/_383", "op": "Const", "input": ["^image_input"], "attr": {"dtype": {"type": "DT_FLOAT"}, "value": {"tensor": {"dtype": "DT_FLOAT", "tensorShape": {"dim": [{"size": "36"}]}}}}}, {"name": "Func/StatefulPartitionedCall/input/_384", "op": "Const", "input": ["^image_input"], "attr": {"value": {"tensor": {"dtype": "DT_FLOAT", "tensorShape": {"dim": [{"size": "1"}, {"size": "1"}, {"size": "36"}, {"size": "864"}]}}}, "dtype": {"type": "DT_FLOAT"}}}, {"name": "Func/StatefulPartitionedCall/input/_385", "op": "Const", "input": ["^image_input"], "attr": {"dtype": {"type": "DT_FLOAT"}, "value": {"tensor": {"dtype": "DT_FLOAT", "tensorShape": {"dim": [{"size": "864"}]}}}}}, {"name": "Func/StatefulPartitionedCall/input/_401", "op": "Const", "input": ["^image_input"], "attr": {"dtype": {"type": "DT_FLOAT"}, "value": {"tensor": {"dtype": "DT_FLOAT", "tensorShape": {"dim": [{"size": "1"}, {"size": "1"}, {"size": "864"}, {"size": "36"}]}}}}}, {"name": "Func/StatefulPartitionedCall/input/_402", "op": "Const", "input": ["^image_input"], "attr": {"dtype": {"type": "DT_FLOAT"}, "value": {"tensor": {"dtype": "DT_FLOAT", "tensorShape": {"dim": [{"size": "36"}]}}}}}, {"name": "Func/StatefulPartitionedCall/input/_403", "op": "Const", "input": ["^image_input"], "attr": {"value": {"tensor": {"dtype": "DT_FLOAT", "tensorShape": {"dim": [{"size": "1"}, {"size": "1"}, {"size": "36"}, {"size": "864"}]}}}, "dtype": {"type": "DT_FLOAT"}}}, {"name": "Func/StatefulPartitionedCall/input/_404", "op": "Const", "input": ["^image_input"], "attr": {"value": {"tensor": {"dtype": "DT_FLOAT", "tensorShape": {"dim": [{"size": "864"}]}}}, "dtype": {"type": "DT_FLOAT"}}}, {"name": "Func/StatefulPartitionedCall/input/_420", "op": "Const", "input": ["^image_input"], "attr": {"dtype": {"type": "DT_FLOAT"}, "value": {"tensor": {"dtype": "DT_FLOAT", "tensorShape": {"dim": [{"size": "1"}, {"size": "1"}, {"size": "864"}, {"size": "36"}]}}}}}, {"name": "Func/StatefulPartitionedCall/input/_421", "op": "Const", "input": ["^image_input"], "attr": {"dtype": {"type": "DT_FLOAT"}, "value": {"tensor": {"dtype": "DT_FLOAT", "tensorShape": {"dim": [{"size": "36"}]}}}}}, {"name": "Func/StatefulPartitionedCall/input/_422", "op": "Const", "input": ["^image_input"], "attr": {"dtype": {"type": "DT_FLOAT"}, "value": {"tensor": {"dtype": "DT_FLOAT", "tensorShape": {"dim": [{"size": "1"}, {"size": "1"}, {"size": "36"}, {"size": "864"}]}}}}}, {"name": "Func/StatefulPartitionedCall/input/_423", "op": "Const", "input": ["^image_input"], "attr": {"dtype": {"type": "DT_FLOAT"}, "value": {"tensor": {"dtype": "DT_FLOAT", "tensorShape": {"dim": [{"size": "864"}]}}}}}, {"name": "StatefulPartitionedCall/model_12/stack_3/block_7/se_reshape/Reshape/shape/3", "op": "Const", "input": ["^image_input"], "attr": {"value": {"tensor": {"dtype": "DT_INT32", "tensorShape": {}}}, "dtype": {"type": "DT_INT32"}}}, {"name": "Func/StatefulPartitionedCall/input/_439", "op": "Const", "input": ["^image_input"], "attr": {"dtype": {"type": "DT_FLOAT"}, "value": {"tensor": {"dtype": "DT_FLOAT", "tensorShape": {"dim": [{"size": "1"}, {"size": "1"}, {"size": "864"}, {"size": "36"}]}}}}}, {"name": "Func/StatefulPartitionedCall/input/_440", "op": "Const", "input": ["^image_input"], "attr": {"dtype": {"type": "DT_FLOAT"}, "value": {"tensor": {"dtype": "DT_FLOAT", "tensorShape": {"dim": [{"size": "36"}]}}}}}, {"name": "Func/StatefulPartitionedCall/input/_441", "op": "Const", "input": ["^image_input"], "attr": {"dtype": {"type": "DT_FLOAT"}, "value": {"tensor": {"dtype": "DT_FLOAT", "tensorShape": {"dim": [{"size": "1"}, {"size": "1"}, {"size": "36"}, {"size": "864"}]}}}}}, {"name": "Func/StatefulPartitionedCall/input/_442", "op": "Const", "input": ["^image_input"], "attr": {"value": {"tensor": {"dtype": "DT_FLOAT", "tensorShape": {"dim": [{"size": "864"}]}}}, "dtype": {"type": "DT_FLOAT"}}}, {"name": "Func/StatefulPartitionedCall/input/_458", "op": "Const", "input": ["^image_input"], "attr": {"dtype": {"type": "DT_FLOAT"}, "value": {"tensor": {"dtype": "DT_FLOAT", "tensorShape": {"dim": [{"size": "1"}, {"size": "1"}, {"size": "1200"}, {"size": "50"}]}}}}}, {"name": "Func/StatefulPartitionedCall/input/_459", "op": "Const", "input": ["^image_input"], "attr": {"value": {"tensor": {"dtype": "DT_FLOAT", "tensorShape": {"dim": [{"size": "50"}]}}}, "dtype": {"type": "DT_FLOAT"}}}, {"name": "Func/StatefulPartitionedCall/input/_460", "op": "Const", "input": ["^image_input"], "attr": {"dtype": {"type": "DT_FLOAT"}, "value": {"tensor": {"dtype": "DT_FLOAT", "tensorShape": {"dim": [{"size": "1"}, {"size": "1"}, {"size": "50"}, {"size": "1200"}]}}}}}, {"name": "Func/StatefulPartitionedCall/input/_461", "op": "Const", "input": ["^image_input"], "attr": {"dtype": {"type": "DT_FLOAT"}, "value": {"tensor": {"dtype": "DT_FLOAT", "tensorShape": {"dim": [{"size": "1200"}]}}}}}, {"name": "Func/StatefulPartitionedCall/input/_477", "op": "Const", "input": ["^image_input"], "attr": {"value": {"tensor": {"dtype": "DT_FLOAT", "tensorShape": {"dim": [{"size": "1"}, {"size": "1"}, {"size": "1200"}, {"size": "50"}]}}}, "dtype": {"type": "DT_FLOAT"}}}, {"name": "Func/StatefulPartitionedCall/input/_478", "op": "Const", "input": ["^image_input"], "attr": {"value": {"tensor": {"dtype": "DT_FLOAT", "tensorShape": {"dim": [{"size": "50"}]}}}, "dtype": {"type": "DT_FLOAT"}}}, {"name": "Func/StatefulPartitionedCall/input/_479", "op": "Const", "input": ["^image_input"], "attr": {"value": {"tensor": {"dtype": "DT_FLOAT", "tensorShape": {"dim": [{"size": "1"}, {"size": "1"}, {"size": "50"}, {"size": "1200"}]}}}, "dtype": {"type": "DT_FLOAT"}}}, {"name": "Func/StatefulPartitionedCall/input/_480", "op": "Const", "input": ["^image_input"], "attr": {"dtype": {"type": "DT_FLOAT"}, "value": {"tensor": {"dtype": "DT_FLOAT", "tensorShape": {"dim": [{"size": "1200"}]}}}}}, {"name": "Func/StatefulPartitionedCall/input/_496", "op": "Const", "input": ["^image_input"], "attr": {"dtype": {"type": "DT_FLOAT"}, "value": {"tensor": {"dtype": "DT_FLOAT", "tensorShape": {"dim": [{"size": "1"}, {"size": "1"}, {"size": "1200"}, {"size": "50"}]}}}}}, {"name": "Func/StatefulPartitionedCall/input/_497", "op": "Const", "input": ["^image_input"], "attr": {"value": {"tensor": {"dtype": "DT_FLOAT", "tensorShape": {"dim": [{"size": "50"}]}}}, "dtype": {"type": "DT_FLOAT"}}}, {"name": "Func/StatefulPartitionedCall/input/_498", "op": "Const", "input": ["^image_input"], "attr": {"dtype": {"type": "DT_FLOAT"}, "value": {"tensor": {"dtype": "DT_FLOAT", "tensorShape": {"dim": [{"size": "1"}, {"size": "1"}, {"size": "50"}, {"size": "1200"}]}}}}}, {"name": "Func/StatefulPartitionedCall/input/_499", "op": "Const", "input": ["^image_input"], "attr": {"dtype": {"type": "DT_FLOAT"}, "value": {"tensor": {"dtype": "DT_FLOAT", "tensorShape": {"dim": [{"size": "1200"}]}}}}}, {"name": "Func/StatefulPartitionedCall/input/_515", "op": "Const", "input": ["^image_input"], "attr": {"dtype": {"type": "DT_FLOAT"}, "value": {"tensor": {"dtype": "DT_FLOAT", "tensorShape": {"dim": [{"size": "1"}, {"size": "1"}, {"size": "1200"}, {"size": "50"}]}}}}}, {"name": "Func/StatefulPartitionedCall/input/_516", "op": "Const", "input": ["^image_input"], "attr": {"value": {"tensor": {"dtype": "DT_FLOAT", "tensorShape": {"dim": [{"size": "50"}]}}}, "dtype": {"type": "DT_FLOAT"}}}, {"name": "Func/StatefulPartitionedCall/input/_517", "op": "Const", "input": ["^image_input"], "attr": {"dtype": {"type": "DT_FLOAT"}, "value": {"tensor": {"dtype": "DT_FLOAT", "tensorShape": {"dim": [{"size": "1"}, {"size": "1"}, {"size": "50"}, {"size": "1200"}]}}}}}, {"name": "Func/StatefulPartitionedCall/input/_518", "op": "Const", "input": ["^image_input"], "attr": {"value": {"tensor": {"dtype": "DT_FLOAT", "tensorShape": {"dim": [{"size": "1200"}]}}}, "dtype": {"type": "DT_FLOAT"}}}, {"name": "Func/StatefulPartitionedCall/input/_534", "op": "Const", "input": ["^image_input"], "attr": {"value": {"tensor": {"dtype": "DT_FLOAT", "tensorShape": {"dim": [{"size": "1"}, {"size": "1"}, {"size": "1200"}, {"size": "50"}]}}}, "dtype": {"type": "DT_FLOAT"}}}, {"name": "Func/StatefulPartitionedCall/input/_535", "op": "Const", "input": ["^image_input"], "attr": {"dtype": {"type": "DT_FLOAT"}, "value": {"tensor": {"dtype": "DT_FLOAT", "tensorShape": {"dim": [{"size": "50"}]}}}}}, {"name": "Func/StatefulPartitionedCall/input/_536", "op": "Const", "input": ["^image_input"], "attr": {"dtype": {"type": "DT_FLOAT"}, "value": {"tensor": {"dtype": "DT_FLOAT", "tensorShape": {"dim": [{"size": "1"}, {"size": "1"}, {"size": "50"}, {"size": "1200"}]}}}}}, {"name": "Func/StatefulPartitionedCall/input/_537", "op": "Const", "input": ["^image_input"], "attr": {"dtype": {"type": "DT_FLOAT"}, "value": {"tensor": {"dtype": "DT_FLOAT", "tensorShape": {"dim": [{"size": "1200"}]}}}}}, {"name": "Func/StatefulPartitionedCall/input/_553", "op": "Const", "input": ["^image_input"], "attr": {"dtype": {"type": "DT_FLOAT"}, "value": {"tensor": {"dtype": "DT_FLOAT", "tensorShape": {"dim": [{"size": "1"}, {"size": "1"}, {"size": "1200"}, {"size": "50"}]}}}}}, {"name": "Func/StatefulPartitionedCall/input/_554", "op": "Const", "input": ["^image_input"], "attr": {"value": {"tensor": {"dtype": "DT_FLOAT", "tensorShape": {"dim": [{"size": "50"}]}}}, "dtype": {"type": "DT_FLOAT"}}}, {"name": "Func/StatefulPartitionedCall/input/_555", "op": "Const", "input": ["^image_input"], "attr": {"dtype": {"type": "DT_FLOAT"}, "value": {"tensor": {"dtype": "DT_FLOAT", "tensorShape": {"dim": [{"size": "1"}, {"size": "1"}, {"size": "50"}, {"size": "1200"}]}}}}}, {"name": "Func/StatefulPartitionedCall/input/_556", "op": "Const", "input": ["^image_input"], "attr": {"dtype": {"type": "DT_FLOAT"}, "value": {"tensor": {"dtype": "DT_FLOAT", "tensorShape": {"dim": [{"size": "1200"}]}}}}}, {"name": "Func/StatefulPartitionedCall/input/_572", "op": "Const", "input": ["^image_input"], "attr": {"value": {"tensor": {"dtype": "DT_FLOAT", "tensorShape": {"dim": [{"size": "1"}, {"size": "1"}, {"size": "1200"}, {"size": "50"}]}}}, "dtype": {"type": "DT_FLOAT"}}}, {"name": "Func/StatefulPartitionedCall/input/_573", "op": "Const", "input": ["^image_input"], "attr": {"value": {"tensor": {"dtype": "DT_FLOAT", "tensorShape": {"dim": [{"size": "50"}]}}}, "dtype": {"type": "DT_FLOAT"}}}, {"name": "Func/StatefulPartitionedCall/input/_574", "op": "Const", "input": ["^image_input"], "attr": {"value": {"tensor": {"dtype": "DT_FLOAT", "tensorShape": {"dim": [{"size": "1"}, {"size": "1"}, {"size": "50"}, {"size": "1200"}]}}}, "dtype": {"type": "DT_FLOAT"}}}, {"name": "Func/StatefulPartitionedCall/input/_575", "op": "Const", "input": ["^image_input"], "attr": {"value": {"tensor": {"dtype": "DT_FLOAT", "tensorShape": {"dim": [{"size": "1200"}]}}}, "dtype": {"type": "DT_FLOAT"}}}, {"name": "StatefulPartitionedCall/model_12/stack_4/block_7/se_reshape/Reshape/shape/3", "op": "Const", "input": ["^image_input"], "attr": {"dtype": {"type": "DT_INT32"}, "value": {"tensor": {"dtype": "DT_INT32", "tensorShape": {}}}}}, {"name": "Func/StatefulPartitionedCall/input/_591", "op": "Const", "input": ["^image_input"], "attr": {"dtype": {"type": "DT_FLOAT"}, "value": {"tensor": {"dtype": "DT_FLOAT", "tensorShape": {"dim": [{"size": "1"}, {"size": "1"}, {"size": "1200"}, {"size": "50"}]}}}}}, {"name": "Func/StatefulPartitionedCall/input/_592", "op": "Const", "input": ["^image_input"], "attr": {"value": {"tensor": {"dtype": "DT_FLOAT", "tensorShape": {"dim": [{"size": "50"}]}}}, "dtype": {"type": "DT_FLOAT"}}}, {"name": "Func/StatefulPartitionedCall/input/_593", "op": "Const", "input": ["^image_input"], "attr": {"value": {"tensor": {"dtype": "DT_FLOAT", "tensorShape": {"dim": [{"size": "1"}, {"size": "1"}, {"size": "50"}, {"size": "1200"}]}}}, "dtype": {"type": "DT_FLOAT"}}}, {"name": "Func/StatefulPartitionedCall/input/_594", "op": "Const", "input": ["^image_input"], "attr": {"value": {"tensor": {"dtype": "DT_FLOAT", "tensorShape": {"dim": [{"size": "1200"}]}}}, "dtype": {"type": "DT_FLOAT"}}}, {"name": "Func/StatefulPartitionedCall/input/_610", "op": "Const", "input": ["^image_input"], "attr": {"value": {"tensor": {"dtype": "DT_FLOAT", "tensorShape": {"dim": [{"size": "1"}, {"size": "1"}, {"size": "2064"}, {"size": "86"}]}}}, "dtype": {"type": "DT_FLOAT"}}}, {"name": "Func/StatefulPartitionedCall/input/_611", "op": "Const", "input": ["^image_input"], "attr": {"value": {"tensor": {"dtype": "DT_FLOAT", "tensorShape": {"dim": [{"size": "86"}]}}}, "dtype": {"type": "DT_FLOAT"}}}, {"name": "Func/StatefulPartitionedCall/input/_612", "op": "Const", "input": ["^image_input"], "attr": {"value": {"tensor": {"dtype": "DT_FLOAT", "tensorShape": {"dim": [{"size": "1"}, {"size": "1"}, {"size": "86"}, {"size": "2064"}]}}}, "dtype": {"type": "DT_FLOAT"}}}, {"name": "Func/StatefulPartitionedCall/input/_613", "op": "Const", "input": ["^image_input"], "attr": {"value": {"tensor": {"dtype": "DT_FLOAT", "tensorShape": {"dim": [{"size": "2064"}]}}}, "dtype": {"type": "DT_FLOAT"}}}, {"name": "Func/StatefulPartitionedCall/input/_629", "op": "Const", "input": ["^image_input"], "attr": {"dtype": {"type": "DT_FLOAT"}, "value": {"tensor": {"dtype": "DT_FLOAT", "tensorShape": {"dim": [{"size": "1"}, {"size": "1"}, {"size": "2064"}, {"size": "86"}]}}}}}, {"name": "Func/StatefulPartitionedCall/input/_630", "op": "Const", "input": ["^image_input"], "attr": {"value": {"tensor": {"dtype": "DT_FLOAT", "tensorShape": {"dim": [{"size": "86"}]}}}, "dtype": {"type": "DT_FLOAT"}}}, {"name": "Func/StatefulPartitionedCall/input/_631", "op": "Const", "input": ["^image_input"], "attr": {"dtype": {"type": "DT_FLOAT"}, "value": {"tensor": {"dtype": "DT_FLOAT", "tensorShape": {"dim": [{"size": "1"}, {"size": "1"}, {"size": "86"}, {"size": "2064"}]}}}}}, {"name": "Func/StatefulPartitionedCall/input/_632", "op": "Const", "input": ["^image_input"], "attr": {"dtype": {"type": "DT_FLOAT"}, "value": {"tensor": {"dtype": "DT_FLOAT", "tensorShape": {"dim": [{"size": "2064"}]}}}}}, {"name": "Func/StatefulPartitionedCall/input/_648", "op": "Const", "input": ["^image_input"], "attr": {"dtype": {"type": "DT_FLOAT"}, "value": {"tensor": {"dtype": "DT_FLOAT", "tensorShape": {"dim": [{"size": "1"}, {"size": "1"}, {"size": "2064"}, {"size": "86"}]}}}}}, {"name": "Func/StatefulPartitionedCall/input/_649", "op": "Const", "input": ["^image_input"], "attr": {"dtype": {"type": "DT_FLOAT"}, "value": {"tensor": {"dtype": "DT_FLOAT", "tensorShape": {"dim": [{"size": "86"}]}}}}}, {"name": "Func/StatefulPartitionedCall/input/_650", "op": "Const", "input": ["^image_input"], "attr": {"value": {"tensor": {"dtype": "DT_FLOAT", "tensorShape": {"dim": [{"size": "1"}, {"size": "1"}, {"size": "86"}, {"size": "2064"}]}}}, "dtype": {"type": "DT_FLOAT"}}}, {"name": "Func/StatefulPartitionedCall/input/_651", "op": "Const", "input": ["^image_input"], "attr": {"value": {"tensor": {"dtype": "DT_FLOAT", "tensorShape": {"dim": [{"size": "2064"}]}}}, "dtype": {"type": "DT_FLOAT"}}}, {"name": "Func/StatefulPartitionedCall/input/_667", "op": "Const", "input": ["^image_input"], "attr": {"dtype": {"type": "DT_FLOAT"}, "value": {"tensor": {"dtype": "DT_FLOAT", "tensorShape": {"dim": [{"size": "1"}, {"size": "1"}, {"size": "2064"}, {"size": "86"}]}}}}}, {"name": "Func/StatefulPartitionedCall/input/_668", "op": "Const", "input": ["^image_input"], "attr": {"dtype": {"type": "DT_FLOAT"}, "value": {"tensor": {"dtype": "DT_FLOAT", "tensorShape": {"dim": [{"size": "86"}]}}}}}, {"name": "Func/StatefulPartitionedCall/input/_669", "op": "Const", "input": ["^image_input"], "attr": {"value": {"tensor": {"dtype": "DT_FLOAT", "tensorShape": {"dim": [{"size": "1"}, {"size": "1"}, {"size": "86"}, {"size": "2064"}]}}}, "dtype": {"type": "DT_FLOAT"}}}, {"name": "Func/StatefulPartitionedCall/input/_670", "op": "Const", "input": ["^image_input"], "attr": {"value": {"tensor": {"dtype": "DT_FLOAT", "tensorShape": {"dim": [{"size": "2064"}]}}}, "dtype": {"type": "DT_FLOAT"}}}, {"name": "Func/StatefulPartitionedCall/input/_686", "op": "Const", "input": ["^image_input"], "attr": {"value": {"tensor": {"dtype": "DT_FLOAT", "tensorShape": {"dim": [{"size": "1"}, {"size": "1"}, {"size": "2064"}, {"size": "86"}]}}}, "dtype": {"type": "DT_FLOAT"}}}, {"name": "Func/StatefulPartitionedCall/input/_687", "op": "Const", "input": ["^image_input"], "attr": {"value": {"tensor": {"dtype": "DT_FLOAT", "tensorShape": {"dim": [{"size": "86"}]}}}, "dtype": {"type": "DT_FLOAT"}}}, {"name": "Func/StatefulPartitionedCall/input/_688", "op": "Const", "input": ["^image_input"], "attr": {"value": {"tensor": {"dtype": "DT_FLOAT", "tensorShape": {"dim": [{"size": "1"}, {"size": "1"}, {"size": "86"}, {"size": "2064"}]}}}, "dtype": {"type": "DT_FLOAT"}}}, {"name": "Func/StatefulPartitionedCall/input/_689", "op": "Const", "input": ["^image_input"], "attr": {"value": {"tensor": {"dtype": "DT_FLOAT", "tensorShape": {"dim": [{"size": "2064"}]}}}, "dtype": {"type": "DT_FLOAT"}}}, {"name": "Func/StatefulPartitionedCall/input/_705", "op": "Const", "input": ["^image_input"], "attr": {"dtype": {"type": "DT_FLOAT"}, "value": {"tensor": {"dtype": "DT_FLOAT", "tensorShape": {"dim": [{"size": "1"}, {"size": "1"}, {"size": "2064"}, {"size": "86"}]}}}}}, {"name": "Func/StatefulPartitionedCall/input/_706", "op": "Const", "input": ["^image_input"], "attr": {"value": {"tensor": {"dtype": "DT_FLOAT", "tensorShape": {"dim": [{"size": "86"}]}}}, "dtype": {"type": "DT_FLOAT"}}}, {"name": "Func/StatefulPartitionedCall/input/_707", "op": "Const", "input": ["^image_input"], "attr": {"value": {"tensor": {"dtype": "DT_FLOAT", "tensorShape": {"dim": [{"size": "1"}, {"size": "1"}, {"size": "86"}, {"size": "2064"}]}}}, "dtype": {"type": "DT_FLOAT"}}}, {"name": "Func/StatefulPartitionedCall/input/_708", "op": "Const", "input": ["^image_input"], "attr": {"value": {"tensor": {"dtype": "DT_FLOAT", "tensorShape": {"dim": [{"size": "2064"}]}}}, "dtype": {"type": "DT_FLOAT"}}}, {"name": "Func/StatefulPartitionedCall/input/_724", "op": "Const", "input": ["^image_input"], "attr": {"dtype": {"type": "DT_FLOAT"}, "value": {"tensor": {"dtype": "DT_FLOAT", "tensorShape": {"dim": [{"size": "1"}, {"size": "1"}, {"size": "2064"}, {"size": "86"}]}}}}}, {"name": "Func/StatefulPartitionedCall/input/_725", "op": "Const", "input": ["^image_input"], "attr": {"dtype": {"type": "DT_FLOAT"}, "value": {"tensor": {"dtype": "DT_FLOAT", "tensorShape": {"dim": [{"size": "86"}]}}}}}, {"name": "Func/StatefulPartitionedCall/input/_726", "op": "Const", "input": ["^image_input"], "attr": {"value": {"tensor": {"dtype": "DT_FLOAT", "tensorShape": {"dim": [{"size": "1"}, {"size": "1"}, {"size": "86"}, {"size": "2064"}]}}}, "dtype": {"type": "DT_FLOAT"}}}, {"name": "Func/StatefulPartitionedCall/input/_727", "op": "Const", "input": ["^image_input"], "attr": {"dtype": {"type": "DT_FLOAT"}, "value": {"tensor": {"dtype": "DT_FLOAT", "tensorShape": {"dim": [{"size": "2064"}]}}}}}, {"name": "Func/StatefulPartitionedCall/input/_743", "op": "Const", "input": ["^image_input"], "attr": {"dtype": {"type": "DT_FLOAT"}, "value": {"tensor": {"dtype": "DT_FLOAT", "tensorShape": {"dim": [{"size": "1"}, {"size": "1"}, {"size": "2064"}, {"size": "86"}]}}}}}, {"name": "Func/StatefulPartitionedCall/input/_744", "op": "Const", "input": ["^image_input"], "attr": {"value": {"tensor": {"dtype": "DT_FLOAT", "tensorShape": {"dim": [{"size": "86"}]}}}, "dtype": {"type": "DT_FLOAT"}}}, {"name": "Func/StatefulPartitionedCall/input/_745", "op": "Const", "input": ["^image_input"], "attr": {"dtype": {"type": "DT_FLOAT"}, "value": {"tensor": {"dtype": "DT_FLOAT", "tensorShape": {"dim": [{"size": "1"}, {"size": "1"}, {"size": "86"}, {"size": "2064"}]}}}}}, {"name": "Func/StatefulPartitionedCall/input/_746", "op": "Const", "input": ["^image_input"], "attr": {"dtype": {"type": "DT_FLOAT"}, "value": {"tensor": {"dtype": "DT_FLOAT", "tensorShape": {"dim": [{"size": "2064"}]}}}}}, {"name": "Func/StatefulPartitionedCall/input/_762", "op": "Const", "input": ["^image_input"], "attr": {"value": {"tensor": {"dtype": "DT_FLOAT", "tensorShape": {"dim": [{"size": "1"}, {"size": "1"}, {"size": "2064"}, {"size": "86"}]}}}, "dtype": {"type": "DT_FLOAT"}}}, {"name": "Func/StatefulPartitionedCall/input/_763", "op": "Const", "input": ["^image_input"], "attr": {"value": {"tensor": {"dtype": "DT_FLOAT", "tensorShape": {"dim": [{"size": "86"}]}}}, "dtype": {"type": "DT_FLOAT"}}}, {"name": "Func/StatefulPartitionedCall/input/_764", "op": "Const", "input": ["^image_input"], "attr": {"value": {"tensor": {"dtype": "DT_FLOAT", "tensorShape": {"dim": [{"size": "1"}, {"size": "1"}, {"size": "86"}, {"size": "2064"}]}}}, "dtype": {"type": "DT_FLOAT"}}}, {"name": "Func/StatefulPartitionedCall/input/_765", "op": "Const", "input": ["^image_input"], "attr": {"value": {"tensor": {"dtype": "DT_FLOAT", "tensorShape": {"dim": [{"size": "2064"}]}}}, "dtype": {"type": "DT_FLOAT"}}}, {"name": "StatefulPartitionedCall/model_12/stack_5/block_10/se_reshape/Reshape/shape/3", "op": "Const", "input": ["^image_input"], "attr": {"value": {"tensor": {"dtype": "DT_INT32", "tensorShape": {}}}, "dtype": {"type": "DT_INT32"}}}, {"name": "Func/StatefulPartitionedCall/input/_800", "op": "Const", "input": ["^image_input"], "attr": {"dtype": {"type": "DT_FLOAT"}, "value": {"tensor": {"dtype": "DT_FLOAT", "tensorShape": {"dim": [{"size": "1"}, {"size": "1"}, {"size": "2064"}, {"size": "86"}]}}}}}, {"name": "Func/StatefulPartitionedCall/input/_801", "op": "Const", "input": ["^image_input"], "attr": {"dtype": {"type": "DT_FLOAT"}, "value": {"tensor": {"dtype": "DT_FLOAT", "tensorShape": {"dim": [{"size": "86"}]}}}}}, {"name": "Func/StatefulPartitionedCall/input/_802", "op": "Const", "input": ["^image_input"], "attr": {"value": {"tensor": {"dtype": "DT_FLOAT", "tensorShape": {"dim": [{"size": "1"}, {"size": "1"}, {"size": "86"}, {"size": "2064"}]}}}, "dtype": {"type": "DT_FLOAT"}}}, {"name": "Func/StatefulPartitionedCall/input/_803", "op": "Const", "input": ["^image_input"], "attr": {"dtype": {"type": "DT_FLOAT"}, "value": {"tensor": {"dtype": "DT_FLOAT", "tensorShape": {"dim": [{"size": "2064"}]}}}}}, {"name": "Func/StatefulPartitionedCall/input/_819", "op": "Const", "input": ["^image_input"], "attr": {"dtype": {"type": "DT_FLOAT"}, "value": {"tensor": {"dtype": "DT_FLOAT", "tensorShape": {"dim": [{"size": "1"}, {"size": "1"}, {"size": "3456"}, {"size": "144"}]}}}}}, {"name": "Func/StatefulPartitionedCall/input/_820", "op": "Const", "input": ["^image_input"], "attr": {"dtype": {"type": "DT_FLOAT"}, "value": {"tensor": {"dtype": "DT_FLOAT", "tensorShape": {"dim": [{"size": "144"}]}}}}}, {"name": "Func/StatefulPartitionedCall/input/_821", "op": "Const", "input": ["^image_input"], "attr": {"value": {"tensor": {"dtype": "DT_FLOAT", "tensorShape": {"dim": [{"size": "1"}, {"size": "1"}, {"size": "144"}, {"size": "3456"}]}}}, "dtype": {"type": "DT_FLOAT"}}}, {"name": "Func/StatefulPartitionedCall/input/_822", "op": "Const", "input": ["^image_input"], "attr": {"dtype": {"type": "DT_FLOAT"}, "value": {"tensor": {"dtype": "DT_FLOAT", "tensorShape": {"dim": [{"size": "3456"}]}}}}}, {"name": "StatefulPartitionedCall/model_12/stack_6/block_2/se_reshape/strided_slice/stack", "op": "Const", "input": ["^image_input"], "attr": {"dtype": {"type": "DT_INT32"}, "value": {"tensor": {"dtype": "DT_INT32", "tensorShape": {"dim": [{"size": "1"}]}}}}}, {"name": "StatefulPartitionedCall/model_12/stack_6/block_2/se_reshape/strided_slice/stack_1", "op": "Const", "input": ["^image_input"], "attr": {"value": {"tensor": {"dtype": "DT_INT32", "tensorShape": {"dim": [{"size": "1"}]}}}, "dtype": {"type": "DT_INT32"}}}, {"name": "StatefulPartitionedCall/model_12/stack_6/block_2/se_reshape/Reshape/shape/1", "op": "Const", "input": ["^image_input"], "attr": {"value": {"tensor": {"dtype": "DT_INT32", "tensorShape": {}}}, "dtype": {"type": "DT_INT32"}}}, {"name": "StatefulPartitionedCall/model_12/stack_6/block_2/se_reshape/Reshape/shape/3", "op": "Const", "input": ["^image_input"], "attr": {"value": {"tensor": {"dtype": "DT_INT32", "tensorShape": {}}}, "dtype": {"type": "DT_INT32"}}}, {"name": "Func/StatefulPartitionedCall/input/_838", "op": "Const", "input": ["^image_input"], "attr": {"value": {"tensor": {"dtype": "DT_FLOAT", "tensorShape": {"dim": [{"size": "1"}, {"size": "1"}, {"size": "3456"}, {"size": "144"}]}}}, "dtype": {"type": "DT_FLOAT"}}}, {"name": "Func/StatefulPartitionedCall/input/_839", "op": "Const", "input": ["^image_input"], "attr": {"value": {"tensor": {"dtype": "DT_FLOAT", "tensorShape": {"dim": [{"size": "144"}]}}}, "dtype": {"type": "DT_FLOAT"}}}, {"name": "Func/StatefulPartitionedCall/input/_840", "op": "Const", "input": ["^image_input"], "attr": {"dtype": {"type": "DT_FLOAT"}, "value": {"tensor": {"dtype": "DT_FLOAT", "tensorShape": {"dim": [{"size": "1"}, {"size": "1"}, {"size": "144"}, {"size": "3456"}]}}}}}, {"name": "Func/StatefulPartitionedCall/input/_841", "op": "Const", "input": ["^image_input"], "attr": {"value": {"tensor": {"dtype": "DT_FLOAT", "tensorShape": {"dim": [{"size": "3456"}]}}}, "dtype": {"type": "DT_FLOAT"}}}, {"name": "StatefulPartitionedCall/model_12/stack_6/block_2/se_squeeze/Mean/reduction_indices", "op": "Const", "input": ["^image_input"], "attr": {"value": {"tensor": {"dtype": "DT_INT32", "tensorShape": {"dim": [{"size": "2"}]}}}, "dtype": {"type": "DT_INT32"}}}, {"name": "Func/StatefulPartitionedCall/input/_852", "op": "Const", "input": ["^image_input"], "attr": {"value": {"tensor": {"dtype": "DT_FLOAT", "tensorShape": {"dim": [{"size": "2304"}, {"size": "1000"}]}}}, "dtype": {"type": "DT_FLOAT"}}}, {"name": "Func/StatefulPartitionedCall/input/_853", "op": "Const", "input": ["^image_input"], "attr": {"value": {"tensor": {"dtype": "DT_FLOAT", "tensorShape": {"dim": [{"size": "1000"}]}}}, "dtype": {"type": "DT_FLOAT"}}}, {"name": "StatefulPartitionedCall/model_12/tf_op_layer_Mul_6/Mul_6", "op": "Mul", "input": ["StatefulPartitionedCall/model_12/tf_op_layer_Mul_6/Mul_6/y", "image_input"], "attr": {"_cloned": {"b": true}, "T": {"type": "DT_FLOAT"}}}, {"name": "StatefulPartitionedCall/model_12/tf_op_layer_Shape_12/Shape_12", "op": "Shape", "input": ["StatefulPartitionedCall/model_12/tf_op_layer_Mul_6/Mul_6"], "attr": {"out_type": {"type": "DT_INT32"}, "_cloned": {"b": true}, "T": {"type": "DT_FLOAT"}}}, {"name": "StatefulPartitionedCall/model_12/tf_op_layer_BroadcastTo_12/BroadcastTo_12", "op": "BroadcastTo", "input": ["StatefulPartitionedCall/model_12/tf_op_layer_BroadcastTo_12/BroadcastTo_12/input", "StatefulPartitionedCall/model_12/tf_op_layer_Shape_12/Shape_12"], "attr": {"Tidx": {"type": "DT_INT32"}, "_cloned": {"b": true}, "T": {"type": "DT_FLOAT"}}}, {"name": "StatefulPartitionedCall/model_12/tf_op_layer_Sub_6/Sub_6", "op": "Sub", "input": ["StatefulPartitionedCall/model_12/tf_op_layer_Mul_6/Mul_6", "StatefulPartitionedCall/model_12/tf_op_layer_BroadcastTo_12/BroadcastTo_12"], "attr": {"_cloned": {"b": true}, "T": {"type": "DT_FLOAT"}}}, {"name": "StatefulPartitionedCall/model_12/tf_op_layer_Shape_13/Shape_13", "op": "Shape", "input": ["StatefulPartitionedCall/model_12/tf_op_layer_Sub_6/Sub_6"], "attr": {"_cloned": {"b": true}, "out_type": {"type": "DT_INT32"}, "T": {"type": "DT_FLOAT"}}}, {"name": "StatefulPartitionedCall/model_12/tf_op_layer_BroadcastTo_13/BroadcastTo_13", "op": "BroadcastTo", "input": ["StatefulPartitionedCall/model_12/tf_op_layer_BroadcastTo_13/BroadcastTo_13/input", "StatefulPartitionedCall/model_12/tf_op_layer_Shape_13/Shape_13"], "attr": {"T": {"type": "DT_FLOAT"}, "_cloned": {"b": true}, "Tidx": {"type": "DT_INT32"}}}, {"name": "StatefulPartitionedCall/model_12/tf_op_layer_RealDiv_6/RealDiv_6", "op": "RealDiv", "input": ["StatefulPartitionedCall/model_12/tf_op_layer_Sub_6/Sub_6", "StatefulPartitionedCall/model_12/tf_op_layer_BroadcastTo_13/BroadcastTo_13"], "attr": {"T": {"type": "DT_FLOAT"}, "_cloned": {"b": true}}}, {"name": "StatefulPartitionedCall/model_12/stem_bn/FusedBatchNormV3", "op": "_FusedConv2D", "input": ["StatefulPartitionedCall/model_12/tf_op_layer_RealDiv_6/RealDiv_6", "StatefulPartitionedCall/model_12/stem_conv2d/Conv2D_weights", "StatefulPartitionedCall/model_12/stem_conv2d/Conv2D_bn_offset"], "device": "/device:CPU:0", "attr": {"data_format": {"s": "TkhXQw=="}, "strides": {"list": {"i": ["1", "2", "2", "1"]}}, "use_cudnn_on_gpu": {"b": true}, "fused_ops": {"list": {"s": ["Qmlhc0FkZA=="]}}, "epsilon": {"f": 0.0}, "num_args": {"i": "1"}, "dilations": {"list": {"i": ["1", "1", "1", "1"]}}, "T": {"type": "DT_FLOAT"}, "explicit_paddings": {"list": {}}, "padding": {"s": "U0FNRQ=="}}}, {"name": "StatefulPartitionedCall/model_12/stem_activation/Sigmoid", "op": "Sigmoid", "input": ["StatefulPartitionedCall/model_12/stem_bn/FusedBatchNormV3"], "attr": {"T": {"type": "DT_FLOAT"}}}, {"name": "StatefulPartitionedCall/model_12/stem_activation/mul", "op": "Mul", "input": ["StatefulPartitionedCall/model_12/stem_activation/Sigmoid", "StatefulPartitionedCall/model_12/stem_bn/FusedBatchNormV3"], "attr": {"T": {"type": "DT_FLOAT"}}}, {"name": "StatefulPartitionedCall/model_12/stack_0/block_0/depthwise_conv2d/depthwise", "op": "FusedDepthwiseConv2dNative", "input": ["StatefulPartitionedCall/model_12/stem_activation/mul", "StatefulPartitionedCall/model_12/stack_0/block_0/depthwise_conv2d/depthwise_weights", "StatefulPartitionedCall/model_12/stack_0/block_0/depthwise_conv2d/depthwise_bn_offset"], "attr": {"T": {"type": "DT_FLOAT"}, "fused_ops": {"list": {"s": ["Qmlhc0FkZA=="]}}, "padding": {"s": "U0FNRQ=="}, "dilations": {"list": {"i": ["1", "1", "1", "1"]}}, "num_args": {"i": "1"}, "data_format": {"s": "TkhXQw=="}, "strides": {"list": {"i": ["1", "1", "1", "1"]}}}}, {"name": "StatefulPartitionedCall/model_12/stack_0/block_0/depthwise_activation/Sigmoid", "op": "Sigmoid", "input": ["StatefulPartitionedCall/model_12/stack_0/block_0/depthwise_conv2d/depthwise"], "attr": {"T": {"type": "DT_FLOAT"}}}, {"name": "StatefulPartitionedCall/model_12/stack_0/block_0/depthwise_activation/mul", "op": "Mul", "input": ["StatefulPartitionedCall/model_12/stack_0/block_0/depthwise_activation/Sigmoid", "StatefulPartitionedCall/model_12/stack_0/block_0/depthwise_conv2d/depthwise"], "attr": {"T": {"type": "DT_FLOAT"}}}, {"name": "StatefulPartitionedCall/model_12/stack_0/block_0/se_squeeze/Mean", "op": "Mean", "input": ["StatefulPartitionedCall/model_12/stack_0/block_0/depthwise_activation/mul", "StatefulPartitionedCall/model_12/stack_6/block_2/se_squeeze/Mean/reduction_indices"], "attr": {"keep_dims": {"b": false}, "T": {"type": "DT_FLOAT"}, "Tidx": {"type": "DT_INT32"}}}, {"name": "StatefulPartitionedCall/model_12/stack_0/block_0/se_reshape/Shape", "op": "Shape", "input": ["StatefulPartitionedCall/model_12/stack_0/block_0/se_squeeze/Mean"], "attr": {"out_type": {"type": "DT_INT32"}, "T": {"type": "DT_FLOAT"}}}, {"name": "StatefulPartitionedCall/model_12/stack_0/block_0/se_reshape/strided_slice", "op": "StridedSlice", "input": ["StatefulPartitionedCall/model_12/stack_0/block_0/se_reshape/Shape", "StatefulPartitionedCall/model_12/stack_6/block_2/se_reshape/strided_slice/stack", "StatefulPartitionedCall/model_12/stack_6/block_2/se_reshape/strided_slice/stack_1", "StatefulPartitionedCall/model_12/stack_6/block_2/se_reshape/strided_slice/stack_1"], "attr": {"ellipsis_mask": {"i": "0"}, "T": {"type": "DT_INT32"}, "end_mask": {"i": "0"}, "shrink_axis_mask": {"i": "1"}, "Index": {"type": "DT_INT32"}, "begin_mask": {"i": "0"}, "new_axis_mask": {"i": "0"}}}, {"name": "StatefulPartitionedCall/model_12/stack_0/block_0/se_reshape/Reshape/shape", "op": "Pack", "input": ["StatefulPartitionedCall/model_12/stack_0/block_0/se_reshape/strided_slice", "StatefulPartitionedCall/model_12/stack_6/block_2/se_reshape/Reshape/shape/1", "StatefulPartitionedCall/model_12/stack_6/block_2/se_reshape/Reshape/shape/1", "StatefulPartitionedCall/model_12/stack_0/block_0/se_reshape/Reshape/shape/3"], "attr": {"N": {"i": "4"}, "T": {"type": "DT_INT32"}, "axis": {"i": "0"}}}, {"name": "StatefulPartitionedCall/model_12/stack_0/block_0/se_reshape/Reshape", "op": "Reshape", "input": ["StatefulPartitionedCall/model_12/stack_0/block_0/se_squeeze/Mean", "StatefulPartitionedCall/model_12/stack_0/block_0/se_reshape/Reshape/shape"], "attr": {"T": {"type": "DT_FLOAT"}, "Tshape": {"type": "DT_INT32"}}}, {"name": "StatefulPartitionedCall/model_12/stack_0/block_0/se_reduce_conv2d/BiasAdd", "op": "_FusedConv2D", "input": ["StatefulPartitionedCall/model_12/stack_0/block_0/se_reshape/Reshape", "Func/StatefulPartitionedCall/input/_12", "Func/StatefulPartitionedCall/input/_13"], "device": "/device:CPU:0", "attr": {"T": {"type": "DT_FLOAT"}, "fused_ops": {"list": {"s": ["Qmlhc0FkZA=="]}}, "epsilon": {"f": 0.0}, "strides": {"list": {"i": ["1", "1", "1", "1"]}}, "use_cudnn_on_gpu": {"b": true}, "num_args": {"i": "1"}, "padding": {"s": "U0FNRQ=="}, "dilations": {"list": {"i": ["1", "1", "1", "1"]}}, "explicit_paddings": {"list": {}}, "data_format": {"s": "TkhXQw=="}}}, {"name": "StatefulPartitionedCall/model_12/stack_0/block_0/se_reduce_activation/Sigmoid", "op": "Sigmoid", "input": ["StatefulPartitionedCall/model_12/stack_0/block_0/se_reduce_conv2d/BiasAdd"], "attr": {"T": {"type": "DT_FLOAT"}}}, {"name": "StatefulPartitionedCall/model_12/stack_0/block_0/se_reduce_activation/mul", "op": "Mul", "input": ["StatefulPartitionedCall/model_12/stack_0/block_0/se_reduce_activation/Sigmoid", "StatefulPartitionedCall/model_12/stack_0/block_0/se_reduce_conv2d/BiasAdd"], "attr": {"T": {"type": "DT_FLOAT"}}}, {"name": "StatefulPartitionedCall/model_12/stack_0/block_0/se_expand_conv2d/BiasAdd", "op": "_FusedConv2D", "input": ["StatefulPartitionedCall/model_12/stack_0/block_0/se_reduce_activation/mul", "Func/StatefulPartitionedCall/input/_14", "Func/StatefulPartitionedCall/input/_15"], "device": "/device:CPU:0", "attr": {"num_args": {"i": "1"}, "fused_ops": {"list": {"s": ["Qmlhc0FkZA=="]}}, "explicit_paddings": {"list": {}}, "data_format": {"s": "TkhXQw=="}, "use_cudnn_on_gpu": {"b": true}, "epsilon": {"f": 0.0}, "dilations": {"list": {"i": ["1", "1", "1", "1"]}}, "strides": {"list": {"i": ["1", "1", "1", "1"]}}, "T": {"type": "DT_FLOAT"}, "padding": {"s": "U0FNRQ=="}}}, {"name": "StatefulPartitionedCall/model_12/stack_0/block_0/se_expand_activation/Sigmoid", "op": "Sigmoid", "input": ["StatefulPartitionedCall/model_12/stack_0/block_0/se_expand_conv2d/BiasAdd"], "attr": {"T": {"type": "DT_FLOAT"}}}, {"name": "StatefulPartitionedCall/model_12/stack_0/block_0/se_excite/mul", "op": "Mul", "input": ["StatefulPartitionedCall/model_12/stack_0/block_0/depthwise_activation/mul", "StatefulPartitionedCall/model_12/stack_0/block_0/se_expand_activation/Sigmoid"], "attr": {"T": {"type": "DT_FLOAT"}}}, {"name": "StatefulPartitionedCall/model_12/stack_0/block_0/project_bn/FusedBatchNormV3", "op": "_FusedConv2D", "input": ["StatefulPartitionedCall/model_12/stack_0/block_0/se_excite/mul", "StatefulPartitionedCall/model_12/stack_0/block_0/project_conv2d/Conv2D_weights", "StatefulPartitionedCall/model_12/stack_0/block_0/project_conv2d/Conv2D_bn_offset"], "device": "/device:CPU:0", "attr": {"explicit_paddings": {"list": {}}, "fused_ops": {"list": {"s": ["Qmlhc0FkZA=="]}}, "T": {"type": "DT_FLOAT"}, "epsilon": {"f": 0.0}, "data_format": {"s": "TkhXQw=="}, "dilations": {"list": {"i": ["1", "1", "1", "1"]}}, "use_cudnn_on_gpu": {"b": true}, "padding": {"s": "U0FNRQ=="}, "num_args": {"i": "1"}, "strides": {"list": {"i": ["1", "1", "1", "1"]}}}}, {"name": "StatefulPartitionedCall/model_12/stack_0/block_1/depthwise_conv2d/depthwise", "op": "FusedDepthwiseConv2dNative", "input": ["StatefulPartitionedCall/model_12/stack_0/block_0/project_bn/FusedBatchNormV3", "StatefulPartitionedCall/model_12/stack_0/block_1/depthwise_conv2d/depthwise_weights", "StatefulPartitionedCall/model_12/stack_0/block_1/depthwise_conv2d/depthwise_bn_offset"], "attr": {"T": {"type": "DT_FLOAT"}, "num_args": {"i": "1"}, "padding": {"s": "U0FNRQ=="}, "fused_ops": {"list": {"s": ["Qmlhc0FkZA=="]}}, "strides": {"list": {"i": ["1", "1", "1", "1"]}}, "dilations": {"list": {"i": ["1", "1", "1", "1"]}}, "data_format": {"s": "TkhXQw=="}}}, {"name": "StatefulPartitionedCall/model_12/stack_0/block_1/depthwise_activation/Sigmoid", "op": "Sigmoid", "input": ["StatefulPartitionedCall/model_12/stack_0/block_1/depthwise_conv2d/depthwise"], "attr": {"T": {"type": "DT_FLOAT"}}}, {"name": "StatefulPartitionedCall/model_12/stack_0/block_1/depthwise_activation/mul", "op": "Mul", "input": ["StatefulPartitionedCall/model_12/stack_0/block_1/depthwise_activation/Sigmoid", "StatefulPartitionedCall/model_12/stack_0/block_1/depthwise_conv2d/depthwise"], "attr": {"T": {"type": "DT_FLOAT"}}}, {"name": "StatefulPartitionedCall/model_12/stack_0/block_1/se_squeeze/Mean", "op": "Mean", "input": ["StatefulPartitionedCall/model_12/stack_0/block_1/depthwise_activation/mul", "StatefulPartitionedCall/model_12/stack_6/block_2/se_squeeze/Mean/reduction_indices"], "attr": {"T": {"type": "DT_FLOAT"}, "Tidx": {"type": "DT_INT32"}, "keep_dims": {"b": false}}}, {"name": "StatefulPartitionedCall/model_12/stack_0/block_1/se_reshape/Shape", "op": "Shape", "input": ["StatefulPartitionedCall/model_12/stack_0/block_1/se_squeeze/Mean"], "attr": {"out_type": {"type": "DT_INT32"}, "T": {"type": "DT_FLOAT"}}}, {"name": "StatefulPartitionedCall/model_12/stack_0/block_1/se_reshape/strided_slice", "op": "StridedSlice", "input": ["StatefulPartitionedCall/model_12/stack_0/block_1/se_reshape/Shape", "StatefulPartitionedCall/model_12/stack_6/block_2/se_reshape/strided_slice/stack", "StatefulPartitionedCall/model_12/stack_6/block_2/se_reshape/strided_slice/stack_1", "StatefulPartitionedCall/model_12/stack_6/block_2/se_reshape/strided_slice/stack_1"], "attr": {"ellipsis_mask": {"i": "0"}, "new_axis_mask": {"i": "0"}, "Index": {"type": "DT_INT32"}, "end_mask": {"i": "0"}, "shrink_axis_mask": {"i": "1"}, "begin_mask": {"i": "0"}, "T": {"type": "DT_INT32"}}}, {"name": "StatefulPartitionedCall/model_12/stack_0/block_1/se_reshape/Reshape/shape", "op": "Pack", "input": ["StatefulPartitionedCall/model_12/stack_0/block_1/se_reshape/strided_slice", "StatefulPartitionedCall/model_12/stack_6/block_2/se_reshape/Reshape/shape/1", "StatefulPartitionedCall/model_12/stack_6/block_2/se_reshape/Reshape/shape/1", "StatefulPartitionedCall/model_12/stack_0/block_2/se_reshape/Reshape/shape/3"], "attr": {"N": {"i": "4"}, "axis": {"i": "0"}, "T": {"type": "DT_INT32"}}}, {"name": "StatefulPartitionedCall/model_12/stack_0/block_1/se_reshape/Reshape", "op": "Reshape", "input": ["StatefulPartitionedCall/model_12/stack_0/block_1/se_squeeze/Mean", "StatefulPartitionedCall/model_12/stack_0/block_1/se_reshape/Reshape/shape"], "attr": {"Tshape": {"type": "DT_INT32"}, "T": {"type": "DT_FLOAT"}}}, {"name": "StatefulPartitionedCall/model_12/stack_0/block_1/se_reduce_conv2d/BiasAdd", "op": "_FusedConv2D", "input": ["StatefulPartitionedCall/model_12/stack_0/block_1/se_reshape/Reshape", "Func/StatefulPartitionedCall/input/_26", "Func/StatefulPartitionedCall/input/_27"], "device": "/device:CPU:0", "attr": {"padding": {"s": "U0FNRQ=="}, "fused_ops": {"list": {"s": ["Qmlhc0FkZA=="]}}, "use_cudnn_on_gpu": {"b": true}, "T": {"type": "DT_FLOAT"}, "epsilon": {"f": 0.0}, "dilations": {"list": {"i": ["1", "1", "1", "1"]}}, "strides": {"list": {"i": ["1", "1", "1", "1"]}}, "num_args": {"i": "1"}, "data_format": {"s": "TkhXQw=="}, "explicit_paddings": {"list": {}}}}, {"name": "StatefulPartitionedCall/model_12/stack_0/block_1/se_reduce_activation/Sigmoid", "op": "Sigmoid", "input": ["StatefulPartitionedCall/model_12/stack_0/block_1/se_reduce_conv2d/BiasAdd"], "attr": {"T": {"type": "DT_FLOAT"}}}, {"name": "StatefulPartitionedCall/model_12/stack_0/block_1/se_reduce_activation/mul", "op": "Mul", "input": ["StatefulPartitionedCall/model_12/stack_0/block_1/se_reduce_activation/Sigmoid", "StatefulPartitionedCall/model_12/stack_0/block_1/se_reduce_conv2d/BiasAdd"], "attr": {"T": {"type": "DT_FLOAT"}}}, {"name": "StatefulPartitionedCall/model_12/stack_0/block_1/se_expand_conv2d/BiasAdd", "op": "_FusedConv2D", "input": ["StatefulPartitionedCall/model_12/stack_0/block_1/se_reduce_activation/mul", "Func/StatefulPartitionedCall/input/_28", "Func/StatefulPartitionedCall/input/_29"], "device": "/device:CPU:0", "attr": {"strides": {"list": {"i": ["1", "1", "1", "1"]}}, "data_format": {"s": "TkhXQw=="}, "epsilon": {"f": 0.0}, "dilations": {"list": {"i": ["1", "1", "1", "1"]}}, "use_cudnn_on_gpu": {"b": true}, "fused_ops": {"list": {"s": ["Qmlhc0FkZA=="]}}, "T": {"type": "DT_FLOAT"}, "padding": {"s": "U0FNRQ=="}, "num_args": {"i": "1"}, "explicit_paddings": {"list": {}}}}, {"name": "StatefulPartitionedCall/model_12/stack_0/block_1/se_expand_activation/Sigmoid", "op": "Sigmoid", "input": ["StatefulPartitionedCall/model_12/stack_0/block_1/se_expand_conv2d/BiasAdd"], "attr": {"T": {"type": "DT_FLOAT"}}}, {"name": "StatefulPartitionedCall/model_12/stack_0/block_1/se_excite/mul", "op": "Mul", "input": ["StatefulPartitionedCall/model_12/stack_0/block_1/depthwise_activation/mul", "StatefulPartitionedCall/model_12/stack_0/block_1/se_expand_activation/Sigmoid"], "attr": {"T": {"type": "DT_FLOAT"}}}, {"name": "StatefulPartitionedCall/model_12/stack_0/block_1/project_bn/FusedBatchNormV3", "op": "_FusedConv2D", "input": ["StatefulPartitionedCall/model_12/stack_0/block_1/se_excite/mul", "StatefulPartitionedCall/model_12/stack_0/block_1/project_conv2d/Conv2D_weights", "StatefulPartitionedCall/model_12/stack_0/block_1/project_conv2d/Conv2D_bn_offset"], "device": "/device:CPU:0", "attr": {"data_format": {"s": "TkhXQw=="}, "use_cudnn_on_gpu": {"b": true}, "explicit_paddings": {"list": {}}, "fused_ops": {"list": {"s": ["Qmlhc0FkZA=="]}}, "epsilon": {"f": 0.0}, "padding": {"s": "U0FNRQ=="}, "strides": {"list": {"i": ["1", "1", "1", "1"]}}, "dilations": {"list": {"i": ["1", "1", "1", "1"]}}, "T": {"type": "DT_FLOAT"}, "num_args": {"i": "1"}}}, {"name": "StatefulPartitionedCall/model_12/stack_0/block_1/add/add", "op": "AddV2", "input": ["StatefulPartitionedCall/model_12/stack_0/block_0/project_bn/FusedBatchNormV3", "StatefulPartitionedCall/model_12/stack_0/block_1/project_bn/FusedBatchNormV3"], "attr": {"T": {"type": "DT_FLOAT"}}}, {"name": "StatefulPartitionedCall/model_12/stack_0/block_2/depthwise_conv2d/depthwise", "op": "FusedDepthwiseConv2dNative", "input": ["StatefulPartitionedCall/model_12/stack_0/block_1/add/add", "StatefulPartitionedCall/model_12/stack_0/block_2/depthwise_conv2d/depthwise_weights", "StatefulPartitionedCall/model_12/stack_0/block_2/depthwise_conv2d/depthwise_bn_offset"], "attr": {"T": {"type": "DT_FLOAT"}, "padding": {"s": "U0FNRQ=="}, "fused_ops": {"list": {"s": ["Qmlhc0FkZA=="]}}, "dilations": {"list": {"i": ["1", "1", "1", "1"]}}, "strides": {"list": {"i": ["1", "1", "1", "1"]}}, "data_format": {"s": "TkhXQw=="}, "num_args": {"i": "1"}}}, {"name": "StatefulPartitionedCall/model_12/stack_0/block_2/depthwise_activation/Sigmoid", "op": "Sigmoid", "input": ["StatefulPartitionedCall/model_12/stack_0/block_2/depthwise_conv2d/depthwise"], "attr": {"T": {"type": "DT_FLOAT"}}}, {"name": "StatefulPartitionedCall/model_12/stack_0/block_2/depthwise_activation/mul", "op": "Mul", "input": ["StatefulPartitionedCall/model_12/stack_0/block_2/depthwise_activation/Sigmoid", "StatefulPartitionedCall/model_12/stack_0/block_2/depthwise_conv2d/depthwise"], "attr": {"T": {"type": "DT_FLOAT"}}}, {"name": "StatefulPartitionedCall/model_12/stack_0/block_2/se_squeeze/Mean", "op": "Mean", "input": ["StatefulPartitionedCall/model_12/stack_0/block_2/depthwise_activation/mul", "StatefulPartitionedCall/model_12/stack_6/block_2/se_squeeze/Mean/reduction_indices"], "attr": {"keep_dims": {"b": false}, "T": {"type": "DT_FLOAT"}, "Tidx": {"type": "DT_INT32"}}}, {"name": "StatefulPartitionedCall/model_12/stack_0/block_2/se_reshape/Shape", "op": "Shape", "input": ["StatefulPartitionedCall/model_12/stack_0/block_2/se_squeeze/Mean"], "attr": {"T": {"type": "DT_FLOAT"}, "out_type": {"type": "DT_INT32"}}}, {"name": "StatefulPartitionedCall/model_12/stack_0/block_2/se_reshape/strided_slice", "op": "StridedSlice", "input": ["StatefulPartitionedCall/model_12/stack_0/block_2/se_reshape/Shape", "StatefulPartitionedCall/model_12/stack_6/block_2/se_reshape/strided_slice/stack", "StatefulPartitionedCall/model_12/stack_6/block_2/se_reshape/strided_slice/stack_1", "StatefulPartitionedCall/model_12/stack_6/block_2/se_reshape/strided_slice/stack_1"], "attr": {"T": {"type": "DT_INT32"}, "shrink_axis_mask": {"i": "1"}, "new_axis_mask": {"i": "0"}, "ellipsis_mask": {"i": "0"}, "end_mask": {"i": "0"}, "begin_mask": {"i": "0"}, "Index": {"type": "DT_INT32"}}}, {"name": "StatefulPartitionedCall/model_12/stack_0/block_2/se_reshape/Reshape/shape", "op": "Pack", "input": ["StatefulPartitionedCall/model_12/stack_0/block_2/se_reshape/strided_slice", "StatefulPartitionedCall/model_12/stack_6/block_2/se_reshape/Reshape/shape/1", "StatefulPartitionedCall/model_12/stack_6/block_2/se_reshape/Reshape/shape/1", "StatefulPartitionedCall/model_12/stack_0/block_2/se_reshape/Reshape/shape/3"], "attr": {"N": {"i": "4"}, "T": {"type": "DT_INT32"}, "axis": {"i": "0"}}}, {"name": "StatefulPartitionedCall/model_12/stack_0/block_2/se_reshape/Reshape", "op": "Reshape", "input": ["StatefulPartitionedCall/model_12/stack_0/block_2/se_squeeze/Mean", "StatefulPartitionedCall/model_12/stack_0/block_2/se_reshape/Reshape/shape"], "attr": {"Tshape": {"type": "DT_INT32"}, "T": {"type": "DT_FLOAT"}}}, {"name": "StatefulPartitionedCall/model_12/stack_0/block_2/se_reduce_conv2d/BiasAdd", "op": "_FusedConv2D", "input": ["StatefulPartitionedCall/model_12/stack_0/block_2/se_reshape/Reshape", "Func/StatefulPartitionedCall/input/_40", "Func/StatefulPartitionedCall/input/_41"], "device": "/device:CPU:0", "attr": {"padding": {"s": "U0FNRQ=="}, "data_format": {"s": "TkhXQw=="}, "strides": {"list": {"i": ["1", "1", "1", "1"]}}, "dilations": {"list": {"i": ["1", "1", "1", "1"]}}, "T": {"type": "DT_FLOAT"}, "explicit_paddings": {"list": {}}, "use_cudnn_on_gpu": {"b": true}, "fused_ops": {"list": {"s": ["Qmlhc0FkZA=="]}}, "num_args": {"i": "1"}, "epsilon": {"f": 0.0}}}, {"name": "StatefulPartitionedCall/model_12/stack_0/block_2/se_reduce_activation/Sigmoid", "op": "Sigmoid", "input": ["StatefulPartitionedCall/model_12/stack_0/block_2/se_reduce_conv2d/BiasAdd"], "attr": {"T": {"type": "DT_FLOAT"}}}, {"name": "StatefulPartitionedCall/model_12/stack_0/block_2/se_reduce_activation/mul", "op": "Mul", "input": ["StatefulPartitionedCall/model_12/stack_0/block_2/se_reduce_activation/Sigmoid", "StatefulPartitionedCall/model_12/stack_0/block_2/se_reduce_conv2d/BiasAdd"], "attr": {"T": {"type": "DT_FLOAT"}}}, {"name": "StatefulPartitionedCall/model_12/stack_0/block_2/se_expand_conv2d/BiasAdd", "op": "_FusedConv2D", "input": ["StatefulPartitionedCall/model_12/stack_0/block_2/se_reduce_activation/mul", "Func/StatefulPartitionedCall/input/_42", "Func/StatefulPartitionedCall/input/_43"], "device": "/device:CPU:0", "attr": {"T": {"type": "DT_FLOAT"}, "padding": {"s": "U0FNRQ=="}, "epsilon": {"f": 0.0}, "use_cudnn_on_gpu": {"b": true}, "dilations": {"list": {"i": ["1", "1", "1", "1"]}}, "fused_ops": {"list": {"s": ["Qmlhc0FkZA=="]}}, "num_args": {"i": "1"}, "data_format": {"s": "TkhXQw=="}, "explicit_paddings": {"list": {}}, "strides": {"list": {"i": ["1", "1", "1", "1"]}}}}, {"name": "StatefulPartitionedCall/model_12/stack_0/block_2/se_expand_activation/Sigmoid", "op": "Sigmoid", "input": ["StatefulPartitionedCall/model_12/stack_0/block_2/se_expand_conv2d/BiasAdd"], "attr": {"T": {"type": "DT_FLOAT"}}}, {"name": "StatefulPartitionedCall/model_12/stack_0/block_2/se_excite/mul", "op": "Mul", "input": ["StatefulPartitionedCall/model_12/stack_0/block_2/depthwise_activation/mul", "StatefulPartitionedCall/model_12/stack_0/block_2/se_expand_activation/Sigmoid"], "attr": {"T": {"type": "DT_FLOAT"}}}, {"name": "StatefulPartitionedCall/model_12/stack_0/block_2/project_bn/FusedBatchNormV3", "op": "_FusedConv2D", "input": ["StatefulPartitionedCall/model_12/stack_0/block_2/se_excite/mul", "StatefulPartitionedCall/model_12/stack_0/block_2/project_conv2d/Conv2D_weights", "StatefulPartitionedCall/model_12/stack_0/block_2/project_conv2d/Conv2D_bn_offset"], "device": "/device:CPU:0", "attr": {"num_args": {"i": "1"}, "padding": {"s": "U0FNRQ=="}, "use_cudnn_on_gpu": {"b": true}, "fused_ops": {"list": {"s": ["Qmlhc0FkZA=="]}}, "T": {"type": "DT_FLOAT"}, "dilations": {"list": {"i": ["1", "1", "1", "1"]}}, "epsilon": {"f": 0.0}, "data_format": {"s": "TkhXQw=="}, "explicit_paddings": {"list": {}}, "strides": {"list": {"i": ["1", "1", "1", "1"]}}}}, {"name": "StatefulPartitionedCall/model_12/stack_0/block_2/add/add", "op": "AddV2", "input": ["StatefulPartitionedCall/model_12/stack_0/block_1/add/add", "StatefulPartitionedCall/model_12/stack_0/block_2/project_bn/FusedBatchNormV3"], "attr": {"T": {"type": "DT_FLOAT"}}}, {"name": "StatefulPartitionedCall/model_12/stack_1/block_0/expand_bn/FusedBatchNormV3", "op": "_FusedConv2D", "input": ["StatefulPartitionedCall/model_12/stack_0/block_2/add/add", "StatefulPartitionedCall/model_12/stack_1/block_0/expand_conv2d/Conv2D_weights", "StatefulPartitionedCall/model_12/stack_1/block_0/expand_conv2d/Conv2D_bn_offset"], "device": "/device:CPU:0", "attr": {"use_cudnn_on_gpu": {"b": true}, "T": {"type": "DT_FLOAT"}, "data_format": {"s": "TkhXQw=="}, "dilations": {"list": {"i": ["1", "1", "1", "1"]}}, "padding": {"s": "U0FNRQ=="}, "fused_ops": {"list": {"s": ["Qmlhc0FkZA=="]}}, "num_args": {"i": "1"}, "epsilon": {"f": 0.0}, "explicit_paddings": {"list": {}}, "strides": {"list": {"i": ["1", "1", "1", "1"]}}}}, {"name": "StatefulPartitionedCall/model_12/stack_1/block_0/expand_activation/Sigmoid", "op": "Sigmoid", "input": ["StatefulPartitionedCall/model_12/stack_1/block_0/expand_bn/FusedBatchNormV3"], "attr": {"T": {"type": "DT_FLOAT"}}}, {"name": "StatefulPartitionedCall/model_12/stack_1/block_0/expand_activation/mul", "op": "Mul", "input": ["StatefulPartitionedCall/model_12/stack_1/block_0/expand_activation/Sigmoid", "StatefulPartitionedCall/model_12/stack_1/block_0/expand_bn/FusedBatchNormV3"], "attr": {"T": {"type": "DT_FLOAT"}}}, {"name": "StatefulPartitionedCall/model_12/stack_1/block_0/depthwise_conv2d/depthwise", "op": "FusedDepthwiseConv2dNative", "input": ["StatefulPartitionedCall/model_12/stack_1/block_0/expand_activation/mul", "StatefulPartitionedCall/model_12/stack_1/block_0/depthwise_conv2d/depthwise_weights", "StatefulPartitionedCall/model_12/stack_1/block_0/depthwise_conv2d/depthwise_bn_offset"], "attr": {"strides": {"list": {"i": ["1", "2", "2", "1"]}}, "dilations": {"list": {"i": ["1", "1", "1", "1"]}}, "fused_ops": {"list": {"s": ["Qmlhc0FkZA=="]}}, "data_format": {"s": "TkhXQw=="}, "T": {"type": "DT_FLOAT"}, "num_args": {"i": "1"}, "padding": {"s": "U0FNRQ=="}}}, {"name": "StatefulPartitionedCall/model_12/stack_1/block_0/depthwise_activation/Sigmoid", "op": "Sigmoid", "input": ["StatefulPartitionedCall/model_12/stack_1/block_0/depthwise_conv2d/depthwise"], "attr": {"T": {"type": "DT_FLOAT"}}}, {"name": "StatefulPartitionedCall/model_12/stack_1/block_0/depthwise_activation/mul", "op": "Mul", "input": ["StatefulPartitionedCall/model_12/stack_1/block_0/depthwise_activation/Sigmoid", "StatefulPartitionedCall/model_12/stack_1/block_0/depthwise_conv2d/depthwise"], "attr": {"T": {"type": "DT_FLOAT"}}}, {"name": "StatefulPartitionedCall/model_12/stack_1/block_0/se_squeeze/Mean", "op": "Mean", "input": ["StatefulPartitionedCall/model_12/stack_1/block_0/depthwise_activation/mul", "StatefulPartitionedCall/model_12/stack_6/block_2/se_squeeze/Mean/reduction_indices"], "attr": {"Tidx": {"type": "DT_INT32"}, "T": {"type": "DT_FLOAT"}, "keep_dims": {"b": false}}}, {"name": "StatefulPartitionedCall/model_12/stack_1/block_0/se_reshape/Shape", "op": "Shape", "input": ["StatefulPartitionedCall/model_12/stack_1/block_0/se_squeeze/Mean"], "attr": {"T": {"type": "DT_FLOAT"}, "out_type": {"type": "DT_INT32"}}}, {"name": "StatefulPartitionedCall/model_12/stack_1/block_0/se_reshape/strided_slice", "op": "StridedSlice", "input": ["StatefulPartitionedCall/model_12/stack_1/block_0/se_reshape/Shape", "StatefulPartitionedCall/model_12/stack_6/block_2/se_reshape/strided_slice/stack", "StatefulPartitionedCall/model_12/stack_6/block_2/se_reshape/strided_slice/stack_1", "StatefulPartitionedCall/model_12/stack_6/block_2/se_reshape/strided_slice/stack_1"], "attr": {"end_mask": {"i": "0"}, "ellipsis_mask": {"i": "0"}, "new_axis_mask": {"i": "0"}, "Index": {"type": "DT_INT32"}, "begin_mask": {"i": "0"}, "shrink_axis_mask": {"i": "1"}, "T": {"type": "DT_INT32"}}}, {"name": "StatefulPartitionedCall/model_12/stack_1/block_0/se_reshape/Reshape/shape", "op": "Pack", "input": ["StatefulPartitionedCall/model_12/stack_1/block_0/se_reshape/strided_slice", "StatefulPartitionedCall/model_12/stack_6/block_2/se_reshape/Reshape/shape/1", "StatefulPartitionedCall/model_12/stack_6/block_2/se_reshape/Reshape/shape/1", "StatefulPartitionedCall/model_12/stack_1/block_0/se_reshape/Reshape/shape/3"], "attr": {"N": {"i": "4"}, "axis": {"i": "0"}, "T": {"type": "DT_INT32"}}}, {"name": "StatefulPartitionedCall/model_12/stack_1/block_0/se_reshape/Reshape", "op": "Reshape", "input": ["StatefulPartitionedCall/model_12/stack_1/block_0/se_squeeze/Mean", "StatefulPartitionedCall/model_12/stack_1/block_0/se_reshape/Reshape/shape"], "attr": {"Tshape": {"type": "DT_INT32"}, "T": {"type": "DT_FLOAT"}}}, {"name": "StatefulPartitionedCall/model_12/stack_1/block_0/se_reduce_conv2d/BiasAdd", "op": "_FusedConv2D", "input": ["StatefulPartitionedCall/model_12/stack_1/block_0/se_reshape/Reshape", "Func/StatefulPartitionedCall/input/_59", "Func/StatefulPartitionedCall/input/_60"], "device": "/device:CPU:0", "attr": {"use_cudnn_on_gpu": {"b": true}, "strides": {"list": {"i": ["1", "1", "1", "1"]}}, "dilations": {"list": {"i": ["1", "1", "1", "1"]}}, "data_format": {"s": "TkhXQw=="}, "T": {"type": "DT_FLOAT"}, "epsilon": {"f": 0.0}, "padding": {"s": "U0FNRQ=="}, "fused_ops": {"list": {"s": ["Qmlhc0FkZA=="]}}, "explicit_paddings": {"list": {}}, "num_args": {"i": "1"}}}, {"name": "StatefulPartitionedCall/model_12/stack_1/block_0/se_reduce_activation/Sigmoid", "op": "Sigmoid", "input": ["StatefulPartitionedCall/model_12/stack_1/block_0/se_reduce_conv2d/BiasAdd"], "attr": {"T": {"type": "DT_FLOAT"}}}, {"name": "StatefulPartitionedCall/model_12/stack_1/block_0/se_reduce_activation/mul", "op": "Mul", "input": ["StatefulPartitionedCall/model_12/stack_1/block_0/se_reduce_activation/Sigmoid", "StatefulPartitionedCall/model_12/stack_1/block_0/se_reduce_conv2d/BiasAdd"], "attr": {"T": {"type": "DT_FLOAT"}}}, {"name": "StatefulPartitionedCall/model_12/stack_1/block_0/se_expand_conv2d/BiasAdd", "op": "_FusedConv2D", "input": ["StatefulPartitionedCall/model_12/stack_1/block_0/se_reduce_activation/mul", "Func/StatefulPartitionedCall/input/_61", "Func/StatefulPartitionedCall/input/_62"], "device": "/device:CPU:0", "attr": {"num_args": {"i": "1"}, "use_cudnn_on_gpu": {"b": true}, "explicit_paddings": {"list": {}}, "dilations": {"list": {"i": ["1", "1", "1", "1"]}}, "data_format": {"s": "TkhXQw=="}, "strides": {"list": {"i": ["1", "1", "1", "1"]}}, "T": {"type": "DT_FLOAT"}, "padding": {"s": "U0FNRQ=="}, "epsilon": {"f": 0.0}, "fused_ops": {"list": {"s": ["Qmlhc0FkZA=="]}}}}, {"name": "StatefulPartitionedCall/model_12/stack_1/block_0/se_expand_activation/Sigmoid", "op": "Sigmoid", "input": ["StatefulPartitionedCall/model_12/stack_1/block_0/se_expand_conv2d/BiasAdd"], "attr": {"T": {"type": "DT_FLOAT"}}}, {"name": "StatefulPartitionedCall/model_12/stack_1/block_0/se_excite/mul", "op": "Mul", "input": ["StatefulPartitionedCall/model_12/stack_1/block_0/depthwise_activation/mul", "StatefulPartitionedCall/model_12/stack_1/block_0/se_expand_activation/Sigmoid"], "attr": {"T": {"type": "DT_FLOAT"}}}, {"name": "StatefulPartitionedCall/model_12/stack_1/block_0/project_bn/FusedBatchNormV3", "op": "_FusedConv2D", "input": ["StatefulPartitionedCall/model_12/stack_1/block_0/se_excite/mul", "StatefulPartitionedCall/model_12/stack_1/block_0/project_conv2d/Conv2D_weights", "StatefulPartitionedCall/model_12/stack_1/block_0/project_conv2d/Conv2D_bn_offset"], "device": "/device:CPU:0", "attr": {"T": {"type": "DT_FLOAT"}, "dilations": {"list": {"i": ["1", "1", "1", "1"]}}, "strides": {"list": {"i": ["1", "1", "1", "1"]}}, "padding": {"s": "U0FNRQ=="}, "data_format": {"s": "TkhXQw=="}, "use_cudnn_on_gpu": {"b": true}, "epsilon": {"f": 0.0}, "explicit_paddings": {"list": {}}, "fused_ops": {"list": {"s": ["Qmlhc0FkZA=="]}}, "num_args": {"i": "1"}}}, {"name": "StatefulPartitionedCall/model_12/stack_1/block_1/expand_bn/FusedBatchNormV3", "op": "_FusedConv2D", "input": ["StatefulPartitionedC…
e": "float32"}, {"name": "StatefulPartitionedCall/model_12/stack_1/block_3/project_conv2d/Conv2D_weights", "shape": [1, 1, 240, 40], "dtype": "float32"}, {"name": "StatefulPartitionedCall/model_12/stack_1/block_3/project_conv2d/Conv2D_bn_offset", "shape": [40], "dtype": "float32"}, {"name": "StatefulPartitionedCall/model_12/stack_1/block_4/expand_conv2d/Conv2D_weights", "shape": [1, 1, 40, 240], "dtype": "float32"}, {"name": "StatefulPartitionedCall/model_12/stack_5/block_9/depthwise_conv2d/depthwise_weights", "shape": [5, 5, 2064, 1], "dtype": "float32"}, {"name": "StatefulPartitionedCall/model_12/stack_1/block_4/expand_conv2d/Conv2D_bn_offset", "shape": [240], "dtype": "float32"}, {"name": "StatefulPartitionedCall/model_12/stack_1/block_4/depthwise_conv2d/depthwise_weights", "shape": [3, 3, 240, 1], "dtype": "float32"}, {"name": "StatefulPartitionedCall/model_12/stack_1/block_4/depthwise_conv2d/depthwise_bn_offset", "shape": [240], "dtype": "float32"}, {"name": "StatefulPartitionedCall/model_12/stack_5/block_9/depthwise_conv2d/depthwise_bn_offset", "shape": [2064], "dtype": "float32"}, {"name": "StatefulPartitionedCall/model_12/stack_1/block_4/project_conv2d/Conv2D_weights", "shape": [1, 1, 240, 40], "dtype": "float32"}, {"name": "StatefulPartitionedCall/model_12/stack_1/block_4/project_conv2d/Conv2D_bn_offset", "shape": [40], "dtype": "float32"}, {"name": "StatefulPartitionedCall/model_12/stack_1/block_5/expand_conv2d/Conv2D_weights", "shape": [1, 1, 40, 240], "dtype": "float32"}, {"name": "StatefulPartitionedCall/model_12/stack_1/block_5/expand_conv2d/Conv2D_bn_offset", "shape": [240], "dtype": "float32"}, {"name": "StatefulPartitionedCall/model_12/stack_1/block_5/depthwise_conv2d/depthwise_weights", "shape": [3, 3, 240, 1], "dtype": "float32"}, {"name": "StatefulPartitionedCall/model_12/stack_1/block_5/depthwise_conv2d/depthwise_bn_offset", "shape": [240], "dtype": "float32"}, {"name": "StatefulPartitionedCall/model_12/stack_1/block_5/project_conv2d/Conv2D_weights", "shape": [1, 1, 240, 40], "dtype": "float32"}, {"name": "StatefulPartitionedCall/model_12/stack_1/block_5/project_conv2d/Conv2D_bn_offset", "shape": [40], "dtype": "float32"}, {"name": "StatefulPartitionedCall/model_12/stack_2/block_0/expand_conv2d/Conv2D_weights", "shape": [1, 1, 40, 240], "dtype": "float32"}, {"name": "StatefulPartitionedCall/model_12/stack_2/block_0/expand_conv2d/Conv2D_bn_offset", "shape": [240], "dtype": "float32"}, {"name": "StatefulPartitionedCall/model_12/stack_2/block_0/depthwise_conv2d/depthwise_weights", "shape": [5, 5, 240, 1], "dtype": "float32"}, {"name": "StatefulPartitionedCall/model_12/stack_2/block_0/depthwise_conv2d/depthwise_bn_offset", "shape": [240], "dtype": "float32"}, {"name": "StatefulPartitionedCall/model_12/stack_2/block_0/project_conv2d/Conv2D_weights", "shape": [1, 1, 240, 72], "dtype": "float32"}, {"name": "StatefulPartitionedCall/model_12/stack_2/block_0/project_conv2d/Conv2D_bn_offset", "shape": [72], "dtype": "float32"}, {"name": "StatefulPartitionedCall/model_12/stack_2/block_1/expand_conv2d/Conv2D_weights", "shape": [1, 1, 72, 432], "dtype": "float32"}, {"name": "StatefulPartitionedCall/model_12/stack_2/block_1/expand_conv2d/Conv2D_bn_offset", "shape": [432], "dtype": "float32"}, {"name": "StatefulPartitionedCall/model_12/stack_2/block_1/depthwise_conv2d/depthwise_weights", "shape": [5, 5, 432, 1], "dtype": "float32"}, {"name": "StatefulPartitionedCall/model_12/stack_2/block_1/depthwise_conv2d/depthwise_bn_offset", "shape": [432], "dtype": "float32"}, {"name": "StatefulPartitionedCall/model_12/stack_2/block_1/project_conv2d/Conv2D_weights", "shape": [1, 1, 432, 72], "dtype": "float32"}, {"name": "StatefulPartitionedCall/model_12/stack_2/block_1/project_conv2d/Conv2D_bn_offset", "shape": [72], "dtype": "float32"}, {"name": "StatefulPartitionedCall/model_12/stack_2/block_2/expand_conv2d/Conv2D_weights", "shape": [1, 1, 72, 432], "dtype": "float32"}, {"name": "StatefulPartitionedCall/model_12/stack_2/block_2/expand_conv2d/Conv2D_bn_offset", "shape": [432], "dtype": "float32"}, {"name": "StatefulPartitionedCall/model_12/stack_2/block_2/depthwise_conv2d/depthwise_weights", "shape": [5, 5, 432, 1], "dtype": "float32"}, {"name": "StatefulPartitionedCall/model_12/stack_2/block_2/depthwise_conv2d/depthwise_bn_offset", "shape": [432], "dtype": "float32"}, {"name": "StatefulPartitionedCall/model_12/stack_2/block_2/project_conv2d/Conv2D_weights", "shape": [1, 1, 432, 72], "dtype": "float32"}, {"name": "StatefulPartitionedCall/model_12/stack_5/block_9/project_conv2d/Conv2D_weights", "shape": [1, 1, 2064, 344], "dtype": "float32"}, {"name": "StatefulPartitionedCall/model_12/stack_2/block_2/project_conv2d/Conv2D_bn_offset", "shape": [72], "dtype": "float32"}, {"name": "StatefulPartitionedCall/model_12/stack_2/block_3/expand_conv2d/Conv2D_weights", "shape": [1, 1, 72, 432], "dtype": "float32"}, {"name": "StatefulPartitionedCall/model_12/stack_2/block_3/expand_conv2d/Conv2D_bn_offset", "shape": [432], "dtype": "float32"}, {"name": "StatefulPartitionedCall/model_12/stack_2/block_3/depthwise_conv2d/depthwise_weights", "shape": [5, 5, 432, 1], "dtype": "float32"}, {"name": "StatefulPartitionedCall/model_12/stack_2/block_3/depthwise_conv2d/depthwise_bn_offset", "shape": [432], "dtype": "float32"}, {"name": "StatefulPartitionedCall/model_12/stack_5/block_9/project_conv2d/Conv2D_bn_offset", "shape": [344], "dtype": "float32"}, {"name": "StatefulPartitionedCall/model_12/stack_2/block_3/project_conv2d/Conv2D_weights", "shape": [1, 1, 432, 72], "dtype": "float32"}, {"name": "StatefulPartitionedCall/model_12/stack_2/block_3/project_conv2d/Conv2D_bn_offset", "shape": [72], "dtype": "float32"}, {"name": "StatefulPartitionedCall/model_12/stack_2/block_4/expand_conv2d/Conv2D_weights", "shape": [1, 1, 72, 432], "dtype": "float32"}, {"name": "StatefulPartitionedCall/model_12/stack_5/block_10/expand_conv2d/Conv2D_weights", "shape": [1, 1, 344, 2064], "dtype": "float32"}, {"name": "StatefulPartitionedCall/model_12/stack_2/block_4/expand_conv2d/Conv2D_bn_offset", "shape": [432], "dtype": "float32"}, {"name": "StatefulPartitionedCall/model_12/stack_2/block_4/depthwise_conv2d/depthwise_weights", "shape": [5, 5, 432, 1], "dtype": "float32"}, {"name": "StatefulPartitionedCall/model_12/stack_2/block_4/depthwise_conv2d/depthwise_bn_offset", "shape": [432], "dtype": "float32"}, {"name": "StatefulPartitionedCall/model_12/stack_5/block_10/expand_conv2d/Conv2D_bn_offset", "shape": [2064], "dtype": "float32"}, {"name": "StatefulPartitionedCall/model_12/stack_2/block_4/project_conv2d/Conv2D_weights", "shape": [1, 1, 432, 72], "dtype": "float32"}, {"name": "StatefulPartitionedCall/model_12/stack_2/block_4/project_conv2d/Conv2D_bn_offset", "shape": [72], "dtype": "float32"}, {"name": "StatefulPartitionedCall/model_12/stack_2/block_5/expand_conv2d/Conv2D_weights", "shape": [1, 1, 72, 432], "dtype": "float32"}, {"name": "StatefulPartitionedCall/model_12/stack_2/block_5/expand_conv2d/Conv2D_bn_offset", "shape": [432], "dtype": "float32"}, {"name": "StatefulPartitionedCall/model_12/stack_2/block_5/depthwise_conv2d/depthwise_weights", "shape": [5, 5, 432, 1], "dtype": "float32"}, {"name": "StatefulPartitionedCall/model_12/stack_2/block_5/depthwise_conv2d/depthwise_bn_offset", "shape": [432], "dtype": "float32"}, {"name": "StatefulPartitionedCall/model_12/stack_5/block_10/depthwise_conv2d/depthwise_weights", "shape": [5, 5, 2064, 1], "dtype": "float32"}, {"name": "StatefulPartitionedCall/model_12/stack_2/block_5/project_conv2d/Conv2D_weights", "shape": [1, 1, 432, 72], "dtype": "float32"}, {"name": "StatefulPartitionedCall/model_12/stack_2/block_5/project_conv2d/Conv2D_bn_offset", "shape": [72], "dtype": "float32"}, {"name": "StatefulPartitionedCall/model_12/stack_3/block_0/expand_conv2d/Conv2D_weights", "shape": [1, 1, 72, 432], "dtype": "float32"}, {"name": "StatefulPartitionedCall/model_12/stack_5/block_10/depthwise_conv2d/depthwise_bn_offset", "shape": [2064], "dtype": "float32"}, {"name": "StatefulPartitionedCall/model_12/stack_3/block_0/expand_conv2d/Conv2D_bn_offset", "shape": [432], "dtype": "float32"}, {"name": "StatefulPartitionedCall/model_12/stack_3/block_0/depthwise_conv2d/depthwise_weights", "shape": [3, 3, 432, 1], "dtype": "float32"}, {"name": "StatefulPartitionedCall/model_12/stack_3/block_0/depthwise_conv2d/depthwise_bn_offset", "shape": [432], "dtype": "float32"}, {"name": "StatefulPartitionedCall/model_12/stack_3/block_0/project_conv2d/Conv2D_weights", "shape": [1, 1, 432, 144], "dtype": "float32"}, {"name": "StatefulPartitionedCall/model_12/stack_3/block_0/project_conv2d/Conv2D_bn_offset", "shape": [144], "dtype": "float32"}, {"name": "StatefulPartitionedCall/model_12/stack_3/block_1/expand_conv2d/Conv2D_weights", "shape": [1, 1, 144, 864], "dtype": "float32"}, {"name": "StatefulPartitionedCall/model_12/stack_3/block_1/expand_conv2d/Conv2D_bn_offset", "shape": [864], "dtype": "float32"}, {"name": "StatefulPartitionedCall/model_12/stack_3/block_1/depthwise_conv2d/depthwise_weights", "shape": [3, 3, 864, 1], "dtype": "float32"}, {"name": "StatefulPartitionedCall/model_12/stack_3/block_1/depthwise_conv2d/depthwise_bn_offset", "shape": [864], "dtype": "float32"}, {"name": "StatefulPartitionedCall/model_12/stack_3/block_1/project_conv2d/Conv2D_weights", "shape": [1, 1, 864, 144], "dtype": "float32"}, {"name": "StatefulPartitionedCall/model_12/stack_3/block_1/project_conv2d/Conv2D_bn_offset", "shape": [144], "dtype": "float32"}, {"name": "StatefulPartitionedCall/model_12/stack_3/block_2/expand_conv2d/Conv2D_weights", "shape": [1, 1, 144, 864], "dtype": "float32"}, {"name": "StatefulPartitionedCall/model_12/stack_3/block_2/expand_conv2d/Conv2D_bn_offset", "shape": [864], "dtype": "float32"}, {"name": "StatefulPartitionedCall/model_12/stack_3/block_2/depthwise_conv2d/depthwise_weights", "shape": [3, 3, 864, 1], "dtype": "float32"}, {"name": "StatefulPartitionedCall/model_12/stack_3/block_2/depthwise_conv2d/depthwise_bn_offset", "shape": [864], "dtype": "float32"}, {"name": "StatefulPartitionedCall/model_12/stack_3/block_2/project_conv2d/Conv2D_weights", "shape": [1, 1, 864, 144], "dtype": "float32"}, {"name": "StatefulPartitionedCall/model_12/stack_3/block_2/project_conv2d/Conv2D_bn_offset", "shape": [144], "dtype": "float32"}, {"name": "StatefulPartitionedCall/model_12/stack_3/block_3/expand_conv2d/Conv2D_weights", "shape": [1, 1, 144, 864], "dtype": "float32"}, {"name": "StatefulPartitionedCall/model_12/stack_3/block_3/expand_conv2d/Conv2D_bn_offset", "shape": [864], "dtype": "float32"}, {"name": "StatefulPartitionedCall/model_12/stack_3/block_3/depthwise_conv2d/depthwise_weights", "shape": [3, 3, 864, 1], "dtype": "float32"}, {"name": "StatefulPartitionedCall/model_12/stack_3/block_3/depthwise_conv2d/depthwise_bn_offset", "shape": [864], "dtype": "float32"}, {"name": "StatefulPartitionedCall/model_12/stack_6/block_2/project_conv2d/Conv2D_weights", "shape": [1, 1, 3456, 576], "dtype": "float32"}, {"name": "StatefulPartitionedCall/model_12/stack_3/block_3/project_conv2d/Conv2D_weights", "shape": [1, 1, 864, 144], "dtype": "float32"}, {"name": "StatefulPartitionedCall/model_12/stack_3/block_3/project_conv2d/Conv2D_bn_offset", "shape": [144], "dtype": "float32"}, {"name": "StatefulPartitionedCall/model_12/stack_3/block_4/expand_conv2d/Conv2D_weights", "shape": [1, 1, 144, 864], "dtype": "float32"}, {"name": "StatefulPartitionedCall/model_12/stack_3/block_4/expand_conv2d/Conv2D_bn_offset", "shape": [864], "dtype": "float32"}, {"name": "StatefulPartitionedCall/model_12/stack_3/block_4/depthwise_conv2d/depthwise_weights", "shape": [3, 3, 864, 1], "dtype": "float32"}, {"name": "StatefulPartitionedCall/model_12/stack_3/block_4/depthwise_conv2d/depthwise_bn_offset", "shape": [864], "dtype": "float32"}, {"name": "StatefulPartitionedCall/model_12/stack_5/block_10/project_conv2d/Conv2D_weights", "shape": [1, 1, 2064, 344], "dtype": "float32"}, {"name": "StatefulPartitionedCall/model_12/stack_3/block_4/project_conv2d/Conv2D_weights", "shape": [1, 1, 864, 144], "dtype": "float32"}, {"name": "StatefulPartitionedCall/model_12/stack_5/block_10/project_conv2d/Conv2D_bn_offset", "shape": [344], "dtype": "float32"}, {"name": "StatefulPartitionedCall/model_12/stack_3/block_4/project_conv2d/Conv2D_bn_offset", "shape": [144], "dtype": "float32"}, {"name": "StatefulPartitionedCall/model_12/stack_3/block_5/expand_conv2d/Conv2D_weights", "shape": [1, 1, 144, 864], "dtype": "float32"}, {"name": "StatefulPartitionedCall/model_12/stack_3/block_5/expand_conv2d/Conv2D_bn_offset", "shape": [864], "dtype": "float32"}, {"name": "StatefulPartitionedCall/model_12/stack_3/block_5/depthwise_conv2d/depthwise_weights", "shape": [3, 3, 864, 1], "dtype": "float32"}, {"name": "StatefulPartitionedCall/model_12/stack_3/block_5/depthwise_conv2d/depthwise_bn_offset", "shape": [864], "dtype": "float32"}, {"name": "StatefulPartitionedCall/model_12/stack_6/block_0/expand_conv2d/Conv2D_weights", "shape": [1, 1, 344, 2064], "dtype": "float32"}, {"name": "StatefulPartitionedCall/model_12/stack_3/block_5/project_conv2d/Conv2D_weights", "shape": [1, 1, 864, 144], "dtype": "float32"}, {"name": "StatefulPartitionedCall/model_12/stack_6/block_2/project_conv2d/Conv2D_bn_offset", "shape": [576], "dtype": "float32"}, {"name": "StatefulPartitionedCall/model_12/stack_3/block_5/project_conv2d/Conv2D_bn_offset", "shape": [144], "dtype": "float32"}, {"name": "StatefulPartitionedCall/model_12/stack_3/block_6/expand_conv2d/Conv2D_weights", "shape": [1, 1, 144, 864], "dtype": "float32"}, {"name": "StatefulPartitionedCall/model_12/stack_6/block_0/expand_conv2d/Conv2D_bn_offset", "shape": [2064], "dtype": "float32"}, {"name": "StatefulPartitionedCall/model_12/stack_3/block_6/expand_conv2d/Conv2D_bn_offset", "shape": [864], "dtype": "float32"}, {"name": "StatefulPartitionedCall/model_12/stack_3/block_6/depthwise_conv2d/depthwise_weights", "shape": [3, 3, 864, 1], "dtype": "float32"}, {"name": "StatefulPartitionedCall/model_12/stack_3/block_6/depthwise_conv2d/depthwise_bn_offset", "shape": [864], "dtype": "float32"}, {"name": "StatefulPartitionedCall/model_12/stack_3/block_6/project_conv2d/Conv2D_weights", "shape": [1, 1, 864, 144], "dtype": "float32"}, {"name": "StatefulPartitionedCall/model_12/stack_3/block_6/project_conv2d/Conv2D_bn_offset", "shape": [144], "dtype": "float32"}, {"name": "StatefulPartitionedCall/model_12/stack_3/block_7/expand_conv2d/Conv2D_weights", "shape": [1, 1, 144, 864], "dtype": "float32"}, {"name": "StatefulPartitionedCall/model_12/stack_6/block_0/depthwise_conv2d/depthwise_weights", "shape": [3, 3, 2064, 1], "dtype": "float32"}, {"name": "StatefulPartitionedCall/model_12/stack_3/block_7/expand_conv2d/Conv2D_bn_offset", "shape": [864], "dtype": "float32"}, {"name": "StatefulPartitionedCall/model_12/stack_3/block_7/depthwise_conv2d/depthwise_weights", "shape": [3, 3, 864, 1], "dtype": "float32"}, {"name": "StatefulPartitionedCall/model_12/stack_3/block_7/depthwise_conv2d/depthwise_bn_offset", "shape": [864], "dtype": "float32"}, {"name": "StatefulPartitionedCall/model_12/stack_6/block_0/depthwise_conv2d/depthwise_bn_offset", "shape": [2064], "dtype": "float32"}, {"name": "StatefulPartitionedCall/model_12/stack_3/block_7/project_conv2d/Conv2D_weights", "shape": [1, 1, 864, 144], "dtype": "float32"}, {"name": "StatefulPartitionedCall/model_12/stack_3/block_7/project_conv2d/Conv2D_bn_offset", "shape": [144], "dtype": "float32"}, {"name": "StatefulPartitionedCall/model_12/stack_4/block_0/expand_conv2d/Conv2D_weights", "shape": [1, 1, 144, 864], "dtype": "float32"}, {"name": "StatefulPartitionedCall/model_12/stack_4/block_0/expand_conv2d/Conv2D_bn_offset", "shape": [864], "dtype": "float32"}, {"name": "StatefulPartitionedCall/model_12/stack_4/block_0/depthwise_conv2d/depthwise_weights", "shape": [5, 5, 864, 1], "dtype": "float32"}, {"name": "StatefulPartitionedCall/model_12/stack_4/block_0/depthwise_conv2d/depthwise_bn_offset", "shape": [864], "dtype": "float32"}, {"name": "StatefulPartitionedCall/model_12/stack_4/block_0/project_conv2d/Conv2D_weights", "shape": [1, 1, 864, 200], "dtype": "float32"}, {"name": "StatefulPartitionedCall/model_12/stack_4/block_0/project_conv2d/Conv2D_bn_offset", "shape": [200], "dtype": "float32"}, {"name": "StatefulPartitionedCall/model_12/stack_4/block_1/expand_conv2d/Conv2D_weights", "shape": [1, 1, 200, 1200], "dtype": "float32"}, {"name": "StatefulPartitionedCall/model_12/stack_4/block_1/expand_conv2d/Conv2D_bn_offset", "shape": [1200], "dtype": "float32"}, {"name": "StatefulPartitionedCall/model_12/stack_4/block_1/depthwise_conv2d/depthwise_weights", "shape": [5, 5, 1200, 1], "dtype": "float32"}, {"name": "StatefulPartitionedCall/model_12/stack_4/block_1/depthwise_conv2d/depthwise_bn_offset", "shape": [1200], "dtype": "float32"}, {"name": "StatefulPartitionedCall/model_12/stack_4/block_1/project_conv2d/Conv2D_weights", "shape": [1, 1, 1200, 200], "dtype": "float32"}, {"name": "StatefulPartitionedCall/model_12/stack_4/block_1/project_conv2d/Conv2D_bn_offset", "shape": [200], "dtype": "float32"}, {"name": "StatefulPartitionedCall/model_12/stack_4/block_2/expand_conv2d/Conv2D_weights", "shape": [1, 1, 200, 1200], "dtype": "float32"}, {"name": "StatefulPartitionedCall/model_12/stack_4/block_2/expand_conv2d/Conv2D_bn_offset", "shape": [1200], "dtype": "float32"}, {"name": "StatefulPartitionedCall/model_12/stack_4/block_2/depthwise_conv2d/depthwise_weights", "shape": [5, 5, 1200, 1], "dtype": "float32"}, {"name": "StatefulPartitionedCall/model_12/stack_4/block_2/depthwise_conv2d/depthwise_bn_offset", "shape": [1200], "dtype": "float32"}, {"name": "StatefulPartitionedCall/model_12/stack_4/block_2/project_conv2d/Conv2D_weights", "shape": [1, 1, 1200, 200], "dtype": "float32"}, {"name": "StatefulPartitionedCall/model_12/stack_4/block_2/project_conv2d/Conv2D_bn_offset", "shape": [200], "dtype": "float32"}, {"name": "StatefulPartitionedCall/model_12/stack_4/block_3/expand_conv2d/Conv2D_weights", "shape": [1, 1, 200, 1200], "dtype": "float32"}, {"name": "StatefulPartitionedCall/model_12/stack_4/block_3/expand_conv2d/Conv2D_bn_offset", "shape": [1200], "dtype": "float32"}, {"name": "StatefulPartitionedCall/model_12/stack_4/block_3/depthwise_conv2d/depthwise_weights", "shape": [5, 5, 1200, 1], "dtype": "float32"}, {"name": "StatefulPartitionedCall/model_12/stack_4/block_3/depthwise_conv2d/depthwise_bn_offset", "shape": [1200], "dtype": "float32"}, {"name": "StatefulPartitionedCall/model_12/stack_4/block_3/project_conv2d/Conv2D_weights", "shape": [1, 1, 1200, 200], "dtype": "float32"}, {"name": "StatefulPartitionedCall/model_12/stack_6/block_0/project_conv2d/Conv2D_weights", "shape": [1, 1, 2064, 576], "dtype": "float32"}, {"name": "StatefulPartitionedCall/model_12/stack_4/block_3/project_conv2d/Conv2D_bn_offset", "shape": [200], "dtype": "float32"}, {"name": "StatefulPartitionedCall/model_12/stack_4/block_4/expand_conv2d/Conv2D_weights", "shape": [1, 1, 200, 1200], "dtype": "float32"}, {"name": "StatefulPartitionedCall/model_12/top_conv2d/Conv2D_weights", "shape": [1, 1, 576, 2304], "dtype": "float32"}, {"name": "StatefulPartitionedCall/model_12/stack_4/block_4/expand_conv2d/Conv2D_bn_offset", "shape": [1200], "dtype": "float32"}, {"name": "StatefulPartitionedCall/model_12/stack_4/block_4/depthwise_conv2d/depthwise_weights", "shape": [5, 5, 1200, 1], "dtype": "float32"}, {"name": "StatefulPartitionedCall/model_12/stack_4/block_4/depthwise_conv2d/depthwise_bn_offset", "shape": [1200], "dtype": "float32"}, {"name": "StatefulPartitionedCall/model_12/stack_6/block_0/project_conv2d/Conv2D_bn_offset", "shape": [576], "dtype": "float32"}, {"name": "StatefulPartitionedCall/model_12/stack_4/block_4/project_conv2d/Conv2D_weights", "shape": [1, 1, 1200, 200], "dtype": "float32"}, {"name": "StatefulPartitionedCall/model_12/stack_6/block_1/expand_conv2d/Conv2D_weights", "shape": [1, 1, 576, 3456], "dtype": "float32"}, {"name": "StatefulPartitionedCall/model_12/stack_4/block_4/project_conv2d/Conv2D_bn_offset", "shape": [200], "dtype": "float32"}, {"name": "StatefulPartitionedCall/model_12/stack_4/block_5/expand_conv2d/Conv2D_weights", "shape": [1, 1, 200, 1200], "dtype": "float32"}, {"name": "StatefulPartitionedCall/model_12/stack_4/block_5/expand_conv2d/Conv2D_bn_offset", "shape": [1200], "dtype": "float32"}, {"name": "StatefulPartitionedCall/model_12/stack_4/block_5/depthwise_conv2d/depthwise_weights", "shape": [5, 5, 1200, 1], "dtype": "float32"}, {"name": "StatefulPartitionedCall/model_12/stack_4/block_5/depthwise_conv2d/depthwise_bn_offset", "shape": [1200], "dtype": "float32"}, {"name": "StatefulPartitionedCall/model_12/stack_6/block_1/expand_conv2d/Conv2D_bn_offset", "shape": [3456], "dtype": "float32"}, {"name": "StatefulPartitionedCall/model_12/stack_4/block_5/project_conv2d/Conv2D_weights", "shape": [1, 1, 1200, 200], "dtype": "float32"}, {"name": "StatefulPartitionedCall/model_12/stack_4/block_5/project_conv2d/Conv2D_bn_offset", "shape": [200], "dtype": "float32"}, {"name": "StatefulPartitionedCall/model_12/stack_4/block_6/expand_conv2d/Conv2D_weights", "shape": [1, 1, 200, 1200], "dtype": "float32"}, {"name": "StatefulPartitionedCall/model_12/stack_4/block_6/expand_conv2d/Conv2D_bn_offset", "shape": [1200], "dtype": "float32"}, {"name": "StatefulPartitionedCall/model_12/stack_4/block_6/depthwise_conv2d/depthwise_weights", "shape": [5, 5, 1200, 1], "dtype": "float32"}, {"name": "StatefulPartitionedCall/model_12/stack_4/block_6/depthwise_conv2d/depthwise_bn_offset", "shape": [1200], "dtype": "float32"}, {"name": "StatefulPartitionedCall/model_12/stack_6/block_1/depthwise_conv2d/depthwise_weights", "shape": [3, 3, 3456, 1], "dtype": "float32"}, {"name": "StatefulPartitionedCall/model_12/stack_4/block_6/project_conv2d/Conv2D_weights", "shape": [1, 1, 1200, 200], "dtype": "float32"}, {"name": "StatefulPartitionedCall/model_12/stack_6/block_1/depthwise_conv2d/depthwise_bn_offset", "shape": [3456], "dtype": "float32"}, {"name": "StatefulPartitionedCall/model_12/stack_4/block_6/project_conv2d/Conv2D_bn_offset", "shape": [200], "dtype": "float32"}, {"name": "StatefulPartitionedCall/model_12/stack_4/block_7/expand_conv2d/Conv2D_weights", "shape": [1, 1, 200, 1200], "dtype": "float32"}, {"name": "StatefulPartitionedCall/model_12/stack_4/block_7/expand_conv2d/Conv2D_bn_offset", "shape": [1200], "dtype": "float32"}, {"name": "StatefulPartitionedCall/model_12/stack_4/block_7/depthwise_conv2d/depthwise_weights", "shape": [5, 5, 1200, 1], "dtype": "float32"}, {"name": "StatefulPartitionedCall/model_12/stack_4/block_7/depthwise_conv2d/depthwise_bn_offset", "shape": [1200], "dtype": "float32"}, {"name": "StatefulPartitionedCall/model_12/stack_4/block_7/project_conv2d/Conv2D_weights", "shape": [1, 1, 1200, 200], "dtype": "float32"}, {"name": "StatefulPartitionedCall/model_12/stack_4/block_7/project_conv2d/Conv2D_bn_offset", "shape": [200], "dtype": "float32"}, {"name": "StatefulPartitionedCall/model_12/stack_5/block_0/expand_conv2d/Conv2D_weights", "shape": [1, 1, 200, 1200], "dtype": "float32"}, {"name": "StatefulPartitionedCall/model_12/stack_5/block_0/expand_conv2d/Conv2D_bn_offset", "shape": [1200], "dtype": "float32"}, {"name": "StatefulPartitionedCall/model_12/stack_5/block_0/depthwise_conv2d/depthwise_weights", "shape": [5, 5, 1200, 1], "dtype": "float32"}, {"name": "StatefulPartitionedCall/model_12/stack_5/block_0/depthwise_conv2d/depthwise_bn_offset", "shape": [1200], "dtype": "float32"}, {"name": "StatefulPartitionedCall/model_12/stack_5/block_0/project_conv2d/Conv2D_weights", "shape": [1, 1, 1200, 344], "dtype": "float32"}, {"name": "StatefulPartitionedCall/model_12/stack_5/block_0/project_conv2d/Conv2D_bn_offset", "shape": [344], "dtype": "float32"}, {"name": "StatefulPartitionedCall/model_12/stack_5/block_1/expand_conv2d/Conv2D_weights", "shape": [1, 1, 344, 2064], "dtype": "float32"}, {"name": "StatefulPartitionedCall/model_12/top_conv2d/Conv2D_bn_offset", "shape": [2304], "dtype": "float32"}, {"name": "StatefulPartitionedCall/model_12/stack_5/block_1/expand_conv2d/Conv2D_bn_offset", "shape": [2064], "dtype": "float32"}, {"name": "StatefulPartitionedCall/model_12/stack_5/block_1/depthwise_conv2d/depthwise_weights", "shape": [5, 5, 2064, 1], "dtype": "float32"}, {"name": "StatefulPartitionedCall/model_12/stack_5/block_1/depthwise_conv2d/depthwise_bn_offset", "shape": [2064], "dtype": "float32"}, {"name": "StatefulPartitionedCall/model_12/stack_5/block_1/project_conv2d/Conv2D_weights", "shape": [1, 1, 2064, 344], "dtype": "float32"}, {"name": "StatefulPartitionedCall/model_12/stack_5/block_1/project_conv2d/Conv2D_bn_offset", "shape": [344], "dtype": "float32"}, {"name": "StatefulPartitionedCall/model_12/stack_5/block_2/expand_conv2d/Conv2D_weights", "shape": [1, 1, 344, 2064], "dtype": "float32"}, {"name": "StatefulPartitionedCall/model_12/stack_5/block_2/expand_conv2d/Conv2D_bn_offset", "shape": [2064], "dtype": "float32"}, {"name": "StatefulPartitionedCall/model_12/stack_5/block_2/depthwise_conv2d/depthwise_weights", "shape": [5, 5, 2064, 1], "dtype": "float32"}, {"name": "StatefulPartitionedCall/model_12/stack_5/block_2/depthwise_conv2d/depthwise_bn_offset", "shape": [2064], "dtype": "float32"}, {"name": "StatefulPartitionedCall/model_12/stack_5/block_2/project_conv2d/Conv2D_weights", "shape": [1, 1, 2064, 344], "dtype": "float32"}, {"name": "StatefulPartitionedCall/model_12/stack_5/block_2/project_conv2d/Conv2D_bn_offset", "shape": [344], "dtype": "float32"}, {"name": "StatefulPartitionedCall/model_12/stack_5/block_3/expand_conv2d/Conv2D_weights", "shape": [1, 1, 344, 2064], "dtype": "float32"}, {"name": "StatefulPartitionedCall/model_12/stack_6/block_1/project_conv2d/Conv2D_weights", "shape": [1, 1, 3456, 576], "dtype": "float32"}, {"name": "StatefulPartitionedCall/model_12/stack_5/block_3/expand_conv2d/Conv2D_bn_offset", "shape": [2064], "dtype": "float32"}, {"name": "StatefulPartitionedCall/model_12/stack_5/block_3/depthwise_conv2d/depthwise_weights", "shape": [5, 5, 2064, 1], "dtype": "float32"}, {"name": "StatefulPartitionedCall/model_12/stack_5/block_3/depthwise_conv2d/depthwise_bn_offset", "shape": [2064], "dtype": "float32"}, {"name": "StatefulPartitionedCall/model_12/stack_6/block_1/project_conv2d/Conv2D_bn_offset", "shape": [576], "dtype": "float32"}, {"name": "StatefulPartitionedCall/model_12/stack_5/block_3/project_conv2d/Conv2D_weights", "shape": [1, 1, 2064, 344], "dtype": "float32"}, {"name": "StatefulPartitionedCall/model_12/stack_5/block_3/project_conv2d/Conv2D_bn_offset", "shape": [344], "dtype": "float32"}, {"name": "StatefulPartitionedCall/model_12/stack_5/block_4/expand_conv2d/Conv2D_weights", "shape": [1, 1, 344, 2064], "dtype": "float32"}, {"name": "StatefulPartitionedCall/model_12/stack_5/block_4/expand_conv2d/Conv2D_bn_offset", "shape": [2064], "dtype": "float32"}, {"name": "StatefulPartitionedCall/model_12/stack_5/block_4/depthwise_conv2d/depthwise_weights", "shape": [5, 5, 2064, 1], "dtype": "float32"}, {"name": "StatefulPartitionedCall/model_12/stack_5/block_4/depthwise_conv2d/depthwise_bn_offset", "shape": [2064], "dtype": "float32"}, {"name": "StatefulPartitionedCall/model_12/stack_6/block_2/expand_conv2d/Conv2D_weights", "shape": [1, 1, 576, 3456], "dtype": "float32"}, {"name": "StatefulPartitionedCall/model_12/stack_5/block_4/project_conv2d/Conv2D_weights", "shape": [1, 1, 2064, 344], "dtype": "float32"}, {"name": "StatefulPartitionedCall/model_12/stack_6/block_2/expand_conv2d/Conv2D_bn_offset", "shape": [3456], "dtype": "float32"}, {"name": "StatefulPartitionedCall/model_12/stack_5/block_4/project_conv2d/Conv2D_bn_offset", "shape": [344], "dtype": "float32"}, {"name": "StatefulPartitionedCall/model_12/stack_5/block_5/expand_conv2d/Conv2D_weights", "shape": [1, 1, 344, 2064], "dtype": "float32"}, {"name": "StatefulPartitionedCall/model_12/stack_5/block_5/expand_conv2d/Conv2D_bn_offset", "shape": [2064], "dtype": "float32"}, {"name": "StatefulPartitionedCall/model_12/stack_5/block_5/depthwise_conv2d/depthwise_weights", "shape": [5, 5, 2064, 1], "dtype": "float32"}, {"name": "StatefulPartitionedCall/model_12/stack_5/block_5/depthwise_conv2d/depthwise_bn_offset", "shape": [2064], "dtype": "float32"}, {"name": "StatefulPartitionedCall/model_12/stack_5/block_5/project_conv2d/Conv2D_weights", "shape": [1, 1, 2064, 344], "dtype": "float32"}, {"name": "StatefulPartitionedCall/model_12/stack_6/block_2/depthwise_conv2d/depthwise_weights", "shape": [3, 3, 3456, 1], "dtype": "float32"}, {"name": "StatefulPartitionedCall/model_12/stack_5/block_5/project_conv2d/Conv2D_bn_offset", "shape": [344], "dtype": "float32"}, {"name": "StatefulPartitionedCall/model_12/stack_5/block_6/expand_conv2d/Conv2D_weights", "shape": [1, 1, 344, 2064], "dtype": "float32"}, {"name": "StatefulPartitionedCall/model_12/stack_5/block_6/expand_conv2d/Conv2D_bn_offset", "shape": [2064], "dtype": "float32"}, {"name": "StatefulPartitionedCall/model_12/stack_5/block_6/depthwise_conv2d/depthwise_weights", "shape": [5, 5, 2064, 1], "dtype": "float32"}, {"name": "StatefulPartitionedCall/model_12/stack_5/block_6/depthwise_conv2d/depthwise_bn_offset", "shape": [2064], "dtype": "float32"}, {"name": "StatefulPartitionedCall/model_12/stack_6/block_2/depthwise_conv2d/depthwise_bn_offset", "shape": [3456], "dtype": "float32"}, {"name": "StatefulPartitionedCall/model_12/stack_5/block_6/project_conv2d/Conv2D_weights", "shape": [1, 1, 2064, 344], "dtype": "float32"}, {"name": "StatefulPartitionedCall/model_12/stack_5/block_6/project_conv2d/Conv2D_bn_offset", "shape": [344], "dtype": "float32"}, {"name": "StatefulPartitionedCall/model_12/stack_5/block_7/expand_conv2d/Conv2D_weights", "shape": [1, 1, 344, 2064], "dtype": "float32"}, {"name": "StatefulPartitionedCall/model_12/stack_5/block_7/expand_conv2d/Conv2D_bn_offset", "shape": [2064], "dtype": "float32"}, {"name": "StatefulPartitionedCall/model_12/stack_5/block_7/depthwise_conv2d/depthwise_weights", "shape": [5, 5, 2064, 1], "dtype": "float32"}, {"name": "StatefulPartitionedCall/model_12/stack_5/block_7/depthwise_conv2d/depthwise_bn_offset", "shape": [2064], "dtype": "float32"}, {"name": "StatefulPartitionedCall/model_12/stack_5/block_7/project_conv2d/Conv2D_weights", "shape": [1, 1, 2064, 344], "dtype": "float32"}, {"name": "StatefulPartitionedCall/model_12/stack_5/block_7/project_conv2d/Conv2D_bn_offset", "shape": [344], "dtype": "float32"}, {"name": "StatefulPartitionedCall/model_12/stack_5/block_8/expand_conv2d/Conv2D_weights", "shape": [1, 1, 344, 2064], "dtype": "float32"}, {"name": "StatefulPartitionedCall/model_12/stack_5/block_8/expand_conv2d/Conv2D_bn_offset", "shape": [2064], "dtype": "float32"}, {"name": "StatefulPartitionedCall/model_12/stack_5/block_8/depthwise_conv2d/depthwise_weights", "shape": [5, 5, 2064, 1], "dtype": "float32"}, {"name": "StatefulPartitionedCall/model_12/stack_5/block_8/depthwise_conv2d/depthwise_bn_offset", "shape": [2064], "dtype": "float32"}, {"name": "Func/StatefulPartitionedCall/input/_781", "shape": [1, 1, 2064, 86], "dtype": "float32"}, {"name": "Func/StatefulPartitionedCall/input/_782", "shape": [86], "dtype": "float32"}, {"name": "Func/StatefulPartitionedCall/input/_783", "shape": [1, 1, 86, 2064], "dtype": "float32"}, {"name": "Func/StatefulPartitionedCall/input/_784", "shape": [2064], "dtype": "float32"}, {"name": "StatefulPartitionedCall/model_12/tf_op_layer_BroadcastTo_13/BroadcastTo_13/input", "shape": [1, 1, 3], "dtype": "float32"}, {"name": "StatefulPartitionedCall/model_12/tf_op_layer_BroadcastTo_12/BroadcastTo_12/input", "shape": [1, 1, 3], "dtype": "float32"}, {"name": "StatefulPartitionedCall/model_12/tf_op_layer_Mul_6/Mul_6/y", "shape": [], "dtype": "float32"}, {"name": "StatefulPartitionedCall/model_12/stack_0/block_0/se_reshape/Reshape/shape/3", "shape": [], "dtype": "int32"}, {"name": "Func/StatefulPartitionedCall/input/_12", "shape": [1, 1, 56, 14], "dtype": "float32"}, {"name": "Func/StatefulPartitionedCall/input/_13", "shape": [14], "dtype": "float32"}, {"name": "Func/StatefulPartitionedCall/input/_14", "shape": [1, 1, 14, 56], "dtype": "float32"}, {"name": "Func/StatefulPartitionedCall/input/_15", "shape": [56], "dtype": "float32"}, {"name": "Func/StatefulPartitionedCall/input/_26", "shape": [1, 1, 32, 8], "dtype": "float32"}, {"name": "Func/StatefulPartitionedCall/input/_27", "shape": [8], "dtype": "float32"}, {"name": "Func/StatefulPartitionedCall/input/_28", "shape": [1, 1, 8, 32], "dtype": "float32"}, {"name": "Func/StatefulPartitionedCall/input/_29", "shape": [32], "dtype": "float32"}, {"name": "StatefulPartitionedCall/model_12/stack_0/block_2/se_reshape/Reshape/shape/3", "shape": [], "dtype": "int32"}, {"name": "Func/StatefulPartitionedCall/input/_40", "shape": [1, 1, 32, 8], "dtype": "float32"}, {"name": "Func/StatefulPartitionedCall/input/_41", "shape": [8], "dtype": "float32"}, {"name": "Func/StatefulPartitionedCall/input/_42", "shape": [1, 1, 8, 32], "dtype": "float32"}, {"name": "Func/StatefulPartitionedCall/input/_43", "shape": [32], "dtype": "float32"}, {"name": "StatefulPartitionedCall/model_12/stack_1/block_0/se_reshape/Reshape/shape/3", "shape": [], "dtype": "int32"}, {"name": "Func/StatefulPartitionedCall/input/_59", "shape": [1, 1, 192, 8], "dtype": "float32"}, {"name": "Func/StatefulPartitionedCall/input/_60", "shape": [8], "dtype": "float32"}, {"name": "Func/StatefulPartitionedCall/input/_61", "shape": [1, 1, 8, 192], "dtype": "float32"}, {"name": "Func/StatefulPartitionedCall/input/_62", "shape": [192], "dtype": "float32"}, {"name": "Func/StatefulPartitionedCall/input/_78", "shape": [1, 1, 240, 10], "dtype": "float32"}, {"name": "Func/StatefulPartitionedCall/input/_79", "shape": [10], "dtype": "float32"}, {"name": "Func/StatefulPartitionedCall/input/_80", "shape": [1, 1, 10, 240], "dtype": "float32"}, {"name": "Func/StatefulPartitionedCall/input/_81", "shape": [240], "dtype": "float32"}, {"name": "Func/StatefulPartitionedCall/input/_97", "shape": [1, 1, 240, 10], "dtype": "float32"}, {"name": "Func/StatefulPartitionedCall/input/_98", "shape": [10], "dtype": "float32"}, {"name": "Func/StatefulPartitionedCall/input/_99", "shape": [1, 1, 10, 240], "dtype": "float32"}, {"name": "Func/StatefulPartitionedCall/input/_100", "shape": [240], "dtype": "float32"}, {"name": "Func/StatefulPartitionedCall/input/_116", "shape": [1, 1, 240, 10], "dtype": "float32"}, {"name": "Func/StatefulPartitionedCall/input/_117", "shape": [10], "dtype": "float32"}, {"name": "Func/StatefulPartitionedCall/input/_118", "shape": [1, 1, 10, 240], "dtype": "float32"}, {"name": "Func/StatefulPartitionedCall/input/_119", "shape": [240], "dtype": "float32"}, {"name": "Func/StatefulPartitionedCall/input/_135", "shape": [1, 1, 240, 10], "dtype": "float32"}, {"name": "Func/StatefulPartitionedCall/input/_136", "shape": [10], "dtype": "float32"}, {"name": "Func/StatefulPartitionedCall/input/_137", "shape": [1, 1, 10, 240], "dtype": "float32"}, {"name": "Func/StatefulPartitionedCall/input/_138", "shape": [240], "dtype": "float32"}, {"name": "Func/StatefulPartitionedCall/input/_154", "shape": [1, 1, 240, 10], "dtype": "float32"}, {"name": "Func/StatefulPartitionedCall/input/_155", "shape": [10], "dtype": "float32"}, {"name": "Func/StatefulPartitionedCall/input/_156", "shape": [1, 1, 10, 240], "dtype": "float32"}, {"name": "Func/StatefulPartitionedCall/input/_157", "shape": [240], "dtype": "float32"}, {"name": "StatefulPartitionedCall/model_12/stack_1/block_5/se_reshape/Reshape/shape/3", "shape": [], "dtype": "int32"}, {"name": "Func/StatefulPartitionedCall/input/_173", "shape": [1, 1, 240, 10], "dtype": "float32"}, {"name": "Func/StatefulPartitionedCall/input/_174", "shape": [10], "dtype": "float32"}, {"name": "Func/StatefulPartitionedCall/input/_175", "shape": [1, 1, 10, 240], "dtype": "float32"}, {"name": "Func/StatefulPartitionedCall/input/_176", "shape": [240], "dtype": "float32"}, {"name": "Func/StatefulPartitionedCall/input/_192", "shape": [1, 1, 432, 18], "dtype": "float32"}, {"name": "Func/StatefulPartitionedCall/input/_193", "shape": [18], "dtype": "float32"}, {"name": "Func/StatefulPartitionedCall/input/_194", "shape": [1, 1, 18, 432], "dtype": "float32"}, {"name": "Func/StatefulPartitionedCall/input/_195", "shape": [432], "dtype": "float32"}, {"name": "Func/StatefulPartitionedCall/input/_211", "shape": [1, 1, 432, 18], "dtype": "float32"}, {"name": "Func/StatefulPartitionedCall/input/_212", "shape": [18], "dtype": "float32"}, {"name": "Func/StatefulPartitionedCall/input/_213", "shape": [1, 1, 18, 432], "dtype": "float32"}, {"name": "Func/StatefulPartitionedCall/input/_214", "shape": [432], "dtype": "float32"}, {"name": "Func/StatefulPartitionedCall/input/_230", "shape": [1, 1, 432, 18], "dtype": "float32"}, {"name": "Func/StatefulPartitionedCall/input/_231", "shape": [18], "dtype": "float32"}, {"name": "Func/StatefulPartitionedCall/input/_232", "shape": [1, 1, 18, 432], "dtype": "float32"}, {"name": "Func/StatefulPartitionedCall/input/_233", "shape": [432], "dtype": "float32"}, {"name": "Func/StatefulPartitionedCall/input/_249", "shape": [1, 1, 432, 18], "dtype": "float32"}, {"name": "Func/StatefulPartitionedCall/input/_250", "shape": [18], "dtype": "float32"}, {"name": "Func/StatefulPartitionedCall/input/_251", "shape": [1, 1, 18, 432], "dtype": "float32"}, {"name": "Func/StatefulPartitionedCall/input/_252", "shape": [432], "dtype": "float32"}, {"name": "Func/StatefulPartitionedCall/input/_268", "shape": [1, 1, 432, 18], "dtype": "float32"}, {"name": "Func/StatefulPartitionedCall/input/_269", "shape": [18], "dtype": "float32"}, {"name": "Func/StatefulPartitionedCall/input/_270", "shape": [1, 1, 18, 432], "dtype": "float32"}, {"name": "Func/StatefulPartitionedCall/input/_271", "shape": [432], "dtype": "float32"}, {"name": "StatefulPartitionedCall/model_12/stack_2/block_5/se_reshape/Reshape/shape/3", "shape": [], "dtype": "int32"}, {"name": "Func/StatefulPartitionedCall/input/_287", "shape": [1, 1, 432, 18], "dtype": "float32"}, {"name": "Func/StatefulPartitionedCall/input/_288", "shape": [18], "dtype": "float32"}, {"name": "Func/StatefulPartitionedCall/input/_289", "shape": [1, 1, 18, 432], "dtype": "float32"}, {"name": "Func/StatefulPartitionedCall/input/_290", "shape": [432], "dtype": "float32"}, {"name": "Func/StatefulPartitionedCall/input/_306", "shape": [1, 1, 864, 36], "dtype": "float32"}, {"name": "Func/StatefulPartitionedCall/input/_307", "shape": [36], "dtype": "float32"}, {"name": "Func/StatefulPartitionedCall/input/_308", "shape": [1, 1, 36, 864], "dtype": "float32"}, {"name": "Func/StatefulPartitionedCall/input/_309", "shape": [864], "dtype": "float32"}, {"name": "Func/StatefulPartitionedCall/input/_325", "shape": [1, 1, 864, 36], "dtype": "float32"}, {"name": "Func/StatefulPartitionedCall/input/_326", "shape": [36], "dtype": "float32"}, {"name": "Func/StatefulPartitionedCall/input/_327", "shape": [1, 1, 36, 864], "dtype": "float32"}, {"name": "Func/StatefulPartitionedCall/input/_328", "shape": [864], "dtype": "float32"}, {"name": "Func/StatefulPartitionedCall/input/_344", "shape": [1, 1, 864, 36], "dtype": "float32"}, {"name": "Func/StatefulPartitionedCall/input/_345", "shape": [36], "dtype": "float32"}, {"name": "Func/StatefulPartitionedCall/input/_346", "shape": [1, 1, 36, 864], "dtype": "float32"}, {"name": "Func/StatefulPartitionedCall/input/_347", "shape": [864], "dtype": "float32"}, {"name": "Func/StatefulPartitionedCall/input/_363", "shape": [1, 1, 864, 36], "dtype": "float32"}, {"name": "Func/StatefulPartitionedCall/input/_364", "shape": [36], "dtype": "float32"}, {"name": "Func/StatefulPartitionedCall/input/_365", "shape": [1, 1, 36, 864], "dtype": "float32"}, {"name": "Func/StatefulPartitionedCall/input/_366", "shape": [864], "dtype": "float32"}, {"name": "Func/StatefulPartitionedCall/input/_382", "shape": [1, 1, 864, 36], "dtype": "float32"}, {"name": "Func/StatefulPartitionedCall/input/_383", "shape": [36], "dtype": "float32"}, {"name": "Func/StatefulPartitionedCall/input/_384", "shape": [1, 1, 36, 864], "dtype": "float32"}, {"name": "Func/StatefulPartitionedCall/input/_385", "shape": [864], "dtype": "float32"}, {"name": "Func/StatefulPartitionedCall/input/_401", "shape": [1, 1, 864, 36], "dtype": "float32"}, {"name": "Func/StatefulPartitionedCall/input/_402", "shape": [36], "dtype": "float32"}, {"name": "Func/StatefulPartitionedCall/input/_403", "shape": [1, 1, 36, 864], "dtype": "float32"}, {"name": "Func/StatefulPartitionedCall/input/_404", "shape": [864], "dtype": "float32"}, {"name": "Func/StatefulPartitionedCall/input/_420", "shape": [1, 1, 864, 36], "dtype": "float32"}, {"name": "Func/StatefulPartitionedCall/input/_421", "shape": [36], "dtype": "float32"}, {"name": "Func/StatefulPartitionedCall/input/_422", "shape": [1, 1, 36, 864], "dtype": "float32"}, {"name": "Func/StatefulPartitionedCall/input/_423", "shape": [864], "dtype": "float32"}, {"name": "StatefulPartitionedCall/model_12/stack_3/block_7/se_reshape/Reshape/shape/3", "shape": [], "dtype": "int32"}, {"name": "Func/StatefulPartitionedCall/input/_439", "shape": [1, 1, 864, 36], "dtype": "float32"}, {"name": "Func/StatefulPartitionedCall/input/_440", "shape": [36], "dtype": "float32"}, {"name": "Func/StatefulPartitionedCall/input/_441", "shape": [1, 1, 36, 864], "dtype": "float32"}, {"name": "Func/StatefulPartitionedCall/input/_442", "shape": [864], "dtype": "float32"}, {"name": "Func/StatefulPartitionedCall/input/_458", "shape": [1, 1, 1200, 50], "dtype": "float32"}, {"name": "Func/StatefulPartitionedCall/input/_459", "shape": [50], "dtype": "float32"}, {"name": "Func/StatefulPartitionedCall/input/_460", "shape": [1, 1, 50, 1200], "dtype": "float32"}, {"name": "Func/StatefulPartitionedCall/input/_461", "shape": [1200], "dtype": "float32"}, {"name": "Func/StatefulPartitionedCall/input/_477", "shape": [1, 1, 1200, 50], "dtype": "float32"}, {"name": "Func/StatefulPartitionedCall/input/_478", "shape": [50], "dtype": "float32"}, {"name": "Func/StatefulPartitionedCall/input/_479", "shape": [1, 1, 50, 1200], "dtype": "float32"}, {"name": "Func/StatefulPartitionedCall/input/_480", "shape": [1200], "dtype": "float32"}, {"name": "Func/StatefulPartitionedCall/input/_496", "shape": [1, 1, 1200, 50], "dtype": "float32"}, {"name": "Func/StatefulPartitionedCall/input/_497", "shape": [50], "dtype": "float32"}, {"name": "Func/StatefulPartitionedCall/input/_498", "shape": [1, 1, 50, 1200], "dtype": "float32"}, {"name": "Func/StatefulPartitionedCall/input/_499", "shape": [1200], "dtype": "float32"}, {"name": "Func/StatefulPartitionedCall/input/_515", "shape": [1, 1, 1200, 50], "dtype": "float32"}, {"name": "Func/StatefulPartitionedCall/input/_516", "shape": [50], "dtype": "float32"}, {"name": "Func/StatefulPartitionedCall/input/_517", "shape": [1, 1, 50, 1200], "dtype": "float32"}, {"name": "Func/StatefulPartitionedCall/input/_518", "shape": [1200], "dtype": "float32"}, {"name": "Func/StatefulPartitionedCall/input/_534", "shape": [1, 1, 1200, 50], "dtype": "float32"}, {"name": "Func/StatefulPartitionedCall/input/_535", "shape": [50], "dtype": "float32"}, {"name": "Func/StatefulPartitionedCall/input/_536", "shape": [1, 1, 50, 1200], "dtype": "float32"}, {"name": "Func/StatefulPartitionedCall/input/_537", "shape": [1200], "dtype": "float32"}, {"name": "Func/StatefulPartitionedCall/input/_553", "shape": [1, 1, 1200, 50], "dtype": "float32"}, {"name": "Func/StatefulPartitionedCall/input/_554", "shape": [50], "dtype": "float32"}, {"name": "Func/StatefulPartitionedCall/input/_555", "shape": [1, 1, 50, 1200], "dtype": "float32"}, {"name": "Func/StatefulPartitionedCall/input/_556", "shape": [1200], "dtype": "float32"}, {"name": "Func/StatefulPartitionedCall/input/_572", "shape": [1, 1, 1200, 50], "dtype": "float32"}, {"name": "Func/StatefulPartitionedCall/input/_573", "shape": [50], "dtype": "float32"}, {"name": "Func/StatefulPartitionedCall/input/_574", "shape": [1, 1, 50, 1200], "dtype": "float32"}, {"name": "Func/StatefulPartitionedCall/input/_575", "shape": [1200], "dtype": "float32"}, {"name": "StatefulPartitionedCall/model_12/stack_4/block_7/se_reshape/Reshape/shape/3", "shape": [], "dtype": "int32"}, {"name": "Func/StatefulPartitionedCall/input/_591", "shape": [1, 1, 1200, 50], "dtype": "float32"}, {"name": "Func/StatefulPartitionedCall/input/_592", "shape": [50], "dtype": "float32"}, {"name": "Func/StatefulPartitionedCall/input/_593", "shape": [1, 1, 50, 1200], "dtype": "float32"}, {"name": "Func/StatefulPartitionedCall/input/_594", "shape": [1200], "dtype": "float32"}, {"name": "Func/StatefulPartitionedCall/input/_610", "shape": [1, 1, 2064, 86], "dtype": "float32"}, {"name": "Func/StatefulPartitionedCall/input/_611", "shape": [86], "dtype": "float32"}, {"name": "Func/StatefulPartitionedCall/input/_612", "shape": [1, 1, 86, 2064], "dtype": "float32"}, {"name": "Func/StatefulPartitionedCall/input/_613", "shape": [2064], "dtype": "float32"}, {"name": "Func/StatefulPartitionedCall/input/_629", "shape": [1, 1, 2064, 86], "dtype": "float32"}, {"name": "Func/StatefulPartitionedCall/input/_630", "shape": [86], "dtype": "float32"}, {"name": "Func/StatefulPartitionedCall/input/_631", "shape": [1, 1, 86, 2064], "dtype": "float32"}, {"name": "Func/StatefulPartitionedCall/input/_632", "shape": [2064], "dtype": "float32"}, {"name": "Func/StatefulPartitionedCall/input/_648", "shape": [1, 1, 2064, 86], "dtype": "float32"}, {"name": "Func/StatefulPartitionedCall/input/_649", "shape": [86], "dtype": "float32"}, {"name": "Func/StatefulPartitionedCall/input/_650", "shape": [1, 1, 86, 2064], "dtype": "float32"}, {"name": "Func/StatefulPartitionedCall/input/_651", "shape": [2064], "dtype": "float32"}, {"name": "Func/StatefulPartitionedCall/input/_667", "shape": [1, 1, 2064, 86], "dtype": "float32"}, {"name": "Func/StatefulPartitionedCall/input/_668", "shape": [86], "dtype": "float32"}, {"name": "Func/StatefulPartitionedCall/input/_669", "shape": [1, 1, 86, 2064], "dtype": "float32"}, {"name": "Func/StatefulPartitionedCall/input/_670", "shape": [2064], "dtype": "float32"}, {"name": "Func/StatefulPartitionedCall/input/_686", "shape": [1, 1, 2064, 86], "dtype": "float32"}, {"name": "Func/StatefulPartitionedCall/input/_687", "shape": [86], "dtype": "float32"}, {"name": "Func/StatefulPartitionedCall/input/_688", "shape": [1, 1, 86, 2064], "dtype": "float32"}, {"name": "Func/StatefulPartitionedCall/input/_689", "shape": [2064], "dtype": "float32"}, {"name": "Func/StatefulPartitionedCall/input/_705", "shape": [1, 1, 2064, 86], "dtype": "float32"}, {"name": "Func/StatefulPartitionedCall/input/_706", "shape": [86], "dtype": "float32"}, {"name": "Func/StatefulPartitionedCall/input/_707", "shape": [1, 1, 86, 2064], "dtype": "float32"}, {"name": "Func/StatefulPartitionedCall/input/_708", "shape": [2064], "dtype": "float32"}, {"name": "Func/StatefulPartitionedCall/input/_724", "shape": [1, 1, 2064, 86], "dtype": "float32"}, {"name": "Func/StatefulPartitionedCall/input/_725", "shape": [86], "dtype": "float32"}, {"name": "Func/StatefulPartitionedCall/input/_726", "shape": [1, 1, 86, 2064], "dtype": "float32"}, {"name": "Func/StatefulPartitionedCall/input/_727", "shape": [2064], "dtype": "float32"}, {"name": "Func/StatefulPartitionedCall/input/_743", "shape": [1, 1, 2064, 86], "dtype": "float32"}, {"name": "Func/StatefulPartitionedCall/input/_744", "shape": [86], "dtype": "float32"}, {"name": "Func/StatefulPartitionedCall/input/_745", "shape": [1, 1, 86, 2064], "dtype": "float32"}, {"name": "Func/StatefulPartitionedCall/input/_746", "shape": [2064], "dtype": "float32"}, {"name": "Func/StatefulPartitionedCall/input/_762", "shape": [1, 1, 2064, 86], "dtype": "float32"}, {"name": "Func/StatefulPartitionedCall/input/_763", "shape": [86], "dtype": "float32"}, {"name": "Func/StatefulPartitionedCall/input/_764", "shape": [1, 1, 86, 2064], "dtype": "float32"}, {"name": "Func/StatefulPartitionedCall/input/_765", "shape": [2064], "dtype": "float32"}, {"name": "StatefulPartitionedCall/model_12/stack_5/block_10/se_reshape/Reshape/shape/3", "shape": [], "dtype": "int32"}, {"name": "Func/StatefulPartitionedCall/input/_800", "shape": [1, 1, 2064, 86], "dtype": "float32"}, {"name": "Func/StatefulPartitionedCall/input/_801", "shape": [86], "dtype": "float32"}, {"name": "Func/StatefulPartitionedCall/input/_802", "shape": [1, 1, 86, 2064], "dtype": "float32"}, {"name": "Func/StatefulPartitionedCall/input/_803", "shape": [2064], "dtype": "float32"}, {"name": "Func/StatefulPartitionedCall/input/_819", "shape": [1, 1, 3456, 144], "dtype": "float32"}, {"name": "Func/StatefulPartitionedCall/input/_820", "shape": [144], "dtype": "float32"}, {"name": "Func/StatefulPartitionedCall/input/_821", "shape": [1, 1, 144, 3456], "dtype": "float32"}, {"name": "Func/StatefulPartitionedCall/input/_822", "shape": [3456], "dtype": "float32"}, {"name": "StatefulPartitionedCall/model_12/stack_6/block_2/se_reshape/strided_slice/stack", "shape": [1], "dtype": "int32"}, {"name": "StatefulPartitionedCall/model_12/stack_6/block_2/se_reshape/strided_slice/stack_1", "shape": [1], "dtype": "int32"}, {"name": "StatefulPartitionedCall/model_12/stack_6/block_2/se_reshape/Reshape/shape/1", "shape": [], "dtype": "int32"}, {"name": "StatefulPartitionedCall/model_12/stack_6/block_2/se_reshape/Reshape/shape/3", "shape": [], "dtype": "int32"}, {"name": "Func/StatefulPartitionedCall/input/_838", "shape": [1, 1, 3456, 144], "dtype": "float32"}, {"name": "Func/StatefulPartitionedCall/input/_839", "shape": [144], "dtype": "float32"}, {"name": "Func/StatefulPartitionedCall/input/_840", "shape": [1, 1, 144, 3456], "dtype": "float32"}, {"name": "Func/StatefulPartitionedCall/input/_841", "shape": [3456], "dtype": "float32"}, {"name": "StatefulPartitionedCall/model_12/stack_6/block_2/se_squeeze/Mean/reduction_indices", "shape": [2], "dtype": "int32"}, {"name": "Func/StatefulPartitionedCall/input/_852", "shape": [2304, 1000], "dtype": "float32"}, {"name": "Func/StatefulPartitionedCall/input/_853", "shape": [1000], "dtype": "float32"}]}]}