{"format": "graph-model", "generatedBy": "2.1.0", "convertedBy": "TensorFlow.js Converter v2.8.1", "signature": {"inputs": {"image_input:0": {"name": "image_input:0", "dtype": "DT_FLOAT", "tensorShape": {"dim": [{"size": "-1"}, {"size": "-1"}, {"size": "-1"}, {"size": "3"}]}}}, "outputs": {"Identity:0": {"name": "Identity:0", "dtype": "DT_FLOAT", "tensorShape": {"dim": [{"size": "-1"}, {"size": "1000"}]}}}}, "modelTopology": {"node": [{"name": "image_input", "op": "Placeholder", "attr": {"shape": {"shape": {"dim": [{"size": "-1"}, {"size": "-1"}, {"size": "-1"}, {"size": "3"}]}}, "dtype": {"type": "DT_FLOAT"}}}, {"name": "StatefulPartitionedCall/model_6/stem_conv2d/Conv2D_weights", "op": "Const", "attr": {"dtype": {"type": "DT_FLOAT"}, "value": {"tensor": {"dtype": "DT_FLOAT", "tensorShape": {"dim": [{"size": "3"}, {"size": "3"}, {"size": "3"}, {"size": "40"}]}}}}}, {"name": "StatefulPartitionedCall/model_6/stack_5/block_4/project_conv2d/Conv2D_weights", "op": "Const", "attr": {"value": {"tensor": {"dtype": "DT_FLOAT", "tensorShape": {"dim": [{"size": "1"}, {"size": "1"}, {"size": "1392"}, {"size": "232"}]}}}, "dtype": {"type": "DT_FLOAT"}}}, {"name": "StatefulPartitionedCall/model_6/stem_conv2d/Conv2D_bn_offset", "op": "Const", "attr": {"value": {"tensor": {"dtype": "DT_FLOAT", "tensorShape": {"dim": [{"size": "40"}]}}}, "dtype": {"type": "DT_FLOAT"}}}, {"name": "StatefulPartitionedCall/model_6/stack_0/block_0/depthwise_conv2d/depthwise_weights", "op": "Const", "attr": {"value": {"tensor": {"dtype": "DT_FLOAT", "tensorShape": {"dim": [{"size": "3"}, {"size": "3"}, {"size": "40"}, {"size": "1"}]}}}, "dtype": {"type": "DT_FLOAT"}}}, {"name": "StatefulPartitionedCall/model_6/stack_0/block_0/depthwise_conv2d/depthwise_bn_offset", "op": "Const", "attr": {"value": {"tensor": {"dtype": "DT_FLOAT", "tensorShape": {"dim": [{"size": "40"}]}}}, "dtype": {"type": "DT_FLOAT"}}}, {"name": "StatefulPartitionedCall/model_6/stack_5/block_4/project_conv2d/Conv2D_bn_offset", "op": "Const", "attr": {"dtype": {"type": "DT_FLOAT"}, "value": {"tensor": {"dtype": "DT_FLOAT", "tensorShape": {"dim": [{"size": "232"}]}}}}}, {"name": "StatefulPartitionedCall/model_6/stack_0/block_0/project_conv2d/Conv2D_weights", "op": "Const", "attr": {"dtype": {"type": "DT_FLOAT"}, "value": {"tensor": {"dtype": "DT_FLOAT", "tensorShape": {"dim": [{"size": "1"}, {"size": "1"}, {"size": "40"}, {"size": "24"}]}}}}}, {"name": "StatefulPartitionedCall/model_6/stack_0/block_0/project_conv2d/Conv2D_bn_offset", "op": "Const", "attr": {"value": {"tensor": {"dtype": "DT_FLOAT", "tensorShape": {"dim": [{"size": "24"}]}}}, "dtype": {"type": "DT_FLOAT"}}}, {"name": "StatefulPartitionedCall/model_6/stack_0/block_1/depthwise_conv2d/depthwise_weights", "op": "Const", "attr": {"value": {"tensor": {"dtype": "DT_FLOAT", "tensorShape": {"dim": [{"size": "3"}, {"size": "3"}, {"size": "24"}, {"size": "1"}]}}}, "dtype": {"type": "DT_FLOAT"}}}, {"name": "StatefulPartitionedCall/model_6/stack_0/block_1/depthwise_conv2d/depthwise_bn_offset", "op": "Const", "attr": {"dtype": {"type": "DT_FLOAT"}, "value": {"tensor": {"dtype": "DT_FLOAT", "tensorShape": {"dim": [{"size": "24"}]}}}}}, {"name": "StatefulPartitionedCall/model_6/stack_5/block_5/expand_conv2d/Conv2D_weights", "op": "Const", "attr": {"value": {"tensor": {"dtype": "DT_FLOAT", "tensorShape": {"dim": [{"size": "1"}, {"size": "1"}, {"size": "232"}, {"size": "1392"}]}}}, "dtype": {"type": "DT_FLOAT"}}}, {"name": "StatefulPartitionedCall/model_6/stack_0/block_1/project_conv2d/Conv2D_weights", "op": "Const", "attr": {"value": {"tensor": {"dtype": "DT_FLOAT", "tensorShape": {"dim": [{"size": "1"}, {"size": "1"}, {"size": "24"}, {"size": "24"}]}}}, "dtype": {"type": "DT_FLOAT"}}}, {"name": "StatefulPartitionedCall/model_6/stack_6/block_1/project_conv2d/Conv2D_bn_offset", "op": "Const", "attr": {"dtype": {"type": "DT_FLOAT"}, "value": {"tensor": {"dtype": "DT_FLOAT", "tensorShape": {"dim": [{"size": "384"}]}}}}}, {"name": "StatefulPartitionedCall/model_6/stack_0/block_1/project_conv2d/Conv2D_bn_offset", "op": "Const", "attr": {"dtype": {"type": "DT_FLOAT"}, "value": {"tensor": {"dtype": "DT_FLOAT", "tensorShape": {"dim": [{"size": "24"}]}}}}}, {"name": "StatefulPartitionedCall/model_6/stack_1/block_0/expand_conv2d/Conv2D_weights", "op": "Const", "attr": {"dtype": {"type": "DT_FLOAT"}, "value": {"tensor": {"dtype": "DT_FLOAT", "tensorShape": {"dim": [{"size": "1"}, {"size": "1"}, {"size": "24"}, {"size": "144"}]}}}}}, {"name": "StatefulPartitionedCall/model_6/stack_5/block_5/expand_conv2d/Conv2D_bn_offset", "op": "Const", "attr": {"dtype": {"type": "DT_FLOAT"}, "value": {"tensor": {"dtype": "DT_FLOAT", "tensorShape": {"dim": [{"size": "1392"}]}}}}}, {"name": "StatefulPartitionedCall/model_6/stack_1/block_0/expand_conv2d/Conv2D_bn_offset", "op": "Const", "attr": {"value": {"tensor": {"dtype": "DT_FLOAT", "tensorShape": {"dim": [{"size": "144"}]}}}, "dtype": {"type": "DT_FLOAT"}}}, {"name": "StatefulPartitionedCall/model_6/stack_1/block_0/depthwise_conv2d/depthwise_weights", "op": "Const", "attr": {"dtype": {"type": "DT_FLOAT"}, "value": {"tensor": {"dtype": "DT_FLOAT", "tensorShape": {"dim": [{"size": "3"}, {"size": "3"}, {"size": "144"}, {"size": "1"}]}}}}}, {"name": "StatefulPartitionedCall/model_6/stack_1/block_0/depthwise_conv2d/depthwise_bn_offset", "op": "Const", "attr": {"value": {"tensor": {"dtype": "DT_FLOAT", "tensorShape": {"dim": [{"size": "144"}]}}}, "dtype": {"type": "DT_FLOAT"}}}, {"name": "StatefulPartitionedCall/model_6/stack_1/block_0/project_conv2d/Conv2D_weights", "op": "Const", "attr": {"dtype": {"type": "DT_FLOAT"}, "value": {"tensor": {"dtype": "DT_FLOAT", "tensorShape": {"dim": [{"size": "1"}, {"size": "1"}, {"size": "144"}, {"size": "32"}]}}}}}, {"name": "StatefulPartitionedCall/model_6/stack_1/block_0/project_conv2d/Conv2D_bn_offset", "op": "Const", "attr": {"dtype": {"type": "DT_FLOAT"}, "value": {"tensor": {"dtype": "DT_FLOAT", "tensorShape": {"dim": [{"size": "32"}]}}}}}, {"name": "StatefulPartitionedCall/model_6/stack_1/block_1/expand_conv2d/Conv2D_weights", "op": "Const", "attr": {"dtype": {"type": "DT_FLOAT"}, "value": {"tensor": {"dtype": "DT_FLOAT", "tensorShape": {"dim": [{"size": "1"}, {"size": "1"}, {"size": "32"}, {"size": "192"}]}}}}}, {"name": "StatefulPartitionedCall/model_6/stack_5/block_5/depthwise_conv2d/depthwise_weights", "op": "Const", "attr": {"dtype": {"type": "DT_FLOAT"}, "value": {"tensor": {"dtype": "DT_FLOAT", "tensorShape": {"dim": [{"size": "5"}, {"size": "5"}, {"size": "1392"}, {"size": "1"}]}}}}}, {"name": "StatefulPartitionedCall/model_6/stack_1/block_1/expand_conv2d/Conv2D_bn_offset", "op": "Const", "attr": {"dtype": {"type": "DT_FLOAT"}, "value": {"tensor": {"dtype": "DT_FLOAT", "tensorShape": {"dim": [{"size": "192"}]}}}}}, {"name": "StatefulPartitionedCall/model_6/stack_1/block_1/depthwise_conv2d/depthwise_weights", "op": "Const", "attr": {"value": {"tensor": {"dtype": "DT_FLOAT", "tensorShape": {"dim": [{"size": "3"}, {"size": "3"}, {"size": "192"}, {"size": "1"}]}}}, "dtype": {"type": "DT_FLOAT"}}}, {"name": "StatefulPartitionedCall/model_6/stack_1/block_1/depthwise_conv2d/depthwise_bn_offset", "op": "Const", "attr": {"value": {"tensor": {"dtype": "DT_FLOAT", "tensorShape": {"dim": [{"size": "192"}]}}}, "dtype": {"type": "DT_FLOAT"}}}, {"name": "StatefulPartitionedCall/model_6/stack_5/block_5/depthwise_conv2d/depthwise_bn_offset", "op": "Const", "attr": {"value": {"tensor": {"dtype": "DT_FLOAT", "tensorShape": {"dim": [{"size": "1392"}]}}}, "dtype": {"type": "DT_FLOAT"}}}, {"name": "StatefulPartitionedCall/model_6/stack_1/block_1/project_conv2d/Conv2D_weights", "op": "Const", "attr": {"dtype": {"type": "DT_FLOAT"}, "value": {"tensor": {"dtype": "DT_FLOAT", "tensorShape": {"dim": [{"size": "1"}, {"size": "1"}, {"size": "192"}, {"size": "32"}]}}}}}, {"name": "StatefulPartitionedCall/model_6/stack_1/block_1/project_conv2d/Conv2D_bn_offset", "op": "Const", "attr": {"dtype": {"type": "DT_FLOAT"}, "value": {"tensor": {"dtype": "DT_FLOAT", "tensorShape": {"dim": [{"size": "32"}]}}}}}, {"name": "StatefulPartitionedCall/model_6/stack_1/block_2/expand_conv2d/Conv2D_weights", "op": "Const", "attr": {"value": {"tensor": {"dtype": "DT_FLOAT", "tensorShape": {"dim": [{"size": "1"}, {"size": "1"}, {"size": "32"}, {"size": "192"}]}}}, "dtype": {"type": "DT_FLOAT"}}}, {"name": "StatefulPartitionedCall/model_6/stack_1/block_2/expand_conv2d/Conv2D_bn_offset", "op": "Const", "attr": {"value": {"tensor": {"dtype": "DT_FLOAT", "tensorShape": {"dim": [{"size": "192"}]}}}, "dtype": {"type": "DT_FLOAT"}}}, {"name": "StatefulPartitionedCall/model_6/stack_1/block_2/depthwise_conv2d/depthwise_weights", "op": "Const", "attr": {"value": {"tensor": {"dtype": "DT_FLOAT", "tensorShape": {"dim": [{"size": "3"}, {"size": "3"}, {"size": "192"}, {"size": "1"}]}}}, "dtype": {"type": "DT_FLOAT"}}}, {"name": "StatefulPartitionedCall/model_6/stack_1/block_2/depthwise_conv2d/depthwise_bn_offset", "op": "Const", "attr": {"dtype": {"type": "DT_FLOAT"}, "value": {"tensor": {"dtype": "DT_FLOAT", "tensorShape": {"dim": [{"size": "192"}]}}}}}, {"name": "StatefulPartitionedCall/model_6/stack_1/block_2/project_conv2d/Conv2D_weights", "op": "Const", "attr": {"value": {"tensor": {"dtype": "DT_FLOAT", "tensorShape": {"dim": [{"size": "1"}, {"size": "1"}, {"size": "192"}, {"size": "32"}]}}}, "dtype": {"type": "DT_FLOAT"}}}, {"name": "StatefulPartitionedCall/model_6/stack_1/block_2/project_conv2d/Conv2D_bn_offset", "op": "Const", "attr": {"dtype": {"type": "DT_FLOAT"}, "value": {"tensor": {"dtype": "DT_FLOAT", "tensorShape": {"dim": [{"size": "32"}]}}}}}, {"name": "StatefulPartitionedCall/model_6/stack_2/block_0/expand_conv2d/Conv2D_weights", "op": "Const", "attr": {"dtype": {"type": "DT_FLOAT"}, "value": {"tensor": {"dtype": "DT_FLOAT", "tensorShape": {"dim": [{"size": "1"}, {"size": "1"}, {"size": "32"}, {"size": "192"}]}}}}}, {"name": "StatefulPartitionedCall/model_6/stack_2/block_0/expand_conv2d/Conv2D_bn_offset", "op": "Const", "attr": {"dtype": {"type": "DT_FLOAT"}, "value": {"tensor": {"dtype": "DT_FLOAT", "tensorShape": {"dim": [{"size": "192"}]}}}}}, {"name": "StatefulPartitionedCall/model_6/stack_2/block_0/depthwise_conv2d/depthwise_weights", "op": "Const", "attr": {"value": {"tensor": {"dtype": "DT_FLOAT", "tensorShape": {"dim": [{"size": "5"}, {"size": "5"}, {"size": "192"}, {"size": "1"}]}}}, "dtype": {"type": "DT_FLOAT"}}}, {"name": "StatefulPartitionedCall/model_6/stack_2/block_0/depthwise_conv2d/depthwise_bn_offset", "op": "Const", "attr": {"value": {"tensor": {"dtype": "DT_FLOAT", "tensorShape": {"dim": [{"size": "192"}]}}}, "dtype": {"type": "DT_FLOAT"}}}, {"name": "StatefulPartitionedCall/model_6/stack_2/block_0/project_conv2d/Conv2D_weights", "op": "Const", "attr": {"dtype": {"type": "DT_FLOAT"}, "value": {"tensor": {"dtype": "DT_FLOAT", "tensorShape": {"dim": [{"size": "1"}, {"size": "1"}, {"size": "192"}, {"size": "48"}]}}}}}, {"name": "StatefulPartitionedCall/model_6/stack_2/block_0/project_conv2d/Conv2D_bn_offset", "op": "Const", "attr": {"dtype": {"type": "DT_FLOAT"}, "value": {"tensor": {"dtype": "DT_FLOAT", "tensorShape": {"dim": [{"size": "48"}]}}}}}, {"name": "StatefulPartitionedCall/model_6/stack_2/block_1/expand_conv2d/Conv2D_weights", "op": "Const", "attr": {"dtype": {"type": "DT_FLOAT"}, "value": {"tensor": {"dtype": "DT_FLOAT", "tensorShape": {"dim": [{"size": "1"}, {"size": "1"}, {"size": "48"}, {"size": "288"}]}}}}}, {"name": "StatefulPartitionedCall/model_6/stack_2/block_1/expand_conv2d/Conv2D_bn_offset", "op": "Const", "attr": {"dtype": {"type": "DT_FLOAT"}, "value": {"tensor": {"dtype": "DT_FLOAT", "tensorShape": {"dim": [{"size": "288"}]}}}}}, {"name": "StatefulPartitionedCall/model_6/stack_2/block_1/depthwise_conv2d/depthwise_weights", "op": "Const", "attr": {"value": {"tensor": {"dtype": "DT_FLOAT", "tensorShape": {"dim": [{"size": "5"}, {"size": "5"}, {"size": "288"}, {"size": "1"}]}}}, "dtype": {"type": "DT_FLOAT"}}}, {"name": "StatefulPartitionedCall/model_6/stack_2/block_1/depthwise_conv2d/depthwise_bn_offset", "op": "Const", "attr": {"dtype": {"type": "DT_FLOAT"}, "value": {"tensor": {"dtype": "DT_FLOAT", "tensorShape": {"dim": [{"size": "288"}]}}}}}, {"name": "StatefulPartitionedCall/model_6/stack_2/block_1/project_conv2d/Conv2D_weights", "op": "Const", "attr": {"dtype": {"type": "DT_FLOAT"}, "value": {"tensor": {"dtype": "DT_FLOAT", "tensorShape": {"dim": [{"size": "1"}, {"size": "1"}, {"size": "288"}, {"size": "48"}]}}}}}, {"name": "StatefulPartitionedCall/model_6/stack_2/block_1/project_conv2d/Conv2D_bn_offset", "op": "Const", "attr": {"dtype": {"type": "DT_FLOAT"}, "value": {"tensor": {"dtype": "DT_FLOAT", "tensorShape": {"dim": [{"size": "48"}]}}}}}, {"name": "StatefulPartitionedCall/model_6/stack_2/block_2/expand_conv2d/Conv2D_weights", "op": "Const", "attr": {"value": {"tensor": {"dtype": "DT_FLOAT", "tensorShape": {"dim": [{"size": "1"}, {"size": "1"}, {"size": "48"}, {"size": "288"}]}}}, "dtype": {"type": "DT_FLOAT"}}}, {"name": "StatefulPartitionedCall/model_6/stack_2/block_2/expand_conv2d/Conv2D_bn_offset", "op": "Const", "attr": {"value": {"tensor": {"dtype": "DT_FLOAT", "tensorShape": {"dim": [{"size": "288"}]}}}, "dtype": {"type": "DT_FLOAT"}}}, {"name": "StatefulPartitionedCall/model_6/stack_2/block_2/depthwise_conv2d/depthwise_weights", "op": "Const", "attr": {"dtype": {"type": "DT_FLOAT"}, "value": {"tensor": {"dtype": "DT_FLOAT", "tensorShape": {"dim": [{"size": "5"}, {"size": "5"}, {"size": "288"}, {"size": "1"}]}}}}}, {"name": "StatefulPartitionedCall/model_6/stack_2/block_2/depthwise_conv2d/depthwise_bn_offset", "op": "Const", "attr": {"dtype": {"type": "DT_FLOAT"}, "value": {"tensor": {"dtype": "DT_FLOAT", "tensorShape": {"dim": [{"size": "288"}]}}}}}, {"name": "StatefulPartitionedCall/model_6/stack_2/block_2/project_conv2d/Conv2D_weights", "op": "Const", "attr": {"value": {"tensor": {"dtype": "DT_FLOAT", "tensorShape": {"dim": [{"size": "1"}, {"size": "1"}, {"size": "288"}, {"size": "48"}]}}}, "dtype": {"type": "DT_FLOAT"}}}, {"name": "StatefulPartitionedCall/model_6/stack_5/block_5/project_conv2d/Conv2D_weights", "op": "Const", "attr": {"value": {"tensor": {"dtype": "DT_FLOAT", "tensorShape": {"dim": [{"size": "1"}, {"size": "1"}, {"size": "1392"}, {"size": "232"}]}}}, "dtype": {"type": "DT_FLOAT"}}}, {"name": "StatefulPartitionedCall/model_6/stack_2/block_2/project_conv2d/Conv2D_bn_offset", "op": "Const", "attr": {"value": {"tensor": {"dtype": "DT_FLOAT", "tensorShape": {"dim": [{"size": "48"}]}}}, "dtype": {"type": "DT_FLOAT"}}}, {"name": "StatefulPartitionedCall/model_6/stack_3/block_0/expand_conv2d/Conv2D_weights", "op": "Const", "attr": {"dtype": {"type": "DT_FLOAT"}, "value": {"tensor": {"dtype": "DT_FLOAT", "tensorShape": {"dim": [{"size": "1"}, {"size": "1"}, {"size": "48"}, {"size": "288"}]}}}}}, {"name": "StatefulPartitionedCall/model_6/top_conv2d/Conv2D_weights", "op": "Const", "attr": {"dtype": {"type": "DT_FLOAT"}, "value": {"tensor": {"dtype": "DT_FLOAT", "tensorShape": {"dim": [{"size": "1"}, {"size": "1"}, {"size": "384"}, {"size": "1536"}]}}}}}, {"name": "StatefulPartitionedCall/model_6/stack_3/block_0/expand_conv2d/Conv2D_bn_offset", "op": "Const", "attr": {"value": {"tensor": {"dtype": "DT_FLOAT", "tensorShape": {"dim": [{"size": "288"}]}}}, "dtype": {"type": "DT_FLOAT"}}}, {"name": "StatefulPartitionedCall/model_6/stack_3/block_0/depthwise_conv2d/depthwise_weights", "op": "Const", "attr": {"value": {"tensor": {"dtype": "DT_FLOAT", "tensorShape": {"dim": [{"size": "3"}, {"size": "3"}, {"size": "288"}, {"size": "1"}]}}}, "dtype": {"type": "DT_FLOAT"}}}, {"name": "StatefulPartitionedCall/model_6/stack_3/block_0/depthwise_conv2d/depthwise_bn_offset", "op": "Const", "attr": {"value": {"tensor": {"dtype": "DT_FLOAT", "tensorShape": {"dim": [{"size": "288"}]}}}, "dtype": {"type": "DT_FLOAT"}}}, {"name": "StatefulPartitionedCall/model_6/stack_5/block_5/project_conv2d/Conv2D_bn_offset", "op": "Const", "attr": {"value": {"tensor": {"dtype": "DT_FLOAT", "tensorShape": {"dim": [{"size": "232"}]}}}, "dtype": {"type": "DT_FLOAT"}}}, {"name": "StatefulPartitionedCall/model_6/stack_3/block_0/project_conv2d/Conv2D_weights", "op": "Const", "attr": {"dtype": {"type": "DT_FLOAT"}, "value": {"tensor": {"dtype": "DT_FLOAT", "tensorShape": {"dim": [{"size": "1"}, {"size": "1"}, {"size": "288"}, {"size": "96"}]}}}}}, {"name": "StatefulPartitionedCall/model_6/stack_3/block_0/project_conv2d/Conv2D_bn_offset", "op": "Const", "attr": {"dtype": {"type": "DT_FLOAT"}, "value": {"tensor": {"dtype": "DT_FLOAT", "tensorShape": {"dim": [{"size": "96"}]}}}}}, {"name": "StatefulPartitionedCall/model_6/stack_3/block_1/expand_conv2d/Conv2D_weights", "op": "Const", "attr": {"dtype": {"type": "DT_FLOAT"}, "value": {"tensor": {"dtype": "DT_FLOAT", "tensorShape": {"dim": [{"size": "1"}, {"size": "1"}, {"size": "96"}, {"size": "576"}]}}}}}, {"name": "StatefulPartitionedCall/model_6/stack_6/block_0/expand_conv2d/Conv2D_weights", "op": "Const", "attr": {"value": {"tensor": {"dtype": "DT_FLOAT", "tensorShape": {"dim": [{"size": "1"}, {"size": "1"}, {"size": "232"}, {"size": "1392"}]}}}, "dtype": {"type": "DT_FLOAT"}}}, {"name": "StatefulPartitionedCall/model_6/stack_3/block_1/expand_conv2d/Conv2D_bn_offset", "op": "Const", "attr": {"value": {"tensor": {"dtype": "DT_FLOAT", "tensorShape": {"dim": [{"size": "576"}]}}}, "dtype": {"type": "DT_FLOAT"}}}, {"name": "StatefulPartitionedCall/model_6/stack_3/block_1/depthwise_conv2d/depthwise_weights", "op": "Const", "attr": {"value": {"tensor": {"dtype": "DT_FLOAT", "tensorShape": {"dim": [{"size": "3"}, {"size": "3"}, {"size": "576"}, {"size": "1"}]}}}, "dtype": {"type": "DT_FLOAT"}}}, {"name": "StatefulPartitionedCall/model_6/stack_3/block_1/depthwise_conv2d/depthwise_bn_offset", "op": "Const", "attr": {"dtype": {"type": "DT_FLOAT"}, "value": {"tensor": {"dtype": "DT_FLOAT", "tensorShape": {"dim": [{"size": "576"}]}}}}}, {"name": "StatefulPartitionedCall/model_6/stack_6/block_0/expand_conv2d/Conv2D_bn_offset", "op": "Const", "attr": {"dtype": {"type": "DT_FLOAT"}, "value": {"tensor": {"dtype": "DT_FLOAT", "tensorShape": {"dim": [{"size": "1392"}]}}}}}, {"name": "StatefulPartitionedCall/model_6/stack_3/block_1/project_conv2d/Conv2D_weights", "op": "Const", "attr": {"dtype": {"type": "DT_FLOAT"}, "value": {"tensor": {"dtype": "DT_FLOAT", "tensorShape": {"dim": [{"size": "1"}, {"size": "1"}, {"size": "576"}, {"size": "96"}]}}}}}, {"name": "StatefulPartitionedCall/model_6/stack_3/block_1/project_conv2d/Conv2D_bn_offset", "op": "Const", "attr": {"dtype": {"type": "DT_FLOAT"}, "value": {"tensor": {"dtype": "DT_FLOAT", "tensorShape": {"dim": [{"size": "96"}]}}}}}, {"name": "StatefulPartitionedCall/model_6/stack_3/block_2/expand_conv2d/Conv2D_weights", "op": "Const", "attr": {"dtype": {"type": "DT_FLOAT"}, "value": {"tensor": {"dtype": "DT_FLOAT", "tensorShape": {"dim": [{"size": "1"}, {"size": "1"}, {"size": "96"}, {"size": "576"}]}}}}}, {"name": "StatefulPartitionedCall/model_6/stack_3/block_2/expand_conv2d/Conv2D_bn_offset", "op": "Const", "attr": {"value": {"tensor": {"dtype": "DT_FLOAT", "tensorShape": {"dim": [{"size": "576"}]}}}, "dtype": {"type": "DT_FLOAT"}}}, {"name": "StatefulPartitionedCall/model_6/stack_3/block_2/depthwise_conv2d/depthwise_weights", "op": "Const", "attr": {"dtype": {"type": "DT_FLOAT"}, "value": {"tensor": {"dtype": "DT_FLOAT", "tensorShape": {"dim": [{"size": "3"}, {"size": "3"}, {"size": "576"}, {"size": "1"}]}}}}}, {"name": "StatefulPartitionedCall/model_6/stack_3/block_2/depthwise_conv2d/depthwise_bn_offset", "op": "Const", "attr": {"dtype": {"type": "DT_FLOAT"}, "value": {"tensor": {"dtype": "DT_FLOAT", "tensorShape": {"dim": [{"size": "576"}]}}}}}, {"name": "StatefulPartitionedCall/model_6/stack_6/block_0/depthwise_conv2d/depthwise_weights", "op": "Const", "attr": {"value": {"tensor": {"dtype": "DT_FLOAT", "tensorShape": {"dim": [{"size": "3"}, {"size": "3"}, {"size": "1392"}, {"size": "1"}]}}}, "dtype": {"type": "DT_FLOAT"}}}, {"name": "StatefulPartitionedCall/model_6/stack_3/block_2/project_conv2d/Conv2D_weights", "op": "Const", "attr": {"dtype": {"type": "DT_FLOAT"}, "value": {"tensor": {"dtype": "DT_FLOAT", "tensorShape": {"dim": [{"size": "1"}, {"size": "1"}, {"size": "576"}, {"size": "96"}]}}}}}, {"name": "StatefulPartitionedCall/model_6/stack_3/block_2/project_conv2d/Conv2D_bn_offset", "op": "Const", "attr": {"value": {"tensor": {"dtype": "DT_FLOAT", "tensorShape": {"dim": [{"size": "96"}]}}}, "dtype": {"type": "DT_FLOAT"}}}, {"name": "StatefulPartitionedCall/model_6/stack_3/block_3/expand_conv2d/Conv2D_weights", "op": "Const", "attr": {"value": {"tensor": {"dtype": "DT_FLOAT", "tensorShape": {"dim": [{"size": "1"}, {"size": "1"}, {"size": "96"}, {"size": "576"}]}}}, "dtype": {"type": "DT_FLOAT"}}}, {"name": "StatefulPartitionedCall/model_6/stack_6/block_0/depthwise_conv2d/depthwise_bn_offset", "op": "Const", "attr": {"value": {"tensor": {"dtype": "DT_FLOAT", "tensorShape": {"dim": [{"size": "1392"}]}}}, "dtype": {"type": "DT_FLOAT"}}}, {"name": "StatefulPartitionedCall/model_6/stack_3/block_3/expand_conv2d/Conv2D_bn_offset", "op": "Const", "attr": {"dtype": {"type": "DT_FLOAT"}, "value": {"tensor": {"dtype": "DT_FLOAT", "tensorShape": {"dim": [{"size": "576"}]}}}}}, {"name": "StatefulPartitionedCall/model_6/stack_3/block_3/depthwise_conv2d/depthwise_weights", "op": "Const", "attr": {"dtype": {"type": "DT_FLOAT"}, "value": {"tensor": {"dtype": "DT_FLOAT", "tensorShape": {"dim": [{"size": "3"}, {"size": "3"}, {"size": "576"}, {"size": "1"}]}}}}}, {"name": "StatefulPartitionedCall/model_6/stack_3/block_3/depthwise_conv2d/depthwise_bn_offset", "op": "Const", "attr": {"dtype": {"type": "DT_FLOAT"}, "value": {"tensor": {"dtype": "DT_FLOAT", "tensorShape": {"dim": [{"size": "576"}]}}}}}, {"name": "StatefulPartitionedCall/model_6/stack_3/block_3/project_conv2d/Conv2D_weights", "op": "Const", "attr": {"value": {"tensor": {"dtype": "DT_FLOAT", "tensorShape": {"dim": [{"size": "1"}, {"size": "1"}, {"size": "576"}, {"size": "96"}]}}}, "dtype": {"type": "DT_FLOAT"}}}, {"name": "StatefulPartitionedCall/model_6/stack_3/block_3/project_conv2d/Conv2D_bn_offset", "op": "Const", "attr": {"value": {"tensor": {"dtype": "DT_FLOAT", "tensorShape": {"dim": [{"size": "96"}]}}}, "dtype": {"type": "DT_FLOAT"}}}, {"name": "StatefulPartitionedCall/model_6/stack_3/block_4/expand_conv2d/Conv2D_weights", "op": "Const", "attr": {"value": {"tensor": {"dtype": "DT_FLOAT", "tensorShape": {"dim": [{"size": "1"}, {"size": "1"}, {"size": "96"}, {"size": "576"}]}}}, "dtype": {"type": "DT_FLOAT"}}}, {"name": "StatefulPartitionedCall/model_6/stack_3/block_4/expand_conv2d/Conv2D_bn_offset", "op": "Const", "attr": {"value": {"tensor": {"dtype": "DT_FLOAT", "tensorShape": {"dim": [{"size": "576"}]}}}, "dtype": {"type": "DT_FLOAT"}}}, {"name": "StatefulPartitionedCall/model_6/stack_3/block_4/depthwise_conv2d/depthwise_weights", "op": "Const", "attr": {"value": {"tensor": {"dtype": "DT_FLOAT", "tensorShape": {"dim": [{"size": "3"}, {"size": "3"}, {"size": "576"}, {"size": "1"}]}}}, "dtype": {"type": "DT_FLOAT"}}}, {"name": "StatefulPartitionedCall/model_6/stack_3/block_4/depthwise_conv2d/depthwise_bn_offset", "op": "Const", "attr": {"value": {"tensor": {"dtype": "DT_FLOAT", "tensorShape": {"dim": [{"size": "576"}]}}}, "dtype": {"type": "DT_FLOAT"}}}, {"name": "StatefulPartitionedCall/model_6/stack_3/block_4/project_conv2d/Conv2D_weights", "op": "Const", "attr": {"dtype": {"type": "DT_FLOAT"}, "value": {"tensor": {"dtype": "DT_FLOAT", "tensorShape": {"dim": [{"size": "1"}, {"size": "1"}, {"size": "576"}, {"size": "96"}]}}}}}, {"name": "StatefulPartitionedCall/model_6/stack_3/block_4/project_conv2d/Conv2D_bn_offset", "op": "Const", "attr": {"dtype": {"type": "DT_FLOAT"}, "value": {"tensor": {"dtype": "DT_FLOAT", "tensorShape": {"dim": [{"size": "96"}]}}}}}, {"name": "StatefulPartitionedCall/model_6/stack_4/block_0/expand_conv2d/Conv2D_weights", "op": "Const", "attr": {"value": {"tensor": {"dtype": "DT_FLOAT", "tensorShape": {"dim": [{"size": "1"}, {"size": "1"}, {"size": "96"}, {"size": "576"}]}}}, "dtype": {"type": "DT_FLOAT"}}}, {"name": "StatefulPartitionedCall/model_6/stack_4/block_0/expand_conv2d/Conv2D_bn_offset", "op": "Const", "attr": {"dtype": {"type": "DT_FLOAT"}, "value": {"tensor": {"dtype": "DT_FLOAT", "tensorShape": {"dim": [{"size": "576"}]}}}}}, {"name": "StatefulPartitionedCall/model_6/stack_4/block_0/depthwise_conv2d/depthwise_weights", "op": "Const", "attr": {"value": {"tensor": {"dtype": "DT_FLOAT", "tensorShape": {"dim": [{"size": "5"}, {"size": "5"}, {"size": "576"}, {"size": "1"}]}}}, "dtype": {"type": "DT_FLOAT"}}}, {"name": "StatefulPartitionedCall/model_6/stack_4/block_0/depthwise_conv2d/depthwise_bn_offset", "op": "Const", "attr": {"value": {"tensor": {"dtype": "DT_FLOAT", "tensorShape": {"dim": [{"size": "576"}]}}}, "dtype": {"type": "DT_FLOAT"}}}, {"name": "StatefulPartitionedCall/model_6/top_conv2d/Conv2D_bn_offset", "op": "Const", "attr": {"dtype": {"type": "DT_FLOAT"}, "value": {"tensor": {"dtype": "DT_FLOAT", "tensorShape": {"dim": [{"size": "1536"}]}}}}}, {"name": "StatefulPartitionedCall/model_6/stack_4/block_0/project_conv2d/Conv2D_weights", "op": "Const", "attr": {"dtype": {"type": "DT_FLOAT"}, "value": {"tensor": {"dtype": "DT_FLOAT", "tensorShape": {"dim": [{"size": "1"}, {"size": "1"}, {"size": "576"}, {"size": "136"}]}}}}}, {"name": "StatefulPartitionedCall/model_6/stack_4/block_0/project_conv2d/Conv2D_bn_offset", "op": "Const", "attr": {"value": {"tensor": {"dtype": "DT_FLOAT", "tensorShape": {"dim": [{"size": "136"}]}}}, "dtype": {"type": "DT_FLOAT"}}}, {"name": "StatefulPartitionedCall/model_6/stack_4/block_1/expand_conv2d/Conv2D_weights", "op": "Const", "attr": {"value": {"tensor": {"dtype": "DT_FLOAT", "tensorShape": {"dim": [{"size": "1"}, {"size": "1"}, {"size": "136"}, {"size": "816"}]}}}, "dtype": {"type": "DT_FLOAT"}}}, {"name": "StatefulPartitionedCall/model_6/stack_4/block_1/expand_conv2d/Conv2D_bn_offset", "op": "Const", "attr": {"dtype": {"type": "DT_FLOAT"}, "value": {"tensor": {"dtype": "DT_FLOAT", "tensorShape": {"dim": [{"size": "816"}]}}}}}, {"name": "StatefulPartitionedCall/model_6/stack_4/block_1/depthwise_conv2d/depthwise_weights", "op": "Const", "attr": {"dtype": {"type": "DT_FLOAT"}, "value": {"tensor": {"dtype": "DT_FLOAT", "tensorShape": {"dim": [{"size": "5"}, {"size": "5"}, {"size": "816"}, {"size": "1"}]}}}}}, {"name": "StatefulPartitionedCall/model_6/stack_4/block_1/depthwise_conv2d/depthwise_bn_offset", "op": "Const", "attr": {"value": {"tensor": {"dtype": "DT_FLOAT", "tensorShape": {"dim": [{"size": "816"}]}}}, "dtype": {"type": "DT_FLOAT"}}}, {"name": "StatefulPartitionedCall/model_6/stack_4/block_1/project_conv2d/Conv2D_weights", "op": "Const", "attr": {"value": {"tensor": {"dtype": "DT_FLOAT", "tensorShape": {"dim": [{"size": "1"}, {"size": "1"}, {"size": "816"}, {"size": "136"}]}}}, "dtype": {"type": "DT_FLOAT"}}}, {"name": "StatefulPartitionedCall/model_6/stack_4/block_1/project_conv2d/Conv2D_bn_offset", "op": "Const", "attr": {"value": {"tensor": {"dtype": "DT_FLOAT", "tensorShape": {"dim": [{"size": "136"}]}}}, "dtype": {"type": "DT_FLOAT"}}}, {"name": "StatefulPartitionedCall/model_6/stack_4/block_2/expand_conv2d/Conv2D_weights", "op": "Const", "attr": {"value": {"tensor": {"dtype": "DT_FLOAT", "tensorShape": {"dim": [{"size": "1"}, {"size": "1"}, {"size": "136"}, {"size": "816"}]}}}, "dtype": {"type": "DT_FLOAT"}}}, {"name": "StatefulPartitionedCall/model_6/stack_4/block_2/expand_conv2d/Conv2D_bn_offset", "op": "Const", "attr": {"dtype": {"type": "DT_FLOAT"}, "value": {"tensor": {"dtype": "DT_FLOAT", "tensorShape": {"dim": [{"size": "816"}]}}}}}, {"name": "StatefulPartitionedCall/model_6/stack_4/block_2/depthwise_conv2d/depthwise_weights", "op": "Const", "attr": {"value": {"tensor": {"dtype": "DT_FLOAT", "tensorShape": {"dim": [{"size": "5"}, {"size": "5"}, {"size": "816"}, {"size": "1"}]}}}, "dtype": {"type": "DT_FLOAT"}}}, {"name": "StatefulPartitionedCall/model_6/stack_4/block_2/depthwise_conv2d/depthwise_bn_offset", "op": "Const", "attr": {"value": {"tensor": {"dtype": "DT_FLOAT", "tensorShape": {"dim": [{"size": "816"}]}}}, "dtype": {"type": "DT_FLOAT"}}}, {"name": "StatefulPartitionedCall/model_6/stack_6/block_0/project_conv2d/Conv2D_weights", "op": "Const", "attr": {"dtype": {"type": "DT_FLOAT"}, "value": {"tensor": {"dtype": "DT_FLOAT", "tensorShape": {"dim": [{"size": "1"}, {"size": "1"}, {"size": "1392"}, {"size": "384"}]}}}}}, {"name": "StatefulPartitionedCall/model_6/stack_4/block_2/project_conv2d/Conv2D_weights", "op": "Const", "attr": {"value": {"tensor": {"dtype": "DT_FLOAT", "tensorShape": {"dim": [{"size": "1"}, {"size": "1"}, {"size": "816"}, {"size": "136"}]}}}, "dtype": {"type": "DT_FLOAT"}}}, {"name": "StatefulPartitionedCall/model_6/stack_6/block_0/project_conv2d/Conv2D_bn_offset", "op": "Const", "attr": {"value": {"tensor": {"dtype": "DT_FLOAT", "tensorShape": {"dim": [{"size": "384"}]}}}, "dtype": {"type": "DT_FLOAT"}}}, {"name": "StatefulPartitionedCall/model_6/stack_4/block_2/project_conv2d/Conv2D_bn_offset", "op": "Const", "attr": {"dtype": {"type": "DT_FLOAT"}, "value": {"tensor": {"dtype": "DT_FLOAT", "tensorShape": {"dim": [{"size": "136"}]}}}}}, {"name": "StatefulPartitionedCall/model_6/stack_4/block_3/expand_conv2d/Conv2D_weights", "op": "Const", "attr": {"dtype": {"type": "DT_FLOAT"}, "value": {"tensor": {"dtype": "DT_FLOAT", "tensorShape": {"dim": [{"size": "1"}, {"size": "1"}, {"size": "136"}, {"size": "816"}]}}}}}, {"name": "StatefulPartitionedCall/model_6/stack_4/block_3/expand_conv2d/Conv2D_bn_offset", "op": "Const", "attr": {"dtype": {"type": "DT_FLOAT"}, "value": {"tensor": {"dtype": "DT_FLOAT", "tensorShape": {"dim": [{"size": "816"}]}}}}}, {"name": "StatefulPartitionedCall/model_6/stack_4/block_3/depthwise_conv2d/depthwise_weights", "op": "Const", "attr": {"dtype": {"type": "DT_FLOAT"}, "value": {"tensor": {"dtype": "DT_FLOAT", "tensorShape": {"dim": [{"size": "5"}, {"size": "5"}, {"size": "816"}, {"size": "1"}]}}}}}, {"name": "StatefulPartitionedCall/model_6/stack_4/block_3/depthwise_conv2d/depthwise_bn_offset", "op": "Const", "attr": {"value": {"tensor": {"dtype": "DT_FLOAT", "tensorShape": {"dim": [{"size": "816"}]}}}, "dtype": {"type": "DT_FLOAT"}}}, {"name": "StatefulPartitionedCall/model_6/stack_6/block_1/expand_conv2d/Conv2D_weights", "op": "Const", "attr": {"dtype": {"type": "DT_FLOAT"}, "value": {"tensor": {"dtype": "DT_FLOAT", "tensorShape": {"dim": [{"size": "1"}, {"size": "1"}, {"size": "384"}, {"size": "2304"}]}}}}}, {"name": "StatefulPartitionedCall/model_6/stack_4/block_3/project_conv2d/Conv2D_weights", "op": "Const", "attr": {"value": {"tensor": {"dtype": "DT_FLOAT", "tensorShape": {"dim": [{"size": "1"}, {"size": "1"}, {"size": "816"}, {"size": "136"}]}}}, "dtype": {"type": "DT_FLOAT"}}}, {"name": "StatefulPartitionedCall/model_6/stack_6/block_1/expand_conv2d/Conv2D_bn_offset", "op": "Const", "attr": {"value": {"tensor": {"dtype": "DT_FLOAT", "tensorShape": {"dim": [{"size": "2304"}]}}}, "dtype": {"type": "DT_FLOAT"}}}, {"name": "StatefulPartitionedCall/model_6/stack_4/block_3/project_conv2d/Conv2D_bn_offset", "op": "Const", "attr": {"dtype": {"type": "DT_FLOAT"}, "value": {"tensor": {"dtype": "DT_FLOAT", "tensorShape": {"dim": [{"size": "136"}]}}}}}, {"name": "StatefulPartitionedCall/model_6/stack_4/block_4/expand_conv2d/Conv2D_weights", "op": "Const", "attr": {"dtype": {"type": "DT_FLOAT"}, "value": {"tensor": {"dtype": "DT_FLOAT", "tensorShape": {"dim": [{"size": "1"}, {"size": "1"}, {"size": "136"}, {"size": "816"}]}}}}}, {"name": "StatefulPartitionedCall/model_6/stack_4/block_4/expand_conv2d/Conv2D_bn_offset", "op": "Const", "attr": {"dtype": {"type": "DT_FLOAT"}, "value": {"tensor": {"dtype": "DT_FLOAT", "tensorShape": {"dim": [{"size": "816"}]}}}}}, {"name": "StatefulPartitionedCall/model_6/stack_4/block_4/depthwise_conv2d/depthwise_weights", "op": "Const", "attr": {"dtype": {"type": "DT_FLOAT"}, "value": {"tensor": {"dtype": "DT_FLOAT", "tensorShape": {"dim": [{"size": "5"}, {"size": "5"}, {"size": "816"}, {"size": "1"}]}}}}}, {"name": "StatefulPartitionedCall/model_6/stack_4/block_4/depthwise_conv2d/depthwise_bn_offset", "op": "Const", "attr": {"dtype": {"type": "DT_FLOAT"}, "value": {"tensor": {"dtype": "DT_FLOAT", "tensorShape": {"dim": [{"size": "816"}]}}}}}, {"name": "StatefulPartitionedCall/model_6/stack_4/block_4/project_conv2d/Conv2D_weights", "op": "Const", "attr": {"dtype": {"type": "DT_FLOAT"}, "value": {"tensor": {"dtype": "DT_FLOAT", "tensorShape": {"dim": [{"size": "1"}, {"size": "1"}, {"size": "816"}, {"size": "136"}]}}}}}, {"name": "StatefulPartitionedCall/model_6/stack_6/block_1/depthwise_conv2d/depthwise_weights", "op": "Const", "attr": {"dtype": {"type": "DT_FLOAT"}, "value": {"tensor": {"dtype": "DT_FLOAT", "tensorShape": {"dim": [{"size": "3"}, {"size": "3"}, {"size": "2304"}, {"size": "1"}]}}}}}, {"name": "StatefulPartitionedCall/model_6/stack_4/block_4/project_conv2d/Conv2D_bn_offset", "op": "Const", "attr": {"value": {"tensor": {"dtype": "DT_FLOAT", "tensorShape": {"dim": [{"size": "136"}]}}}, "dtype": {"type": "DT_FLOAT"}}}, {"name": "StatefulPartitionedCall/model_6/stack_5/block_0/expand_conv2d/Conv2D_weights", "op": "Const", "attr": {"value": {"tensor": {"dtype": "DT_FLOAT", "tensorShape": {"dim": [{"size": "1"}, {"size": "1"}, {"size": "136"}, {"size": "816"}]}}}, "dtype": {"type": "DT_FLOAT"}}}, {"name": "StatefulPartitionedCall/model_6/stack_5/block_0/expand_conv2d/Conv2D_bn_offset", "op": "Const", "attr": {"value": {"tensor": {"dtype": "DT_FLOAT", "tensorShape": {"dim": [{"size": "816"}]}}}, "dtype": {"type": "DT_FLOAT"}}}, {"name": "StatefulPartitionedCall/model_6/stack_5/block_0/depthwise_conv2d/depthwise_weights", "op": "Const", "attr": {"dtype": {"type": "DT_FLOAT"}, "value": {"tensor": {"dtype": "DT_FLOAT", "tensorShape": {"dim": [{"size": "5"}, {"size": "5"}, {"size": "816"}, {"size": "1"}]}}}}}, {"name": "StatefulPartitionedCall/model_6/stack_5/block_0/depthwise_conv2d/depthwise_bn_offset", "op": "Const", "attr": {"dtype": {"type": "DT_FLOAT"}, "value": {"tensor": {"dtype": "DT_FLOAT", "tensorShape": {"dim": [{"size": "816"}]}}}}}, {"name": "StatefulPartitionedCall/model_6/stack_6/block_1/depthwise_conv2d/depthwise_bn_offset", "op": "Const", "attr": {"dtype": {"type": "DT_FLOAT"}, "value": {"tensor": {"dtype": "DT_FLOAT", "tensorShape": {"dim": [{"size": "2304"}]}}}}}, {"name": "StatefulPartitionedCall/model_6/stack_5/block_0/project_conv2d/Conv2D_weights", "op": "Const", "attr": {"value": {"tensor": {"dtype": "DT_FLOAT", "tensorShape": {"dim": [{"size": "1"}, {"size": "1"}, {"size": "816"}, {"size": "232"}]}}}, "dtype": {"type": "DT_FLOAT"}}}, {"name": "StatefulPartitionedCall/model_6/stack_5/block_0/project_conv2d/Conv2D_bn_offset", "op": "Const", "attr": {"value": {"tensor": {"dtype": "DT_FLOAT", "tensorShape": {"dim": [{"size": "232"}]}}}, "dtype": {"type": "DT_FLOAT"}}}, {"name": "StatefulPartitionedCall/model_6/stack_5/block_1/expand_conv2d/Conv2D_weights", "op": "Const", "attr": {"value": {"tensor": {"dtype": "DT_FLOAT", "tensorShape": {"dim": [{"size": "1"}, {"size": "1"}, {"size": "232"}, {"size": "1392"}]}}}, "dtype": {"type": "DT_FLOAT"}}}, {"name": "StatefulPartitionedCall/model_6/stack_5/block_1/expand_conv2d/Conv2D_bn_offset", "op": "Const", "attr": {"dtype": {"type": "DT_FLOAT"}, "value": {"tensor": {"dtype": "DT_FLOAT", "tensorShape": {"dim": [{"size": "1392"}]}}}}}, {"name": "StatefulPartitionedCall/model_6/stack_5/block_1/depthwise_conv2d/depthwise_weights", "op": "Const", "attr": {"dtype": {"type": "DT_FLOAT"}, "value": {"tensor": {"dtype": "DT_FLOAT", "tensorShape": {"dim": [{"size": "5"}, {"size": "5"}, {"size": "1392"}, {"size": "1"}]}}}}}, {"name": "StatefulPartitionedCall/model_6/stack_5/block_1/depthwise_conv2d/depthwise_bn_offset", "op": "Const", "attr": {"dtype": {"type": "DT_FLOAT"}, "value": {"tensor": {"dtype": "DT_FLOAT", "tensorShape": {"dim": [{"size": "1392"}]}}}}}, {"name": "StatefulPartitionedCall/model_6/stack_5/block_1/project_conv2d/Conv2D_weights", "op": "Const", "attr": {"dtype": {"type": "DT_FLOAT"}, "value": {"tensor": {"dtype": "DT_FLOAT", "tensorShape": {"dim": [{"size": "1"}, {"size": "1"}, {"size": "1392"}, {"size": "232"}]}}}}}, {"name": "StatefulPartitionedCall/model_6/stack_5/block_1/project_conv2d/Conv2D_bn_offset", "op": "Const", "attr": {"dtype": {"type": "DT_FLOAT"}, "value": {"tensor": {"dtype": "DT_FLOAT", "tensorShape": {"dim": [{"size": "232"}]}}}}}, {"name": "StatefulPartitionedCall/model_6/stack_5/block_2/expand_conv2d/Conv2D_weights", "op": "Const", "attr": {"dtype": {"type": "DT_FLOAT"}, "value": {"tensor": {"dtype": "DT_FLOAT", "tensorShape": {"dim": [{"size": "1"}, {"size": "1"}, {"size": "232"}, {"size": "1392"}]}}}}}, {"name": "StatefulPartitionedCall/model_6/stack_5/block_2/expand_conv2d/Conv2D_bn_offset", "op": "Const", "attr": {"dtype": {"type": "DT_FLOAT"}, "value": {"tensor": {"dtype": "DT_FLOAT", "tensorShape": {"dim": [{"size": "1392"}]}}}}}, {"name": "StatefulPartitionedCall/model_6/stack_5/block_2/depthwise_conv2d/depthwise_weights", "op": "Const", "attr": {"dtype": {"type": "DT_FLOAT"}, "value": {"tensor": {"dtype": "DT_FLOAT", "tensorShape": {"dim": [{"size": "5"}, {"size": "5"}, {"size": "1392"}, {"size": "1"}]}}}}}, {"name": "StatefulPartitionedCall/model_6/stack_5/block_2/depthwise_conv2d/depthwise_bn_offset", "op": "Const", "attr": {"value": {"tensor": {"dtype": "DT_FLOAT", "tensorShape": {"dim": [{"size": "1392"}]}}}, "dtype": {"type": "DT_FLOAT"}}}, {"name": "StatefulPartitionedCall/model_6/stack_5/block_2/project_conv2d/Conv2D_weights", "op": "Const", "attr": {"dtype": {"type": "DT_FLOAT"}, "value": {"tensor": {"dtype": "DT_FLOAT", "tensorShape": {"dim": [{"size": "1"}, {"size": "1"}, {"size": "1392"}, {"size": "232"}]}}}}}, {"name": "StatefulPartitionedCall/model_6/stack_5/block_2/project_conv2d/Conv2D_bn_offset", "op": "Const", "attr": {"value": {"tensor": {"dtype": "DT_FLOAT", "tensorShape": {"dim": [{"size": "232"}]}}}, "dtype": {"type": "DT_FLOAT"}}}, {"name": "StatefulPartitionedCall/model_6/stack_5/block_3/expand_conv2d/Conv2D_weights", "op": "Const", "attr": {"dtype": {"type": "DT_FLOAT"}, "value": {"tensor": {"dtype": "DT_FLOAT", "tensorShape": {"dim": [{"size": "1"}, {"size": "1"}, {"size": "232"}, {"size": "1392"}]}}}}}, {"name": "StatefulPartitionedCall/model_6/stack_5/block_3/expand_conv2d/Conv2D_bn_offset", "op": "Const", "attr": {"dtype": {"type": "DT_FLOAT"}, "value": {"tensor": {"dtype": "DT_FLOAT", "tensorShape": {"dim": [{"size": "1392"}]}}}}}, {"name": "StatefulPartitionedCall/model_6/stack_5/block_3/depthwise_conv2d/depthwise_weights", "op": "Const", "attr": {"dtype": {"type": "DT_FLOAT"}, "value": {"tensor": {"dtype": "DT_FLOAT", "tensorShape": {"dim": [{"size": "5"}, {"size": "5"}, {"size": "1392"}, {"size": "1"}]}}}}}, {"name": "StatefulPartitionedCall/model_6/stack_5/block_3/depthwise_conv2d/depthwise_bn_offset", "op": "Const", "attr": {"dtype": {"type": "DT_FLOAT"}, "value": {"tensor": {"dtype": "DT_FLOAT", "tensorShape": {"dim": [{"size": "1392"}]}}}}}, {"name": "StatefulPartitionedCall/model_6/stack_5/block_3/project_conv2d/Conv2D_weights", "op": "Const", "attr": {"dtype": {"type": "DT_FLOAT"}, "value": {"tensor": {"dtype": "DT_FLOAT", "tensorShape": {"dim": [{"size": "1"}, {"size": "1"}, {"size": "1392"}, {"size": "232"}]}}}}}, {"name": "StatefulPartitionedCall/model_6/stack_5/block_3/project_conv2d/Conv2D_bn_offset", "op": "Const", "attr": {"dtype": {"type": "DT_FLOAT"}, "value": {"tensor": {"dtype": "DT_FLOAT", "tensorShape": {"dim": [{"size": "232"}]}}}}}, {"name": "StatefulPartitionedCall/model_6/stack_5/block_4/expand_conv2d/Conv2D_weights", "op": "Const", "attr": {"dtype": {"type": "DT_FLOAT"}, "value": {"tensor": {"dtype": "DT_FLOAT", "tensorShape": {"dim": [{"size": "1"}, {"size": "1"}, {"size": "232"}, {"size": "1392"}]}}}}}, {"name": "StatefulPartitionedCall/model_6/stack_5/block_4/expand_conv2d/Conv2D_bn_offset", "op": "Const", "attr": {"value": {"tensor": {"dtype": "DT_FLOAT", "tensorShape": {"dim": [{"size": "1392"}]}}}, "dtype": {"type": "DT_FLOAT"}}}, {"name": "StatefulPartitionedCall/model_6/stack_5/block_4/depthwise_conv2d/depthwise_weights", "op": "Const", "attr": {"value": {"tensor": {"dtype": "DT_FLOAT", "tensorShape": {"dim": [{"size": "5"}, {"size": "5"}, {"size": "1392"}, {"size": "1"}]}}}, "dtype": {"type": "DT_FLOAT"}}}, {"name": "StatefulPartitionedCall/model_6/stack_5/block_4/depthwise_conv2d/depthwise_bn_offset", "op": "Const", "attr": {"dtype": {"type": "DT_FLOAT"}, "value": {"tensor": {"dtype": "DT_FLOAT", "tensorShape": {"dim": [{"size": "1392"}]}}}}}, {"name": "StatefulPartitionedCall/model_6/stack_6/block_1/project_conv2d/Conv2D_weights", "op": "Const", "attr": {"dtype": {"type": "DT_FLOAT"}, "value": {"tensor": {"dtype": "DT_FLOAT", "tensorShape": {"dim": [{"size": "1"}, {"size": "1"}, {"size": "2304"}, {"size": "384"}]}}}}}, {"name": "StatefulPartitionedCall/model_6/tf_op_layer_BroadcastTo_7/BroadcastTo_7/input", "op": "Const", "input": ["^image_input"], "attr": {"dtype": {"type": "DT_FLOAT"}, "value": {"tensor": {"dtype": "DT_FLOAT", "tensorShape": {"dim": [{"size": "1"}, {"size": "1"}, {"size": "3"}]}}}}}, {"name": "StatefulPartitionedCall/model_6/tf_op_layer_BroadcastTo_6/BroadcastTo_6/input", "op": "Const", "input": ["^image_input"], "attr": {"value": {"tensor": {"dtype": "DT_FLOAT", "tensorShape": {"dim": [{"size": "1"}, {"size": "1"}, {"size": "3"}]}}}, "dtype": {"type": "DT_FLOAT"}}}, {"name": "StatefulPartitionedCall/model_6/tf_op_layer_Mul_3/Mul_3/y", "op": "Const", "input": ["^image_input"], "attr": {"dtype": {"type": "DT_FLOAT"}, "value": {"tensor": {"dtype": "DT_FLOAT", "tensorShape": {}}}}}, {"name": "StatefulPartitionedCall/model_6/stack_0/block_0/se_reshape/Reshape/shape/3", "op": "Const", "input": ["^image_input"], "attr": {"dtype": {"type": "DT_INT32"}, "value": {"tensor": {"dtype": "DT_INT32", "tensorShape": {}}}}}, {"name": "Func/StatefulPartitionedCall/input/_12", "op": "Const", "input": ["^image_input"], "attr": {"dtype": {"type": "DT_FLOAT"}, "value": {"tensor": {"dtype": "DT_FLOAT", "tensorShape": {"dim": [{"size": "1"}, {"size": "1"}, {"size": "40"}, {"size": "10"}]}}}}}, {"name": "Func/StatefulPartitionedCall/input/_13", "op": "Const", "input": ["^image_input"], "attr": {"value": {"tensor": {"dtype": "DT_FLOAT", "tensorShape": {"dim": [{"size": "10"}]}}}, "dtype": {"type": "DT_FLOAT"}}}, {"name": "Func/StatefulPartitionedCall/input/_14", "op": "Const", "input": ["^image_input"], "attr": {"dtype": {"type": "DT_FLOAT"}, "value": {"tensor": {"dtype": "DT_FLOAT", "tensorShape": {"dim": [{"size": "1"}, {"size": "1"}, {"size": "10"}, {"size": "40"}]}}}}}, {"name": "Func/StatefulPartitionedCall/input/_15", "op": "Const", "input": ["^image_input"], "attr": {"value": {"tensor": {"dtype": "DT_FLOAT", "tensorShape": {"dim": [{"size": "40"}]}}}, "dtype": {"type": "DT_FLOAT"}}}, {"name": "StatefulPartitionedCall/model_6/stack_0/block_1/se_reshape/Reshape/shape/3", "op": "Const", "input": ["^image_input"], "attr": {"dtype": {"type": "DT_INT32"}, "value": {"tensor": {"dtype": "DT_INT32", "tensorShape": {}}}}}, {"name": "Func/StatefulPartitionedCall/input/_26", "op": "Const", "input": ["^image_input"], "attr": {"value": {"tensor": {"dtype": "DT_FLOAT", "tensorShape": {"dim": [{"size": "1"}, {"size": "1"}, {"size": "24"}, {"size": "6"}]}}}, "dtype": {"type": "DT_FLOAT"}}}, {"name": "Func/StatefulPartitionedCall/input/_27", "op": "Const", "input": ["^image_input"], "attr": {"value": {"tensor": {"dtype": "DT_FLOAT", "tensorShape": {"dim": [{"size": "6"}]}}}, "dtype": {"type": "DT_FLOAT"}}}, {"name": "Func/StatefulPartitionedCall/input/_28", "op": "Const", "input": ["^image_input"], "attr": {"dtype": {"type": "DT_FLOAT"}, "value": {"tensor": {"dtype": "DT_FLOAT", "tensorShape": {"dim": [{"size": "1"}, {"size": "1"}, {"size": "6"}, {"size": "24"}]}}}}}, {"name": "Func/StatefulPartitionedCall/input/_29", "op": "Const", "input": ["^image_input"], "attr": {"dtype": {"type": "DT_FLOAT"}, "value": {"tensor": {"dtype": "DT_FLOAT", "tensorShape": {"dim": [{"size": "24"}]}}}}}, {"name": "StatefulPartitionedCall/model_6/stack_1/block_0/se_reshape/Reshape/shape/3", "op": "Const", "input": ["^image_input"], "attr": {"dtype": {"type": "DT_INT32"}, "value": {"tensor": {"dtype": "DT_INT32", "tensorShape": {}}}}}, {"name": "Func/StatefulPartitionedCall/input/_45", "op": "Const", "input": ["^image_input"], "attr": {"value": {"tensor": {"dtype": "DT_FLOAT", "tensorShape": {"dim": [{"size": "1"}, {"size": "1"}, {"size": "144"}, {"size": "6"}]}}}, "dtype": {"type": "DT_FLOAT"}}}, {"name": "Func/StatefulPartitionedCall/input/_46", "op": "Const", "input": ["^image_input"], "attr": {"dtype": {"type": "DT_FLOAT"}, "value": {"tensor": {"dtype": "DT_FLOAT", "tensorShape": {"dim": [{"size": "6"}]}}}}}, {"name": "Func/StatefulPartitionedCall/input/_47", "op": "Const", "input": ["^image_input"], "attr": {"value": {"tensor": {"dtype": "DT_FLOAT", "tensorShape": {"dim": [{"size": "1"}, {"size": "1"}, {"size": "6"}, {"size": "144"}]}}}, "dtype": {"type": "DT_FLOAT"}}}, {"name": "Func/StatefulPartitionedCall/input/_48", "op": "Const", "input": ["^image_input"], "attr": {"dtype": {"type": "DT_FLOAT"}, "value": {"tensor": {"dtype": "DT_FLOAT", "tensorShape": {"dim": [{"size": "144"}]}}}}}, {"name": "Func/StatefulPartitionedCall/input/_64", "op": "Const", "input": ["^image_input"], "attr": {"value": {"tensor": {"dtype": "DT_FLOAT", "tensorShape": {"dim": [{"size": "1"}, {"size": "1"}, {"size": "192"}, {"size": "8"}]}}}, "dtype": {"type": "DT_FLOAT"}}}, {"name": "Func/StatefulPartitionedCall/input/_65", "op": "Const", "input": ["^image_input"], "attr": {"value": {"tensor": {"dtype": "DT_FLOAT", "tensorShape": {"dim": [{"size": "8"}]}}}, "dtype": {"type": "DT_FLOAT"}}}, {"name": "Func/StatefulPartitionedCall/input/_66", "op": "Const", "input": ["^image_input"], "attr": {"dtype": {"type": "DT_FLOAT"}, "value": {"tensor": {"dtype": "DT_FLOAT", "tensorShape": {"dim": [{"size": "1"}, {"size": "1"}, {"size": "8"}, {"size": "192"}]}}}}}, {"name": "Func/StatefulPartitionedCall/input/_67", "op": "Const", "input": ["^image_input"], "attr": {"value": {"tensor": {"dtype": "DT_FLOAT", "tensorShape": {"dim": [{"size": "192"}]}}}, "dtype": {"type": "DT_FLOAT"}}}, {"name": "Func/StatefulPartitionedCall/input/_83", "op": "Const", "input": ["^image_input"], "attr": {"value": {"tensor": {"dtype": "DT_FLOAT", "tensorShape": {"dim": [{"size": "1"}, {"size": "1"}, {"size": "192"}, {"size": "8"}]}}}, "dtype": {"type": "DT_FLOAT"}}}, {"name": "Func/StatefulPartitionedCall/input/_84", "op": "Const", "input": ["^image_input"], "attr": {"dtype": {"type": "DT_FLOAT"}, "value": {"tensor": {"dtype": "DT_FLOAT", "tensorShape": {"dim": [{"size": "8"}]}}}}}, {"name": "Func/StatefulPartitionedCall/input/_85", "op": "Const", "input": ["^image_input"], "attr": {"value": {"tensor": {"dtype": "DT_FLOAT", "tensorShape": {"dim": [{"size": "1"}, {"size": "1"}, {"size": "8"}, {"size": "192"}]}}}, "dtype": {"type": "DT_FLOAT"}}}, {"name": "Func/StatefulPartitionedCall/input/_86", "op": "Const", "input": ["^image_input"], "attr": {"dtype": {"type": "DT_FLOAT"}, "value": {"tensor": {"dtype": "DT_FLOAT", "tensorShape": {"dim": [{"size": "192"}]}}}}}, {"name": "StatefulPartitionedCall/model_6/stack_1/block_2/se_reshape/Reshape/shape/3", "op": "Const", "input": ["^image_input"], "attr": {"value": {"tensor": {"dtype": "DT_INT32", "tensorShape": {}}}, "dtype": {"type": "DT_INT32"}}}, {"name": "Func/StatefulPartitionedCall/input/_102", "op": "Const", "input": ["^image_input"], "attr": {"value": {"tensor": {"dtype": "DT_FLOAT", "tensorShape": {"dim": [{"size": "1"}, {"size": "1"}, {"size": "192"}, {"size": "8"}]}}}, "dtype": {"type": "DT_FLOAT"}}}, {"name": "Func/StatefulPartitionedCall/input/_103", "op": "Const", "input": ["^image_input"], "attr": {"dtype": {"type": "DT_FLOAT"}, "value": {"tensor": {"dtype": "DT_FLOAT", "tensorShape": {"dim": [{"size": "8"}]}}}}}, {"name": "Func/StatefulPartitionedCall/input/_104", "op": "Const", "input": ["^image_input"], "attr": {"dtype": {"type": "DT_FLOAT"}, "value": {"tensor": {"dtype": "DT_FLOAT", "tensorShape": {"dim": [{"size": "1"}, {"size": "1"}, {"size": "8"}, {"size": "192"}]}}}}}, {"name": "Func/StatefulPartitionedCall/input/_105", "op": "Const", "input": ["^image_input"], "attr": {"dtype": {"type": "DT_FLOAT"}, "value": {"tensor": {"dtype": "DT_FLOAT", "tensorShape": {"dim": [{"size": "192"}]}}}}}, {"name": "Func/StatefulPartitionedCall/input/_121", "op": "Const", "input": ["^image_input"], "attr": {"dtype": {"type": "DT_FLOAT"}, "value": {"tensor": {"dtype": "DT_FLOAT", "tensorShape": {"dim": [{"size": "1"}, {"size": "1"}, {"size": "288"}, {"size": "12"}]}}}}}, {"name": "Func/StatefulPartitionedCall/input/_122", "op": "Const", "input": ["^image_input"], "attr": {"dtype": {"type": "DT_FLOAT"}, "value": {"tensor": {"dtype": "DT_FLOAT", "tensorShape": {"dim": [{"size": "12"}]}}}}}, {"name": "Func/StatefulPartitionedCall/input/_123", "op": "Const", "input": ["^image_input"], "attr": {"dtype": {"type": "DT_FLOAT"}, "value": {"tensor": {"dtype": "DT_FLOAT", "tensorShape": {"dim": [{"size": "1"}, {"size": "1"}, {"size": "12"}, {"size": "288"}]}}}}}, {"name": "Func/StatefulPartitionedCall/input/_124", "op": "Const", "input": ["^image_input"], "attr": {"dtype": {"type": "DT_FLOAT"}, "value": {"tensor": {"dtype": "DT_FLOAT", "tensorShape": {"dim": [{"size": "288"}]}}}}}, {"name": "Func/StatefulPartitionedCall/input/_140", "op": "Const", "input": ["^image_input"], "attr": {"value": {"tensor": {"dtype": "DT_FLOAT", "tensorShape": {"dim": [{"size": "1"}, {"size": "1"}, {"size": "288"}, {"size": "12"}]}}}, "dtype": {"type": "DT_FLOAT"}}}, {"name": "Func/StatefulPartitionedCall/input/_141", "op": "Const", "input": ["^image_input"], "attr": {"dtype": {"type": "DT_FLOAT"}, "value": {"tensor": {"dtype": "DT_FLOAT", "tensorShape": {"dim": [{"size": "12"}]}}}}}, {"name": "Func/StatefulPartitionedCall/input/_142", "op": "Const", "input": ["^image_input"], "attr": {"value": {"tensor": {"dtype": "DT_FLOAT", "tensorShape": {"dim": [{"size": "1"}, {"size": "1"}, {"size": "12"}, {"size": "288"}]}}}, "dtype": {"type": "DT_FLOAT"}}}, {"name": "Func/StatefulPartitionedCall/input/_143", "op": "Const", "input": ["^image_input"], "attr": {"value": {"tensor": {"dtype": "DT_FLOAT", "tensorShape": {"dim": [{"size": "288"}]}}}, "dtype": {"type": "DT_FLOAT"}}}, {"name": "StatefulPartitionedCall/model_6/stack_2/block_2/se_reshape/Reshape/shape/3", "op": "Const", "input": ["^image_input"], "attr": {"dtype": {"type": "DT_INT32"}, "value": {"tensor": {"dtype": "DT_INT32", "tensorShape": {}}}}}, {"name": "Func/StatefulPartitionedCall/input/_159", "op": "Const", "input": ["^image_input"], "attr": {"value": {"tensor": {"dtype": "DT_FLOAT", "tensorShape": {"dim": [{"size": "1"}, {"size": "1"}, {"size": "288"}, {"size": "12"}]}}}, "dtype": {"type": "DT_FLOAT"}}}, {"name": "Func/StatefulPartitionedCall/input/_160", "op": "Const", "input": ["^image_input"], "attr": {"value": {"tensor": {"dtype": "DT_FLOAT", "tensorShape": {"dim": [{"size": "12"}]}}}, "dtype": {"type": "DT_FLOAT"}}}, {"name": "Func/StatefulPartitionedCall/input/_161", "op": "Const", "input": ["^image_input"], "attr": {"dtype": {"type": "DT_FLOAT"}, "value": {"tensor": {"dtype": "DT_FLOAT", "tensorShape": {"dim": [{"size": "1"}, {"size": "1"}, {"size": "12"}, {"size": "288"}]}}}}}, {"name": "Func/StatefulPartitionedCall/input/_162", "op": "Const", "input": ["^image_input"], "attr": {"dtype": {"type": "DT_FLOAT"}, "value": {"tensor": {"dtype": "DT_FLOAT", "tensorShape": {"dim": [{"size": "288"}]}}}}}, {"name": "Func/StatefulPartitionedCall/input/_178", "op": "Const", "input": ["^image_input"], "attr": {"dtype": {"type": "DT_FLOAT"}, "value": {"tensor": {"dtype": "DT_FLOAT", "tensorShape": {"dim": [{"size": "1"}, {"size": "1"}, {"size": "576"}, {"size": "24"}]}}}}}, {"name": "Func/StatefulPartitionedCall/input/_179", "op": "Const", "input": ["^image_input"], "attr": {"dtype": {"type": "DT_FLOAT"}, "value": {"tensor": {"dtype": "DT_FLOAT", "tensorShape": {"dim": [{"size": "24"}]}}}}}, {"name": "Func/StatefulPartitionedCall/input/_180", "op": "Const", "input": ["^image_input"], "attr": {"value": {"tensor": {"dtype": "DT_FLOAT", "tensorShape": {"dim": [{"size": "1"}, {"size": "1"}, {"size": "24"}, {"size": "576"}]}}}, "dtype": {"type": "DT_FLOAT"}}}, {"name": "Func/StatefulPartitionedCall/input/_181", "op": "Const", "input": ["^image_input"], "attr": {"dtype": {"type": "DT_FLOAT"}, "value": {"tensor": {"dtype": "DT_FLOAT", "tensorShape": {"dim": [{"size": "576"}]}}}}}, {"name": "Func/StatefulPartitionedCall/input/_197", "op": "Const", "input": ["^image_input"], "attr": {"value": {"tensor": {"dtype": "DT_FLOAT", "tensorShape": {"dim": [{"size": "1"}, {"size": "1"}, {"size": "576"}, {"size": "24"}]}}}, "dtype": {"type": "DT_FLOAT"}}}, {"name": "Func/StatefulPartitionedCall/input/_198", "op": "Const", "input": ["^image_input"], "attr": {"value": {"tensor": {"dtype": "DT_FLOAT", "tensorShape": {"dim": [{"size": "24"}]}}}, "dtype": {"type": "DT_FLOAT"}}}, {"name": "Func/StatefulPartitionedCall/input/_199", "op": "Const", "input": ["^image_input"], "attr": {"value": {"tensor": {"dtype": "DT_FLOAT", "tensorShape": {"dim": [{"size": "1"}, {"size": "1"}, {"size": "24"}, {"size": "576"}]}}}, "dtype": {"type": "DT_FLOAT"}}}, {"name": "Func/StatefulPartitionedCall/input/_200", "op": "Const", "input": ["^image_input"], "attr": {"value": {"tensor": {"dtype": "DT_FLOAT", "tensorShape": {"dim": [{"size": "576"}]}}}, "dtype": {"type": "DT_FLOAT"}}}, {"name": "Func/StatefulPartitionedCall/input/_216", "op": "Const", "input": ["^image_input"], "attr": {"value": {"tensor": {"dtype": "DT_FLOAT", "tensorShape": {"dim": [{"size": "1"}, {"size": "1"}, {"size": "576"}, {"size": "24"}]}}}, "dtype": {"type": "DT_FLOAT"}}}, {"name": "Func/StatefulPartitionedCall/input/_217", "op": "Const", "input": ["^image_input"], "attr": {"value": {"tensor": {"dtype": "DT_FLOAT", "tensorShape": {"dim": [{"size": "24"}]}}}, "dtype": {"type": "DT_FLOAT"}}}, {"name": "Func/StatefulPartitionedCall/input/_218", "op": "Const", "input": ["^image_input"], "attr": {"value": {"tensor": {"dtype": "DT_FLOAT", "tensorShape": {"dim": [{"size": "1"}, {"size": "1"}, {"size": "24"}, {"size": "576"}]}}}, "dtype": {"type": "DT_FLOAT"}}}, {"name": "Func/StatefulPartitionedCall/input/_219", "op": "Const", "input": ["^image_input"], "attr": {"value": {"tensor": {"dtype": "DT_FLOAT", "tensorShape": {"dim": [{"size": "576"}]}}}, "dtype": {"type": "DT_FLOAT"}}}, {"name": "Func/StatefulPartitionedCall/input/_235", "op": "Const", "input": ["^image_input"], "attr": {"value": {"tensor": {"dtype": "DT_FLOAT", "tensorShape": {"dim": [{"size": "1"}, {"size": "1"}, {"size": "576"}, {"size": "24"}]}}}, "dtype": {"type": "DT_FLOAT"}}}, {"name": "Func/StatefulPartitionedCall/input/_236", "op": "Const", "input": ["^image_input"], "attr": {"dtype": {"type": "DT_FLOAT"}, "value": {"tensor": {"dtype": "DT_FLOAT", "tensorShape": {"dim": [{"size": "24"}]}}}}}, {"name": "Func/StatefulPartitionedCall/input/_237", "op": "Const", "input": ["^image_input"], "attr": {"value": {"tensor": {"dtype": "DT_FLOAT", "tensorShape": {"dim": [{"size": "1"}, {"size": "1"}, {"size": "24"}, {"size": "576"}]}}}, "dtype": {"type": "DT_FLOAT"}}}, {"name": "Func/StatefulPartitionedCall/input/_238", "op": "Const", "input": ["^image_input"], "attr": {"dtype": {"type": "DT_FLOAT"}, "value": {"tensor": {"dtype": "DT_FLOAT", "tensorShape": {"dim": [{"size": "576"}]}}}}}, {"name": "StatefulPartitionedCall/model_6/stack_3/block_4/se_reshape/Reshape/shape/3", "op": "Const", "input": ["^image_input"], "attr": {"dtype": {"type": "DT_INT32"}, "value": {"tensor": {"dtype": "DT_INT32", "tensorShape": {}}}}}, {"name": "Func/StatefulPartitionedCall/input/_254", "op": "Const", "input": ["^image_input"], "attr": {"dtype": {"type": "DT_FLOAT"}, "value": {"tensor": {"dtype": "DT_FLOAT", "tensorShape": {"dim": [{"size": "1"}, {"size": "1"}, {"size": "576"}, {"size": "24"}]}}}}}, {"name": "Func/StatefulPartitionedCall/input/_255", "op": "Const", "input": ["^image_input"], "attr": {"value": {"tensor": {"dtype": "DT_FLOAT", "tensorShape": {"dim": [{"size": "24"}]}}}, "dtype": {"type": "DT_FLOAT"}}}, {"name": "Func/StatefulPartitionedCall/input/_256", "op": "Const", "input": ["^image_input"], "attr": {"value": {"tensor": {"dtype": "DT_FLOAT", "tensorShape": {"dim": [{"size": "1"}, {"size": "1"}, {"size": "24"}, {"size": "576"}]}}}, "dtype": {"type": "DT_FLOAT"}}}, {"name": "Func/StatefulPartitionedCall/input/_257", "op": "Const", "input": ["^image_input"], "attr": {"dtype": {"type": "DT_FLOAT"}, "value": {"tensor": {"dtype": "DT_FLOAT", "tensorShape": {"dim": [{"size": "576"}]}}}}}, {"name": "Func/StatefulPartitionedCall/input/_273", "op": "Const", "input": ["^image_input"], "attr": {"dtype": {"type": "DT_FLOAT"}, "value": {"tensor": {"dtype": "DT_FLOAT", "tensorShape": {"dim": [{"size": "1"}, {"size": "1"}, {"size": "816"}, {"size": "34"}]}}}}}, {"name": "Func/StatefulPartitionedCall/input/_274", "op": "Const", "input": ["^image_input"], "attr": {"dtype": {"type": "DT_FLOAT"}, "value": {"tensor": {"dtype": "DT_FLOAT", "tensorShape": {"dim": [{"size": "34"}]}}}}}, {"name": "Func/StatefulPartitionedCall/input/_275", "op": "Const", "input": ["^image_input"], "attr": {"value": {"tensor": {"dtype": "DT_FLOAT", "tensorShape": {"dim": [{"size": "1"}, {"size": "1"}, {"size": "34"}, {"size": "816"}]}}}, "dtype": {"type": "DT_FLOAT"}}}, {"name": "Func/StatefulPartitionedCall/input/_276", "op": "Const", "input": ["^image_input"], "attr": {"dtype": {"type": "DT_FLOAT"}, "value": {"tensor": {"dtype": "DT_FLOAT", "tensorShape": {"dim": [{"size": "816"}]}}}}}, {"name": "Func/StatefulPartitionedCall/input/_292", "op": "Const", "input": ["^image_input"], "attr": {"dtype": {"type": "DT_FLOAT"}, "value": {"tensor": {"dtype": "DT_FLOAT", "tensorShape": {"dim": [{"size": "1"}, {"size": "1"}, {"size": "816"}, {"size": "34"}]}}}}}, {"name": "Func/StatefulPartitionedCall/input/_293", "op": "Const", "input": ["^image_input"], "attr": {"dtype": {"type": "DT_FLOAT"}, "value": {"tensor": {"dtype": "DT_FLOAT", "tensorShape": {"dim": [{"size": "34"}]}}}}}, {"name": "Func/StatefulPartitionedCall/input/_294", "op": "Const", "input": ["^image_input"], "attr": {"dtype": {"type": "DT_FLOAT"}, "value": {"tensor": {"dtype": "DT_FLOAT", "tensorShape": {"dim": [{"size": "1"}, {"size": "1"}, {"size": "34"}, {"size": "816"}]}}}}}, {"name": "Func/StatefulPartitionedCall/input/_295", "op": "Const", "input": ["^image_input"], "attr": {"dtype": {"type": "DT_FLOAT"}, "value": {"tensor": {"dtype": "DT_FLOAT", "tensorShape": {"dim": [{"size": "816"}]}}}}}, {"name": "Func/StatefulPartitionedCall/input/_311", "op": "Const", "input": ["^image_input"], "attr": {"dtype": {"type": "DT_FLOAT"}, "value": {"tensor": {"dtype": "DT_FLOAT", "tensorShape": {"dim": [{"size": "1"}, {"size": "1"}, {"size": "816"}, {"size": "34"}]}}}}}, {"name": "Func/StatefulPartitionedCall/input/_312", "op": "Const", "input": ["^image_input"], "attr": {"value": {"tensor": {"dtype": "DT_FLOAT", "tensorShape": {"dim": [{"size": "34"}]}}}, "dtype": {"type": "DT_FLOAT"}}}, {"name": "Func/StatefulPartitionedCall/input/_313", "op": "Const", "input": ["^image_input"], "attr": {"dtype": {"type": "DT_FLOAT"}, "value": {"tensor": {"dtype": "DT_FLOAT", "tensorShape": {"dim": [{"size": "1"}, {"size": "1"}, {"size": "34"}, {"size": "816"}]}}}}}, {"name": "Func/StatefulPartitionedCall/input/_314", "op": "Const", "input": ["^image_input"], "attr": {"value": {"tensor": {"dtype": "DT_FLOAT", "tensorShape": {"dim": [{"size": "816"}]}}}, "dtype": {"type": "DT_FLOAT"}}}, {"name": "Func/StatefulPartitionedCall/input/_330", "op": "Const", "input": ["^image_input"], "attr": {"dtype": {"type": "DT_FLOAT"}, "value": {"tensor": {"dtype": "DT_FLOAT", "tensorShape": {"dim": [{"size": "1"}, {"size": "1"}, {"size": "816"}, {"size": "34"}]}}}}}, {"name": "Func/StatefulPartitionedCall/input/_331", "op": "Const", "input": ["^image_input"], "attr": {"dtype": {"type": "DT_FLOAT"}, "value": {"tensor": {"dtype": "DT_FLOAT", "tensorShape": {"dim": [{"size": "34"}]}}}}}, {"name": "Func/StatefulPartitionedCall/input/_332", "op": "Const", "input": ["^image_input"], "attr": {"dtype": {"type": "DT_FLOAT"}, "value": {"tensor": {"dtype": "DT_FLOAT", "tensorShape": {"dim": [{"size": "1"}, {"size": "1"}, {"size": "34"}, {"size": "816"}]}}}}}, {"name": "Func/StatefulPartitionedCall/input/_333", "op": "Const", "input": ["^image_input"], "attr": {"value": {"tensor": {"dtype": "DT_FLOAT", "tensorShape": {"dim": [{"size": "816"}]}}}, "dtype": {"type": "DT_FLOAT"}}}, {"name": "StatefulPartitionedCall/model_6/stack_4/block_4/se_reshape/Reshape/shape/3", "op": "Const", "input": ["^image_input"], "attr": {"value": {"tensor": {"dtype": "DT_INT32", "tensorShape": {}}}, "dtype": {"type": "DT_INT32"}}}, {"name": "Func/StatefulPartitionedCall/input/_349", "op": "Const", "input": ["^image_input"], "attr": {"dtype": {"type": "DT_FLOAT"}, "value": {"tensor": {"dtype": "DT_FLOAT", "tensorShape": {"dim": [{"size": "1"}, {"size": "1"}, {"size": "816"}, {"size": "34"}]}}}}}, {"name": "Func/StatefulPartitionedCall/input/_350", "op": "Const", "input": ["^image_input"], "attr": {"dtype": {"type": "DT_FLOAT"}, "value": {"tensor": {"dtype": "DT_FLOAT", "tensorShape": {"dim": [{"size": "34"}]}}}}}, {"name": "Func/StatefulPartitionedCall/input/_351", "op": "Const", "input": ["^image_input"], "attr": {"value": {"tensor": {"dtype": "DT_FLOAT", "tensorShape": {"dim": [{"size": "1"}, {"size": "1"}, {"size": "34"}, {"size": "816"}]}}}, "dtype": {"type": "DT_FLOAT"}}}, {"name": "Func/StatefulPartitionedCall/input/_352", "op": "Const", "input": ["^image_input"], "attr": {"dtype": {"type": "DT_FLOAT"}, "value": {"tensor": {"dtype": "DT_FLOAT", "tensorShape": {"dim": [{"size": "816"}]}}}}}, {"name": "Func/StatefulPartitionedCall/input/_368", "op": "Const", "input": ["^image_input"], "attr": {"value": {"tensor": {"dtype": "DT_FLOAT", "tensorShape": {"dim": [{"size": "1"}, {"size": "1"}, {"size": "1392"}, {"size": "58"}]}}}, "dtype": {"type": "DT_FLOAT"}}}, {"name": "Func/StatefulPartitionedCall/input/_369", "op": "Const", "input": ["^image_input"], "attr": {"value": {"tensor": {"dtype": "DT_FLOAT", "tensorShape": {"dim": [{"size": "58"}]}}}, "dtype": {"type": "DT_FLOAT"}}}, {"name": "Func/StatefulPartitionedCall/input/_370", "op": "Const", "input": ["^image_input"], "attr": {"value": {"tensor": {"dtype": "DT_FLOAT", "tensorShape": {"dim": [{"size": "1"}, {"size": "1"}, {"size": "58"}, {"size": "1392"}]}}}, "dtype": {"type": "DT_FLOAT"}}}, {"name": "Func/StatefulPartitionedCall/input/_371", "op": "Const", "input": ["^image_input"], "attr": {"value": {"tensor": {"dtype": "DT_FLOAT", "tensorShape": {"dim": [{"size": "1392"}]}}}, "dtype": {"type": "DT_FLOAT"}}}, {"name": "Func/StatefulPartitionedCall/input/_387", "op": "Const", "input": ["^image_input"], "attr": {"dtype": {"type": "DT_FLOAT"}, "value": {"tensor": {"dtype": "DT_FLOAT", "tensorShape": {"dim": [{"size": "1"}, {"size": "1"}, {"size": "1392"}, {"size": "58"}]}}}}}, {"name": "Func/StatefulPartitionedCall/input/_388", "op": "Const", "input": ["^image_input"], "attr": {"value": {"tensor": {"dtype": "DT_FLOAT", "tensorShape": {"dim": [{"size": "58"}]}}}, "dtype": {"type": "DT_FLOAT"}}}, {"name": "Func/StatefulPartitionedCall/input/_389", "op": "Const", "input": ["^image_input"], "attr": {"value": {"tensor": {"dtype": "DT_FLOAT", "tensorShape": {"dim": [{"size": "1"}, {"size": "1"}, {"size": "58"}, {"size": "1392"}]}}}, "dtype": {"type": "DT_FLOAT"}}}, {"name": "Func/StatefulPartitionedCall/input/_390", "op": "Const", "input": ["^image_input"], "attr": {"dtype": {"type": "DT_FLOAT"}, "value": {"tensor": {"dtype": "DT_FLOAT", "tensorShape": {"dim": [{"size": "1392"}]}}}}}, {"name": "Func/StatefulPartitionedCall/input/_406", "op": "Const", "input": ["^image_input"], "attr": {"value": {"tensor": {"dtype": "DT_FLOAT", "tensorShape": {"dim": [{"size": "1"}, {"size": "1"}, {"size": "1392"}, {"size": "58"}]}}}, "dtype": {"type": "DT_FLOAT"}}}, {"name": "Func/StatefulPartitionedCall/input/_407", "op": "Const", "input": ["^image_input"], "attr": {"dtype": {"type": "DT_FLOAT"}, "value": {"tensor": {"dtype": "DT_FLOAT", "tensorShape": {"dim": [{"size": "58"}]}}}}}, {"name": "Func/StatefulPartitionedCall/input/_408", "op": "Const", "input": ["^image_input"], "attr": {"value": {"tensor": {"dtype": "DT_FLOAT", "tensorShape": {"dim": [{"size": "1"}, {"size": "1"}, {"size": "58"}, {"size": "1392"}]}}}, "dtype": {"type": "DT_FLOAT"}}}, {"name": "Func/StatefulPartitionedCall/input/_409", "op": "Const", "input": ["^image_input"], "attr": {"value": {"tensor": {"dtype": "DT_FLOAT", "tensorShape": {"dim": [{"size": "1392"}]}}}, "dtype": {"type": "DT_FLOAT"}}}, {"name": "Func/StatefulPartitionedCall/input/_425", "op": "Const", "input": ["^image_input"], "attr": {"dtype": {"type": "DT_FLOAT"}, "value": {"tensor": {"dtype": "DT_FLOAT", "tensorShape": {"dim": [{"size": "1"}, {"size": "1"}, {"size": "1392"}, {"size": "58"}]}}}}}, {"name": "Func/StatefulPartitionedCall/input/_426", "op": "Const", "input": ["^image_input"], "attr": {"dtype": {"type": "DT_FLOAT"}, "value": {"tensor": {"dtype": "DT_FLOAT", "tensorShape": {"dim": [{"size": "58"}]}}}}}, {"name": "Func/StatefulPartitionedCall/input/_427", "op": "Const", "input": ["^image_input"], "attr": {"dtype": {"type": "DT_FLOAT"}, "value": {"tensor": {"dtype": "DT_FLOAT", "tensorShape": {"dim": [{"size": "1"}, {"size": "1"}, {"size": "58"}, {"size": "1392"}]}}}}}, {"name": "Func/StatefulPartitionedCall/input/_428", "op": "Const", "input": ["^image_input"], "attr": {"dtype": {"type": "DT_FLOAT"}, "value": {"tensor": {"dtype": "DT_FLOAT", "tensorShape": {"dim": [{"size": "1392"}]}}}}}, {"name": "Func/StatefulPartitionedCall/input/_444", "op": "Const", "input": ["^image_input"], "attr": {"dtype": {"type": "DT_FLOAT"}, "value": {"tensor": {"dtype": "DT_FLOAT", "tensorShape": {"dim": [{"size": "1"}, {"size": "1"}, {"size": "1392"}, {"size": "58"}]}}}}}, {"name": "Func/StatefulPartitionedCall/input/_445", "op": "Const", "input": ["^image_input"], "attr": {"value": {"tensor": {"dtype": "DT_FLOAT", "tensorShape": {"dim": [{"size": "58"}]}}}, "dtype": {"type": "DT_FLOAT"}}}, {"name": "Func/StatefulPartitionedCall/input/_446", "op": "Const", "input": ["^image_input"], "attr": {"dtype": {"type": "DT_FLOAT"}, "value": {"tensor": {"dtype": "DT_FLOAT", "tensorShape": {"dim": [{"size": "1"}, {"size": "1"}, {"size": "58"}, {"size": "1392"}]}}}}}, {"name": "Func/StatefulPartitionedCall/input/_447", "op": "Const", "input": ["^image_input"], "attr": {"dtype": {"type": "DT_FLOAT"}, "value": {"tensor": {"dtype": "DT_FLOAT", "tensorShape": {"dim": [{"size": "1392"}]}}}}}, {"name": "StatefulPartitionedCall/model_6/stack_5/block_5/se_reshape/Reshape/shape/3", "op": "Const", "input": ["^image_input"], "attr": {"dtype": {"type": "DT_INT32"}, "value": {"tensor": {"dtype": "DT_INT32", "tensorShape": {}}}}}, {"name": "Func/StatefulPartitionedCall/input/_463", "op": "Const", "input": ["^image_input"], "attr": {"value": {"tensor": {"dtype": "DT_FLOAT", "tensorShape": {"dim": [{"size": "1"}, {"size": "1"}, {"size": "1392"}, {"size": "58"}]}}}, "dtype": {"type": "DT_FLOAT"}}}, {"name": "Func/StatefulPartitionedCall/input/_464", "op": "Const", "input": ["^image_input"], "attr": {"dtype": {"type": "DT_FLOAT"}, "value": {"tensor": {"dtype": "DT_FLOAT", "tensorShape": {"dim": [{"size": "58"}]}}}}}, {"name": "Func/StatefulPartitionedCall/input/_465", "op": "Const", "input": ["^image_input"], "attr": {"value": {"tensor": {"dtype": "DT_FLOAT", "tensorShape": {"dim": [{"size": "1"}, {"size": "1"}, {"size": "58"}, {"size": "1392"}]}}}, "dtype": {"type": "DT_FLOAT"}}}, {"name": "Func/StatefulPartitionedCall/input/_466", "op": "Const", "input": ["^image_input"], "attr": {"value": {"tensor": {"dtype": "DT_FLOAT", "tensorShape": {"dim": [{"size": "1392"}]}}}, "dtype": {"type": "DT_FLOAT"}}}, {"name": "StatefulPartitionedCall/model_6/stack_6/block_1/se_reshape/strided_slice/stack", "op": "Const", "input": ["^image_input"], "attr": {"dtype": {"type": "DT_INT32"}, "value": {"tensor": {"dtype": "DT_INT32", "tensorShape": {"dim": [{"size": "1"}]}}}}}, {"name": "StatefulPartitionedCall/model_6/stack_6/block_1/se_reshape/strided_slice/stack_1", "op": "Const", "input": ["^image_input"], "attr": {"dtype": {"type": "DT_INT32"}, "value": {"tensor": {"dtype": "DT_INT32", "tensorShape": {"dim": [{"size": "1"}]}}}}}, {"name": "StatefulPartitionedCall/model_6/stack_6/block_1/se_reshape/Reshape/shape/1", "op": "Const", "input": ["^image_input"], "attr": {"dtype": {"type": "DT_INT32"}, "value": {"tensor": {"dtype": "DT_INT32", "tensorShape": {}}}}}, {"name": "StatefulPartitionedCall/model_6/stack_6/block_1/se_reshape/Reshape/shape/3", "op": "Const", "input": ["^image_input"], "attr": {"dtype": {"type": "DT_INT32"}, "value": {"tensor": {"dtype": "DT_INT32", "tensorShape": {}}}}}, {"name": "Func/StatefulPartitionedCall/input/_482", "op": "Const", "input": ["^image_input"], "attr": {"value": {"tensor": {"dtype": "DT_FLOAT", "tensorShape": {"dim": [{"size": "1"}, {"size": "1"}, {"size": "2304"}, {"size": "96"}]}}}, "dtype": {"type": "DT_FLOAT"}}}, {"name": "Func/StatefulPartitionedCall/input/_483", "op": "Const", "input": ["^image_input"], "attr": {"dtype": {"type": "DT_FLOAT"}, "value": {"tensor": {"dtype": "DT_FLOAT", "tensorShape": {"dim": [{"size": "96"}]}}}}}, {"name": "Func/StatefulPartitionedCall/input/_484", "op": "Const", "input": ["^image_input"], "attr": {"value": {"tensor": {"dtype": "DT_FLOAT", "tensorShape": {"dim": [{"size": "1"}, {"size": "1"}, {"size": "96"}, {"size": "2304"}]}}}, "dtype": {"type": "DT_FLOAT"}}}, {"name": "Func/StatefulPartitionedCall/input/_485", "op": "Const", "input": ["^image_input"], "attr": {"value": {"tensor": {"dtype": "DT_FLOAT", "tensorShape": {"dim": [{"size": "2304"}]}}}, "dtype": {"type": "DT_FLOAT"}}}, {"name": "StatefulPartitionedCall/model_6/stack_6/block_1/se_squeeze/Mean/reduction_indices", "op": "Const", "input": ["^image_input"], "attr": {"dtype": {"type": "DT_INT32"}, "value": {"tensor": {"dtype": "DT_INT32", "tensorShape": {"dim": [{"size": "2"}]}}}}}, {"name": "Func/StatefulPartitionedCall/input/_496", "op": "Const", "input": ["^image_input"], "attr": {"value": {"tensor": {"dtype": "DT_FLOAT", "tensorShape": {"dim": [{"size": "1536"}, {"size": "1000"}]}}}, "dtype": {"type": "DT_FLOAT"}}}, {"name": "Func/StatefulPartitionedCall/input/_497", "op": "Const", "input": ["^image_input"], "attr": {"dtype": {"type": "DT_FLOAT"}, "value": {"tensor": {"dtype": "DT_FLOAT", "tensorShape": {"dim": [{"size": "1000"}]}}}}}, {"name": "StatefulPartitionedCall/model_6/tf_op_layer_Mul_3/Mul_3", "op": "Mul", "input": ["StatefulPartitionedCall/model_6/tf_op_layer_Mul_3/Mul_3/y", "image_input"], "attr": {"T": {"type": "DT_FLOAT"}, "_cloned": {"b": true}}}, {"name": "StatefulPartitionedCall/model_6/tf_op_layer_Shape_6/Shape_6", "op": "Shape", "input": ["StatefulPartitionedCall/model_6/tf_op_layer_Mul_3/Mul_3"], "attr": {"_cloned": {"b": true}, "out_type": {"type": "DT_INT32"}, "T": {"type": "DT_FLOAT"}}}, {"name": "StatefulPartitionedCall/model_6/tf_op_layer_BroadcastTo_6/BroadcastTo_6", "op": "BroadcastTo", "input": ["StatefulPartitionedCall/model_6/tf_op_layer_BroadcastTo_6/BroadcastTo_6/input", "StatefulPartitionedCall/model_6/tf_op_layer_Shape_6/Shape_6"], "attr": {"_cloned": {"b": true}, "T": {"type": "DT_FLOAT"}, "Tidx": {"type": "DT_INT32"}}}, {"name": "StatefulPartitionedCall/model_6/tf_op_layer_Sub_3/Sub_3", "op": "Sub", "input": ["StatefulPartitionedCall/model_6/tf_op_layer_Mul_3/Mul_3", "StatefulPartitionedCall/model_6/tf_op_layer_BroadcastTo_6/BroadcastTo_6"], "attr": {"T": {"type": "DT_FLOAT"}, "_cloned": {"b": true}}}, {"name": "StatefulPartitionedCall/model_6/tf_op_layer_Shape_7/Shape_7", "op": "Shape", "input": ["StatefulPartitionedCall/model_6/tf_op_layer_Sub_3/Sub_3"], "attr": {"_cloned": {"b": true}, "out_type": {"type": "DT_INT32"}, "T": {"type": "DT_FLOAT"}}}, {"name": "StatefulPartitionedCall/model_6/tf_op_layer_BroadcastTo_7/BroadcastTo_7", "op": "BroadcastTo", "input": ["StatefulPartitionedCall/model_6/tf_op_layer_BroadcastTo_7/BroadcastTo_7/input", "StatefulPartitionedCall/model_6/tf_op_layer_Shape_7/Shape_7"], "attr": {"T": {"type": "DT_FLOAT"}, "_cloned": {"b": true}, "Tidx": {"type": "DT_INT32"}}}, {"name": "StatefulPartitionedCall/model_6/tf_op_layer_RealDiv_3/RealDiv_3", "op": "RealDiv", "input": ["StatefulPartitionedCall/model_6/tf_op_layer_Sub_3/Sub_3", "StatefulPartitionedCall/model_6/tf_op_layer_BroadcastTo_7/BroadcastTo_7"], "attr": {"_cloned": {"b": true}, "T": {"type": "DT_FLOAT"}}}, {"name": "StatefulPartitionedCall/model_6/stem_bn/FusedBatchNormV3", "op": "_FusedConv2D", "input": ["StatefulPartitionedCall/model_6/tf_op_layer_RealDiv_3/RealDiv_3", "StatefulPartitionedCall/model_6/stem_conv2d/Conv2D_weights", "StatefulPartitionedCall/model_6/stem_conv2d/Conv2D_bn_offset"], "device": "/device:CPU:0", "attr": {"T": {"type": "DT_FLOAT"}, "data_format": {"s": "TkhXQw=="}, "epsilon": {"f": 0.0}, "strides": {"list": {"i": ["1", "2", "2", "1"]}}, "num_args": {"i": "1"}, "fused_ops": {"list": {"s": ["Qmlhc0FkZA=="]}}, "dilations": {"list": {"i": ["1", "1", "1", "1"]}}, "use_cudnn_on_gpu": {"b": true}, "explicit_paddings": {"list": {}}, "padding": {"s": "U0FNRQ=="}}}, {"name": "StatefulPartitionedCall/model_6/stem_activation/Sigmoid", "op": "Sigmoid", "input": ["StatefulPartitionedCall/model_6/stem_bn/FusedBatchNormV3"], "attr": {"T": {"type": "DT_FLOAT"}}}, {"name": "StatefulPartitionedCall/model_6/stem_activation/mul", "op": "Mul", "input": ["StatefulPartitionedCall/model_6/stem_activation/Sigmoid", "StatefulPartitionedCall/model_6/stem_bn/FusedBatchNormV3"], "attr": {"T": {"type": "DT_FLOAT"}}}, {"name": "StatefulPartitionedCall/model_6/stack_0/block_0/depthwise_conv2d/depthwise", "op": "FusedDepthwiseConv2dNative", "input": ["StatefulPartitionedCall/model_6/stem_activation/mul", "StatefulPartitionedCall/model_6/stack_0/block_0/depthwise_conv2d/depthwise_weights", "StatefulPartitionedCall/model_6/stack_0/block_0/depthwise_conv2d/depthwise_bn_offset"], "attr": {"padding": {"s": "U0FNRQ=="}, "num_args": {"i": "1"}, "T": {"type": "DT_FLOAT"}, "strides": {"list": {"i": ["1", "1", "1", "1"]}}, "fused_ops": {"list": {"s": ["Qmlhc0FkZA=="]}}, "dilations": {"list": {"i": ["1", "1", "1", "1"]}}, "data_format": {"s": "TkhXQw=="}}}, {"name": "StatefulPartitionedCall/model_6/stack_0/block_0/depthwise_activation/Sigmoid", "op": "Sigmoid", "input": ["StatefulPartitionedCall/model_6/stack_0/block_0/depthwise_conv2d/depthwise"], "attr": {"T": {"type": "DT_FLOAT"}}}, {"name": "StatefulPartitionedCall/model_6/stack_0/block_0/depthwise_activation/mul", "op": "Mul", "input": ["StatefulPartitionedCall/model_6/stack_0/block_0/depthwise_activation/Sigmoid", "StatefulPartitionedCall/model_6/stack_0/block_0/depthwise_conv2d/depthwise"], "attr": {"T": {"type": "DT_FLOAT"}}}, {"name": "StatefulPartitionedCall/model_6/stack_0/block_0/se_squeeze/Mean", "op": "Mean", "input": ["StatefulPartitionedCall/model_6/stack_0/block_0/depthwise_activation/mul", "StatefulPartitionedCall/model_6/stack_6/block_1/se_squeeze/Mean/reduction_indices"], "attr": {"T": {"type": "DT_FLOAT"}, "keep_dims": {"b": false}, "Tidx": {"type": "DT_INT32"}}}, {"name": "StatefulPartitionedCall/model_6/stack_0/block_0/se_reshape/Shape", "op": "Shape", "input": ["StatefulPartitionedCall/model_6/stack_0/block_0/se_squeeze/Mean"], "attr": {"out_type": {"type": "DT_INT32"}, "T": {"type": "DT_FLOAT"}}}, {"name": "StatefulPartitionedCall/model_6/stack_0/block_0/se_reshape/strided_slice", "op": "StridedSlice", "input": ["StatefulPartitionedCall/model_6/stack_0/block_0/se_reshape/Shape", "StatefulPartitionedCall/model_6/stack_6/block_1/se_reshape/strided_slice/stack", "StatefulPartitionedCall/model_6/stack_6/block_1/se_reshape/strided_slice/stack_1", "StatefulPartitionedCall/model_6/stack_6/block_1/se_reshape/strided_slice/stack_1"], "attr": {"T": {"type": "DT_INT32"}, "shrink_axis_mask": {"i": "1"}, "begin_mask": {"i": "0"}, "ellipsis_mask": {"i": "0"}, "end_mask": {"i": "0"}, "new_axis_mask": {"i": "0"}, "Index": {"type": "DT_INT32"}}}, {"name": "StatefulPartitionedCall/model_6/stack_0/block_0/se_reshape/Reshape/shape", "op": "Pack", "input": ["StatefulPartitionedCall/model_6/stack_0/block_0/se_reshape/strided_slice", "StatefulPartitionedCall/model_6/stack_6/block_1/se_reshape/Reshape/shape/1", "StatefulPartitionedCall/model_6/stack_6/block_1/se_reshape/Reshape/shape/1", "StatefulPartitionedCall/model_6/stack_0/block_0/se_reshape/Reshape/shape/3"], "attr": {"N": {"i": "4"}, "axis": {"i": "0"}, "T": {"type": "DT_INT32"}}}, {"name": "StatefulPartitionedCall/model_6/stack_0/block_0/se_reshape/Reshape", "op": "Reshape", "input": ["StatefulPartitionedCall/model_6/stack_0/block_0/se_squeeze/Mean", "StatefulPartitionedCall/model_6/stack_0/block_0/se_reshape/Reshape/shape"], "attr": {"T": {"type": "DT_FLOAT"}, "Tshape": {"type": "DT_INT32"}}}, {"name": "StatefulPartitionedCall/model_6/stack_0/block_0/se_reduce_conv2d/BiasAdd", "op": "_FusedConv2D", "input": ["StatefulPartitionedCall/model_6/stack_0/block_0/se_reshape/Reshape", "Func/StatefulPartitionedCall/input/_12", "Func/StatefulPartitionedCall/input/_13"], "device": "/device:CPU:0", "attr": {"dilations": {"list": {"i": ["1", "1", "1", "1"]}}, "fused_ops": {"list": {"s": ["Qmlhc0FkZA=="]}}, "data_format": {"s": "TkhXQw=="}, "strides": {"list": {"i": ["1", "1", "1", "1"]}}, "T": {"type": "DT_FLOAT"}, "epsilon": {"f": 0.0}, "use_cudnn_on_gpu": {"b": true}, "num_args": {"i": "1"}, "explicit_paddings": {"list": {}}, "padding": {"s": "U0FNRQ=="}}}, {"name": "StatefulPartitionedCall/model_6/stack_0/block_0/se_reduce_activation/Sigmoid", "op": "Sigmoid", "input": ["StatefulPartitionedCall/model_6/stack_0/block_0/se_reduce_conv2d/BiasAdd"], "attr": {"T": {"type": "DT_FLOAT"}}}, {"name": "StatefulPartitionedCall/model_6/stack_0/block_0/se_reduce_activation/mul", "op": "Mul", "input": ["StatefulPartitionedCall/model_6/stack_0/block_0/se_reduce_activation/Sigmoid", "StatefulPartitionedCall/model_6/stack_0/block_0/se_reduce_conv2d/BiasAdd"], "attr": {"T": {"type": "DT_FLOAT"}}}, {"name": "StatefulPartitionedCall/model_6/stack_0/block_0/se_expand_conv2d/BiasAdd", "op": "_FusedConv2D", "input": ["StatefulPartitionedCall/model_6/stack_0/block_0/se_reduce_activation/mul", "Func/StatefulPartitionedCall/input/_14", "Func/StatefulPartitionedCall/input/_15"], "device": "/device:CPU:0", "attr": {"fused_ops": {"list": {"s": ["Qmlhc0FkZA=="]}}, "use_cudnn_on_gpu": {"b": true}, "explicit_paddings": {"list": {}}, "strides": {"list": {"i": ["1", "1", "1", "1"]}}, "dilations": {"list": {"i": ["1", "1", "1", "1"]}}, "num_args": {"i": "1"}, "T": {"type": "DT_FLOAT"}, "epsilon": {"f": 0.0}, "data_format": {"s": "TkhXQw=="}, "padding": {"s": "U0FNRQ=="}}}, {"name": "StatefulPartitionedCall/model_6/stack_0/block_0/se_expand_activation/Sigmoid", "op": "Sigmoid", "input": ["StatefulPartitionedCall/model_6/stack_0/block_0/se_expand_conv2d/BiasAdd"], "attr": {"T": {"type": "DT_FLOAT"}}}, {"name": "StatefulPartitionedCall/model_6/stack_0/block_0/se_excite/mul", "op": "Mul", "input": ["StatefulPartitionedCall/model_6/stack_0/block_0/depthwise_activation/mul", "StatefulPartitionedCall/model_6/stack_0/block_0/se_expand_activation/Sigmoid"], "attr": {"T": {"type": "DT_FLOAT"}}}, {"name": "StatefulPartitionedCall/model_6/stack_0/block_0/project_bn/FusedBatchNormV3", "op": "_FusedConv2D", "input": ["StatefulPartitionedCall/model_6/stack_0/block_0/se_excite/mul", "StatefulPartitionedCall/model_6/stack_0/block_0/project_conv2d/Conv2D_weights", "StatefulPartitionedCall/model_6/stack_0/block_0/project_conv2d/Conv2D_bn_offset"], "device": "/device:CPU:0", "attr": {"num_args": {"i": "1"}, "use_cudnn_on_gpu": {"b": true}, "epsilon": {"f": 0.0}, "strides": {"list": {"i": ["1", "1", "1", "1"]}}, "fused_ops": {"list": {"s": ["Qmlhc0FkZA=="]}}, "explicit_paddings": {"list": {}}, "dilations": {"list": {"i": ["1", "1", "1", "1"]}}, "data_format": {"s": "TkhXQw=="}, "T": {"type": "DT_FLOAT"}, "padding": {"s": "U0FNRQ=="}}}, {"name": "StatefulPartitionedCall/model_6/stack_0/block_1/depthwise_conv2d/depthwise", "op": "FusedDepthwiseConv2dNative", "input": ["StatefulPartitionedCall/model_6/stack_0/block_0/project_bn/FusedBatchNormV3", "StatefulPartitionedCall/model_6/stack_0/block_1/depthwise_conv2d/depthwise_weights", "StatefulPartitionedCall/model_6/stack_0/block_1/depthwise_conv2d/depthwise_bn_offset"], "attr": {"dilations": {"list": {"i": ["1", "1", "1", "1"]}}, "num_args": {"i": "1"}, "data_format": {"s": "TkhXQw=="}, "fused_ops": {"list": {"s": ["Qmlhc0FkZA=="]}}, "padding": {"s": "U0FNRQ=="}, "T": {"type": "DT_FLOAT"}, "strides": {"list": {"i": ["1", "1", "1", "1"]}}}}, {"name": "StatefulPartitionedCall/model_6/stack_0/block_1/depthwise_activation/Sigmoid", "op": "Sigmoid", "input": ["StatefulPartitionedCall/model_6/stack_0/block_1/depthwise_conv2d/depthwise"], "attr": {"T": {"type": "DT_FLOAT"}}}, {"name": "StatefulPartitionedCall/model_6/stack_0/block_1/depthwise_activation/mul", "op": "Mul", "input": ["StatefulPartitionedCall/model_6/stack_0/block_1/depthwise_activation/Sigmoid", "StatefulPartitionedCall/model_6/stack_0/block_1/depthwise_conv2d/depthwise"], "attr": {"T": {"type": "DT_FLOAT"}}}, {"name": "StatefulPartitionedCall/model_6/stack_0/block_1/se_squeeze/Mean", "op": "Mean", "input": ["StatefulPartitionedCall/model_6/stack_0/block_1/depthwise_activation/mul", "StatefulPartitionedCall/model_6/stack_6/block_1/se_squeeze/Mean/reduction_indices"], "attr": {"T": {"type": "DT_FLOAT"}, "keep_dims": {"b": false}, "Tidx": {"type": "DT_INT32"}}}, {"name": "StatefulPartitionedCall/model_6/stack_0/block_1/se_reshape/Shape", "op": "Shape", "input": ["StatefulPartitionedCall/model_6/stack_0/block_1/se_squeeze/Mean"], "attr": {"out_type": {"type": "DT_INT32"}, "T": {"type": "DT_FLOAT"}}}, {"name": "StatefulPartitionedCall/model_6/stack_0/block_1/se_reshape/strided_slice", "op": "StridedSlice", "input": ["StatefulPartitionedCall/model_6/stack_0/block_1/se_reshape/Shape", "StatefulPartitionedCall/model_6/stack_6/block_1/se_reshape/strided_slice/stack", "StatefulPartitionedCall/model_6/stack_6/block_1/se_reshape/strided_slice/stack_1", "StatefulPartitionedCall/model_6/stack_6/block_1/se_reshape/strided_slice/stack_1"], "attr": {"T": {"type": "DT_INT32"}, "Index": {"type": "DT_INT32"}, "new_axis_mask": {"i": "0"}, "ellipsis_mask": {"i": "0"}, "begin_mask": {"i": "0"}, "end_mask": {"i": "0"}, "shrink_axis_mask": {"i": "1"}}}, {"name": "StatefulPartitionedCall/model_6/stack_0/block_1/se_reshape/Reshape/shape", "op": "Pack", "input": ["StatefulPartitionedCall/model_6/stack_0/block_1/se_reshape/strided_slice", "StatefulPartitionedCall/model_6/stack_6/block_1/se_reshape/Reshape/shape/1", "StatefulPartitionedCall/model_6/stack_6/block_1/se_reshape/Reshape/shape/1", "StatefulPartitionedCall/model_6/stack_0/block_1/se_reshape/Reshape/shape/3"], "attr": {"axis": {"i": "0"}, "T": {"type": "DT_INT32"}, "N": {"i": "4"}}}, {"name": "StatefulPartitionedCall/model_6/stack_0/block_1/se_reshape/Reshape", "op": "Reshape", "input": ["StatefulPartitionedCall/model_6/stack_0/block_1/se_squeeze/Mean", "StatefulPartitionedCall/model_6/stack_0/block_1/se_reshape/Reshape/shape"], "attr": {"T": {"type": "DT_FLOAT"}, "Tshape": {"type": "DT_INT32"}}}, {"name": "StatefulPartitionedCall/model_6/stack_0/block_1/se_reduce_conv2d/BiasAdd", "op": "_FusedConv2D", "input": ["StatefulPartitionedCall/model_6/stack_0/block_1/se_reshape/Reshape", "Func/StatefulPartitionedCall/input/_26", "Func/StatefulPartitionedCall/input/_27"], "device": "/device:CPU:0", "attr": {"fused_ops": {"list": {"s": ["Qmlhc0FkZA=="]}}, "explicit_paddings": {"list": {}}, "T": {"type": "DT_FLOAT"}, "strides": {"list": {"i": ["1", "1", "1", "1"]}}, "use_cudnn_on_gpu": {"b": true}, "data_format": {"s": "TkhXQw=="}, "num_args": {"i": "1"}, "padding": {"s": "U0FNRQ=="}, "epsilon": {"f": 0.0}, "dilations": {"list": {"i": ["1", "1", "1", "1"]}}}}, {"name": "StatefulPartitionedCall/model_6/stack_0/block_1/se_reduce_activation/Sigmoid", "op": "Sigmoid", "input": ["StatefulPartitionedCall/model_6/stack_0/block_1/se_reduce_conv2d/BiasAdd"], "attr": {"T": {"type": "DT_FLOAT"}}}, {"name": "StatefulPartitionedCall/model_6/stack_0/block_1/se_reduce_activation/mul", "op": "Mul", "input": ["StatefulPartitionedCall/model_6/stack_0/block_1/se_reduce_activation/Sigmoid", "StatefulPartitionedCall/model_6/stack_0/block_1/se_reduce_conv2d/BiasAdd"], "attr": {"T": {"type": "DT_FLOAT"}}}, {"name": "StatefulPartitionedCall/model_6/stack_0/block_1/se_expand_conv2d/BiasAdd", "op": "_FusedConv2D", "input": ["StatefulPartitionedCall/model_6/stack_0/block_1/se_reduce_activation/mul", "Func/StatefulPartitionedCall/input/_28", "Func/StatefulPartitionedCall/input/_29"], "device": "/device:CPU:0", "attr": {"T": {"type": "DT_FLOAT"}, "explicit_paddings": {"list": {}}, "padding": {"s": "U0FNRQ=="}, "data_format": {"s": "TkhXQw=="}, "strides": {"list": {"i": ["1", "1", "1", "1"]}}, "num_args": {"i": "1"}, "fused_ops": {"list": {"s": ["Qmlhc0FkZA=="]}}, "dilations": {"list": {"i": ["1", "1", "1", "1"]}}, "epsilon": {"f": 0.0}, "use_cudnn_on_gpu": {"b": true}}}, {"name": "StatefulPartitionedCall/model_6/stack_0/block_1/se_expand_activation/Sigmoid", "op": "Sigmoid", "input": ["StatefulPartitionedCall/model_6/stack_0/block_1/se_expand_conv2d/BiasAdd"], "attr": {"T": {"type": "DT_FLOAT"}}}, {"name": "StatefulPartitionedCall/model_6/stack_0/block_1/se_excite/mul", "op": "Mul", "input": ["StatefulPartitionedCall/model_6/stack_0/block_1/depthwise_activation/mul", "StatefulPartitionedCall/model_6/stack_0/block_1/se_expand_activation/Sigmoid"], "attr": {"T": {"type": "DT_FLOAT"}}}, {"name": "StatefulPartitionedCall/model_6/stack_0/block_1/project_bn/FusedBatchNormV3", "op": "_FusedConv2D", "input": ["StatefulPartitionedCall/model_6/stack_0/block_1/se_excite/mul", "StatefulPartitionedCall/model_6/stack_0/block_1/project_conv2d/Conv2D_weights", "StatefulPartitionedCall/model_6/stack_0/block_1/project_conv2d/Conv2D_bn_offset"], "device": "/device:CPU:0", "attr": {"padding": {"s": "U0FNRQ=="}, "dilations": {"list": {"i": ["1", "1", "1", "1"]}}, "T": {"type": "DT_FLOAT"}, "explicit_paddings": {"list": {}}, "data_format": {"s": "TkhXQw=="}, "epsilon": {"f": 0.0}, "strides": {"list": {"i": ["1", "1", "1", "1"]}}, "fused_ops": {"list": {"s": ["Qmlhc0FkZA=="]}}, "num_args": {"i": "1"}, "use_cudnn_on_gpu": {"b": true}}}, {"name": "StatefulPartitionedCall/model_6/stack_0/block_1/add/add", "op": "AddV2", "input": ["StatefulPartitionedCall/model_6/stack_0/block_0/project_bn/FusedBatchNormV3", "StatefulPartitionedCall/model_6/stack_0/block_1/project_bn/FusedBatchNormV3"], "attr": {"T": {"type": "DT_FLOAT"}}}, {"name": "StatefulPartitionedCall/model_6/stack_1/block_0/expand_bn/FusedBatchNormV3", "op": "_FusedConv2D", "input": ["StatefulPartitionedCall/model_6/stack_0/block_1/add/add", "StatefulPartitionedCall/model_6/stack_1/block_0/expand_conv2d/Conv2D_weights", "StatefulPartitionedCall/model_6/stack_1/block_0/expand_conv2d/Conv2D_bn_offset"], "device": "/device:CPU:0", "attr": {"strides": {"list": {"i": ["1", "1", "1", "1"]}}, "fused_ops": {"list": {"s": ["Qmlhc0FkZA=="]}}, "data_format": {"s": "TkhXQw=="}, "dilations": {"list": {"i": ["1", "1", "1", "1"]}}, "use_cudnn_on_gpu": {"b": true}, "epsilon": {"f": 0.0}, "T": {"type": "DT_FLOAT"}, "explicit_paddings": {"list": {}}, "padding": {"s": "U0FNRQ=="}, "num_args": {"i": "1"}}}, {"name": "StatefulPartitionedCall/model_6/stack_1/block_0/expand_activation/Sigmoid", "op": "Sigmoid", "input": ["StatefulPartitionedCall/model_6/stack_1/block_0/expand_bn/FusedBatchNormV3"], "attr": {"T": {"type": "DT_FLOAT"}}}, {"name": "StatefulPartitionedCall/model_6/stack_1/block_0/expand_activation/mul", "op": "Mul", "input": ["StatefulPartitionedCall/model_6/stack_1/block_0/expand_activation/Sigmoid", "StatefulPartitionedCall/model_6/stack_1/block_0/expand_bn/FusedBatchNormV3"], "attr": {"T": {"type": "DT_FLOAT"}}}, {"name": "StatefulPartitionedCall/model_6/stack_1/block_0/depthwise_conv2d/depthwise", "op": "FusedDepthwiseConv2dNative", "input": ["StatefulPartitionedCall/model_6/stack_1/block_0/expand_activation/mul", "StatefulPartitionedCall/model_6/stack_1/block_0/depthwise_conv2d/depthwise_weights", "StatefulPartitionedCall/model_6/stack_1/block_0/depthwise_conv2d/depthwise_bn_offset"], "attr": {"dilations": {"list": {"i": ["1", "1", "1", "1"]}}, "fused_ops": {"list": {"s": ["Qmlhc0FkZA=="]}}, "data_format": {"s": "TkhXQw=="}, "strides": {"list": {"i": ["1", "2", "2", "1"]}}, "T": {"type": "DT_FLOAT"}, "num_args": {"i": "1"}, "padding": {"s": "U0FNRQ=="}}}, {"name": "StatefulPartitionedCall/model_6/stack_1/block_0/depthwise_activation/Sigmoid", "op": "Sigmoid", "input": ["StatefulPartitionedCall/model_6/stack_1/block_0/depthwise_conv2d/depthwise"], "attr": {"T": {"type": "DT_FLOAT"}}}, {"name": "StatefulPartitionedCall/model_6/stack_1/block_0/depthwise_activation/mul", "op": "Mul", "input": ["StatefulPartitionedCall/model_6/stack_1/block_0/depthwise_activation/Sigmoid", "StatefulPartitionedCall/model_6/stack_1/block_0/depthwise_conv2d/depthwise"], "attr": {"T": {"type": "DT_FLOAT"}}}, {"name": "StatefulPartitionedCall/model_6/stack_1/block_0/se_squeeze/Mean", "op": "Mean", "input": ["StatefulPartitionedCall/model_6/stack_1/block_0/depthwise_activation/mul", "StatefulPartitionedCall/model_6/stack_6/block_1/se_squeeze/Mean/reduction_indices"], "attr": {"Tidx": {"type": "DT_INT32"}, "T": {"type": "DT_FLOAT"}, "keep_dims": {"b": false}}}, {"name": "StatefulPartitionedCall/model_6/stack_1/block_0/se_reshape/Shape", "op": "Shape", "input": ["StatefulPartitionedCall/model_6/stack_1/block_0/se_squeeze/Mean"], "attr": {"T": {"type": "DT_FLOAT"}, "out_type": {"type": "DT_INT32"}}}, {"name": "StatefulPartitionedCall/model_6/stack_1/block_0/se_reshape/strided_slice", "op": "StridedSlice", "input": ["StatefulPartitionedCall/model_6/stack_1/block_0/se_reshape/Shape", "StatefulPartitionedCall/model_6/stack_6/block_1/se_reshape/strided_slice/stack", "StatefulPartitionedCall/model_6/stack_6/block_1/se_reshape/strided_slice/stack_1", "StatefulPartitionedCall/model_6/stack_6/block_1/se_reshape/strided_slice/stack_1"], "attr": {"begin_mask": {"i": "0"}, "shrink_axis_mask": {"i": "1"}, "T": {"type": "DT_INT32"}, "end_mask": {"i": "0"}, "Index": {"type": "DT_INT32"}, "new_axis_mask": {"i": "0"}, "ellipsis_mask": {"i": "0"}}}, {"name": "StatefulPartitionedCall/model_6/stack_1/block_0/se_reshape/Reshape/shape", "op": "Pack", "input": ["StatefulPartitionedCall/model_6/stack_1/block_0/se_reshape/strided_slice", "StatefulPartitionedCall/model_6/stack_6/block_1/se_reshape/Reshape/shape/1", "StatefulPartitionedCall/model_6/stack_6/block_1/se_reshape/Reshape/shape/1", "StatefulPartitionedCall/model_6/stack_1/block_0/se_reshape/Reshape/shape/3"], "attr": {"axis": {"i": "0"}, "N": {"i": "4"}, "T": {"type": "DT_INT32"}}}, {"name": "StatefulPartitionedCall/model_6/stack_1/block_0/se_reshape/Reshape", "op": "Reshape", "input": ["StatefulPartitionedCall/model_6/stack_1/block_0/se_squeeze/Mean", "StatefulPartitionedCall/model_6/stack_1/block_0/se_reshape/Reshape/shape"], "attr": {"Tshape": {"type": "DT_INT32"}, "T": {"type": "DT_FLOAT"}}}, {"name": "StatefulPartitionedCall/model_6/stack_1/block_0/se_reduce_conv2d/BiasAdd", "op": "_FusedConv2D", "input": ["StatefulPartitionedCall/model_6/stack_1/block_0/se_reshape/Reshape", "Func/StatefulPartitionedCall/input/_45", "Func/StatefulPartitionedCall/input/_46"], "device": "/device:CPU:0", "attr": {"fused_ops": {"list": {"s": ["Qmlhc0FkZA=="]}}, "epsilon": {"f": 0.0}, "dilations": {"list": {"i": ["1", "1", "1", "1"]}}, "use_cudnn_on_gpu": {"b": true}, "T": {"type": "DT_FLOAT"}, "explicit_paddings": {"list": {}}, "padding": {"s": "U0FNRQ=="}, "strides": {"list": {"i": ["1", "1", "1", "1"]}}, "data_format": {"s": "TkhXQw=="}, "num_args": {"i": "1"}}}, {"name": "StatefulPartitionedCall/model_6/stack_1/block_0/se_reduce_activation/Sigmoid", "op": "Sigmoid", "input": ["StatefulPartitionedCall/model_6/stack_1/block_0/se_reduce_conv2d/BiasAdd"], "attr": {"T": {"type": "DT_FLOAT"}}}, {"name": "StatefulPartitionedCall/model_6/stack_1/block_0/se_reduce_activation/mul", "op": "Mul", "input": ["StatefulPartitionedCall/model_6/stack_1/block_0/se_reduce_activation/Sigmoid", "StatefulPartitionedCall/model_6/stack_1/block_0/se_reduce_conv2d/BiasAdd"], "attr": {"T": {"type": "DT_FLOAT"}}}, {"name": "StatefulPartitionedCall/model_6/stack_1/block_0/se_expand_conv2d/BiasAdd", "op": "_FusedConv2D", "input": ["StatefulPartitionedCall/model_6/stack_1/block_0/se_reduce_activation/mul", "Func/StatefulPartitionedCall/input/_47", "Func/StatefulPartitionedCall/input/_48"], "device": "/device:CPU:0", "attr": {"T": {"type": "DT_FLOAT"}, "strides": {"list": {"i": ["1", "1", "1", "1"]}}, "fused_ops": {"list": {"s": ["Qmlhc0FkZA=="]}}, "explicit_paddings": {"list": {}}, "data_format": {"s": "TkhXQw=="}, "dilations": {"list": {"i": ["1", "1", "1", "1"]}}, "num_args": {"i": "1"}, "use_cudnn_on_gpu": {"b": true}, "padding": {"s": "U0FNRQ=="}, "epsilon": {"f": 0.0}}}, {"name": "StatefulPartitionedCall/model_6/stack_1/block_0/se_expand_activation/Sigmoid", "op": "Sigmoid", "input": ["StatefulPartitionedCall/model_6/stack_1/block_0/se_expand_conv2d/BiasAdd"], "attr": {"T": {"type": "DT_FLOAT"}}}, {"name": "StatefulPartitionedCall/model_6/stack_1/block_0/se_excite/mul", "op": "Mul", "input": ["StatefulPartitionedCall/model_6/stack_1/block_0/depthwise_activation/mul", "StatefulPartitionedCall/model_6/stack_1/block_0/se_expand_activation/Sigmoid"], "attr": {"T": {"type": "DT_FLOAT"}}}, {"name": "StatefulPartitionedCall/model_6/stack_1/block_0/project_bn/FusedBatchNormV3", "op": "_FusedConv2D", "input": ["StatefulPartitionedCall/model_6/stack_1/block_0/se_excite/mul", "StatefulPartitionedCall/model_6/stack_1/block_0/project_conv2d/Conv2D_weights", "StatefulPartitionedCall/model_6/stack_1/block_0/project_conv2d/Conv2D_bn_offset"], "device": "/device:CPU:0", "attr": {"use_cudnn_on_gpu": {"b": true}, "T": {"type": "DT_FLOAT"}, "epsilon": {"f": 0.0}, "explicit_paddings": {"list": {}}, "fused_ops": {"list": {"s": ["Qmlhc0FkZA=="]}}, "padding": {"s": "U0FNRQ=="}, "num_args": {"i": "1"}, "data_format": {"s": "TkhXQw=="}, "strides": {"list": {"i": ["1", "1", "1", "1"]}}, "dilations": {"list": {"i": ["1", "1", "1", "1"]}}}}, {"name": "StatefulPartitionedCall/model_6/stack_1/block_1/expand_bn/FusedBatchNormV3", "op": "_FusedConv2D", "input": ["StatefulPartitionedCall/model_6/stack_1/block_0/project_bn/FusedBatchNormV3", "StatefulPartitionedCall/model_6/stack_1/block_1/expand_conv2d/Conv2D_weights", "StatefulPartitionedCall/model_6/stack_1/block_1/expand_conv2d/Conv2D_bn_offset"], "device": "/device:CPU:0", "attr": {"use_cudnn_on_gpu": {"b": true}, "explicit_paddings": {"list": {}}, "T": {"type": "DT_FLOAT"}, "epsilon": {"f": 0.0}, "fused_ops": {"list": {"s": ["Qmlhc0FkZA=="]}}, "strides": {"list": {"i": ["1", "1", "1", "1"]}}, "dilations": {"list": {"i": ["1", "1", "1", "1"]}}, "padding": {"s": "U0FNRQ=="}, "num_args": {"i": "1"}, "data_format": {"s": "TkhXQw=="}}}, {"name": "StatefulPartitionedCall/model_6/stack_1/block_1/expand_activation/Sigmoid", "op": "Sigmoid", "input": ["StatefulPartitionedCall/model_6/stack_1/block_1/expand_bn/FusedBatchNormV3"], "attr": {"T": {"type": "DT_FLOAT"}}}, {"name": "StatefulPartitionedCall/model_6/stack_1/block_1/expand_activation/mul", "op": "Mul", "input": ["StatefulPartitionedCall/model_6/stack_1/block_1/expand_activation/Sigmoid", "StatefulPartitionedCall/model_6/stack_1/block_1/expand_bn/FusedBatchNormV3"], "attr": {"T": {"type": "DT_FLOAT"}}}, {"name": "StatefulPartitionedCall/model_6/stack_1/block_1/depthwise_conv2d/depthwise", "op": "FusedDepthwiseConv2dNative", "input": ["StatefulPartitionedCall/model_6/stack_1/block_1/expand_activation/mul", "StatefulPartitionedCall/model_6/stack_1/block_1/depthwise_conv2d/depthwise_weights", "StatefulPartitionedCall/model_6/stack_1/block_1/depthwise_conv2d/depthwise_bn_offset"], "attr": {"data_format": {"s": "TkhXQw=="}, "fused_ops": {"list": {"s": ["Qmlhc0FkZA=="]}}, "T": {"type": "DT_FLOAT"}, "num_args": {"i": "1"}, "strides": {"list": {"i": ["1", "1", "1", "1"]}}, "dilations": {"list": {"i": ["1", "1", "1", "1"]}}, "padding": {"s": "U0FNRQ=="}}}, {"name": "StatefulPartitionedCall/model_6/stack_1/block_1/depthwise_activation/Sigmoid", "op": "Sigmoid", "input": ["StatefulPartitionedCall/model_6/stack_1/block_1/depthwise_conv2d/depthwise"], "attr": {"T": {"type": "DT_FLOAT"}}}, {"name": "StatefulPartitionedCall/model_6/stack_1/block_1/depthwise_activation/mul", "op": "Mul", "input": ["StatefulPartitionedCall/model_6/stack_1/block_1/depthwise_activation/Sigmoid", "StatefulPartitionedCall/model_6/stack_1/block_1/depthwise_conv2d/depthwise"], "attr": {"T": {"type": "DT_FLOAT"}}}, {"name": "StatefulPartitionedCall/model_6/stack_1/block_1/se_squeeze/Mean", "op": "Mean", "input": ["StatefulPartitionedCall/model_6/stack_1/block_1/depthwise_activation/mul", "StatefulPartitionedCall/model_6/stack_6/block_1/se_squeeze/Mean/reduction_indices"], "attr": {"T": {"type": "DT_FLOAT"}, "Tidx": {"type": "DT_INT32"}, "keep_dims": {"b": false}}}, {"name": "StatefulPartitionedCall/model_6/stack_1/block_1/se_reshape/Shape", "op": "Shape", "input": ["StatefulPartitionedCall/model_6/stack_1/block_1/se_squeeze/Mean"], "attr": {"T": {"type": "DT_FLOAT"}, "out_type": {"type": "DT_INT32"}}}, {"name": "StatefulPartitionedCall/model_6/stack_1/block_1/se_reshape/strided_slice", "op": "StridedSlice", "input": ["StatefulPartitionedCall/model_6/stack_1/block_1/se_reshape/Shape", "StatefulPartitionedCall/model_6/stack_6/block_1/se_reshape/strided_slice/stack", "StatefulPartitionedCall/model_6/stack_6/block_1/se_reshape/strided_slice/stack_1", "StatefulPartitionedCall/model_6/stack_6/block_1/se_reshape/strided_slice/stack_1"], "attr": {"Index": {"type": "DT_INT32"}, "ellipsis_mask": {"i": "0"}, "end_mask": {"i": "0"}, "T": {"type": "DT_INT32"}, "begin_mask": {"i": "0"}, "new_axis_mask": {"i": "0"}, "shrink_axis_mask": {"i": "1"}}}, {"name": "StatefulPartitionedCall/model_6/stack_1/block_1/se_reshape/Reshape/shape", "op": "Pack", "input": ["StatefulPartitionedCall/model_6/stack_1/block_1/se_reshape/strided_slice", "StatefulPartitionedCall/model_6/stack_6/block_1/se_reshape/Reshape/shape/1", "StatefulPartitionedCall/model_6/stack_6/block_1/se_reshape/Reshape/shape/1", "StatefulPartitionedCall/model_6/stack_1/block_2/se_reshape/Reshape/shape/3"], "attr": {"T": {"type": "DT_INT32"}, "axis": {"i": "0"}, "N": {"i": "4"}}}, {"name": "StatefulPartitionedCall/model_6/stack_1/block_1/se_reshape/Reshape", "op": "Reshape", "input": ["StatefulPartitionedCall/model_6/stack_1/block_1/se_squeeze/Mean", "StatefulPartitionedCall/model_6/stack_1/block_1/se_reshape/Reshape/shape"], "attr": {"T": {"type": "DT_FLOAT"}, "Tshape": {"type": "DT_INT32"}}}, {"name": "StatefulPartitionedCall/model_6/stack_1/block_1/se_reduce_conv2d/BiasAdd", "op": "_FusedConv2D", "input": ["StatefulPartitionedCall/model_6/stack_1/block_1/se_reshape/Reshape", "Func/StatefulPartitionedCall/input/_64", "Func/StatefulPartitionedCall/input/_65"], "device": "/device:CPU:0", "attr": {"num_args": {"i": "1"}, "data_format": {"s": "TkhXQw=="}, "use_cudnn_on_gpu": {"b": true}, "T": {"type": "DT_FLOAT"}, "padding": {"s": "U0FNRQ=="}, "dilations": {"list": {"i": ["1", "1", "1", "1"]}}, "strides": {"list": {"i": ["1", "1", "1", "1"]}}, "explicit_paddings": {"list": {}}, "fused_ops": {"list": {"s": ["Qmlhc0FkZA=="]}}, "epsilon": {"f": 0.0}}}, {"name": "StatefulPartitionedCall/model_6/stack_1/block_1/se_reduce_activation/Sigmoid", "op": "Sigmoid", "input": ["StatefulPartitionedCall/model_6/stack_1/block_1/se_reduce_conv2d/BiasAdd"], "attr": {"T": {"type": "DT_FLOAT"}}}, {"name": "StatefulPartitionedCall/model_6/stack_1/block_1/se_reduce_activation/mul", "op": "Mul", "input": ["StatefulPartitionedCall/model_6/stack_1/block_1/se_reduce_activation/Sigmoid", "StatefulPartitionedCall/model_6/stack_1/block_1/se_reduce_conv2d/BiasAdd"], "attr": {"T": {"type": "DT_FLOAT"}}}, {"name": "StatefulPartitionedCall/model_6/stack_1/block_1/se_expand_conv2d/BiasAdd", "op": "_FusedConv2D", "input": ["StatefulPartitionedCall/model_6/stack_1/block_1/se_reduce_activation/mul", "Func/StatefulPartitionedCall/input/_66", "Func/StatefulPartitionedCall/input/_67"], "device": "/device:CPU:0", "attr": {"epsilon": {"f": 0.0}, "T": {"type": "DT_FLOAT"}, "padding": {"s": "U0FNRQ=="}, "strides": {"list": {"i": ["1", "1", "1", "1"]}}, "num_args": {"i": "1"}, "dilations": {"list": {"i": ["1", "1", "1", "1"]}}, "fused_ops": {"list": {"s": ["Qmlhc0FkZA=="]}}, "data_format": {"s": "TkhXQw=="}, "use_cudnn_on_gpu": {"b": true}, "explicit_paddings": {"list": {}}}}, {"name": "StatefulPartitionedCall/model_6/stack_1/block_1/se_expand_activation/Sigmoid", "op": "Sigmoid", "input": ["StatefulPartitionedCall/model_6/stack_1/block_1/se_expand_conv2d/BiasAdd"], "attr": {"T": {"type": "DT_FLOAT"}}}, {"name": "StatefulPartitionedCall/model_6/stack_1/block_1/se_excite/mul", "op": "Mul", "input": ["StatefulPartitionedCall/model_6/stack_1/block_1/depthwise_activation/mul", "StatefulPartitionedCall/model_6/stack_1/block_1/se_expand_activation/Sigmoid"], "attr": {"T": {"type": "DT_FLOAT"}}}, {"name": "StatefulPartitionedCall/model_6/stack_1/block_1/project_bn/FusedBatchNormV3", "op": "_FusedConv2D", "input": ["StatefulPartitionedCall/model_6/stack_1/block_1/se_excite/mul", "StatefulPartitionedCall/model_6/stack_1/block_1/project_conv2d/Conv2D_weights", "StatefulPartitionedCall/model_6/stack_1/block_1/project_conv2d/Conv2D_bn_offset"], "device": "/device:CPU:0", "attr": {"fused_ops": {"list": {"s": ["Qmlhc0FkZA=="]}}, "T": {"type": "DT_FLOAT"}, "strides": {"list": {"i": ["1", "1", "1", "1"]}}, "epsilon": {"f": 0.0}, "padding": {"s": "U0FNRQ=="}, "explicit_paddings": {"list": {}}, "num_args": {"i": "1"}, "dilations": {"list": {"i": ["1", "1", "1", "1"]}}, "use_cudnn_on_gpu": {"b": true}, "data_format": {"s": "TkhXQw=="}}}, {"name": "StatefulPartitionedCall/model_6/stack_1/block_1/add/add", "op": "AddV2", "input": ["StatefulPartitionedCall/model_6/stack_1/block_0/project_bn/FusedBatchNormV3", "StatefulPartitionedCall/model_6/stack_1/block_1/project_bn/FusedBatchNormV3"], "attr": {"T": {"type": "DT_FLOAT"}}}, {"name": "StatefulPartitionedCall/model_6/stack_1/block_2/expand_bn/FusedBatchNormV3", "op": "_FusedConv2D", "input": ["StatefulPartitionedCall/model_6/stack_1/block_1/add/add", "StatefulPartitionedCall/model_6/stack_1/block_2/expand_conv2d/Conv2D_weights", "StatefulPartitionedCall/model_6/stack_1/block_2/expand_conv2d/Conv2D_bn_offset"], "device": "/device:CPU:0", "attr": {"strides": {"list": {"i": ["1", "1", "1", "1"]}}, "dilations": {"list": {"i": ["1", "1", "1", "1"]}}, "padding": {"s": "U0FNRQ=="}, "explicit_paddings": {"list": {}}, "epsilon": {"f": 0.0}, "num_args": {"i": "1"}, "data_format": {"s": "TkhXQw=="}, "use_cudnn_on_gpu": {"b": true}, "fused_ops": {"list": {"s": ["Qmlhc0FkZA=="]}}, "T": {"type": "DT_FLOAT"}}}, {"name": "StatefulPartitionedCall/model_6/stack_1/block_2/expand_activation/Sigmoid", "op": "Sigmoid", "input": ["StatefulPartitionedCall/model_6/stack_1/block_2/expand_bn/FusedBatchNormV3"], "attr": {"T": {"type": "DT_FLOAT"}}}, {"name": "StatefulPartitionedCall/model_6/stack_1/block_2/expand_activation/mul", "op": "Mul", "input": ["StatefulPartitionedCall/model_6/stack_1/block_2/expand_activation/Sigmoid", "StatefulPartitionedCall/model_6/stack_1/block_2/expand_bn/FusedBatchNormV3"], "attr": {"T": {"type": "DT_FLOAT"}}}, {"name": "StatefulPartitionedCall/model_6/stack_1/block_2/depthwise_conv2d/depthwise", "op": "FusedDepthwiseConv2dNative", "input": ["StatefulPartitionedCall/model_6/stack_1/block_2/expand_activation/mul", "StatefulPartitionedCall/model_6/stack_1/block_2/depthwise_conv2d/depthwise_weights", "StatefulPartitionedCall/model_6/stack_1/block_2/depthwise_conv2d/depthwise_bn_offset"], "attr": {"strides": {"list": {"i": ["1", "1", "1", "1"]}}, "padding": {"s": "U0FNRQ=="}, "num_args": {"i": "1"}, "dilations": {"list": {"i": ["1", "1", "1", "1"]}}, "fused_ops": {"list": {"s": ["Qmlhc0FkZA=="]}}, "data_format": {"s": "TkhXQw=="}, "T": {"type": "DT_FLOAT"}}}, {"name": "StatefulPartitionedCall/model_6/stack_1/block_2/depthwise_activation/Sigmoid", "op": "Sigmoid", "input": ["StatefulPartitionedCall/model_6/stack_1/block_2/depthwise_conv2d/depthwise"], "attr": {"T": {"type": "DT_FLOAT"}}}, {"name": "StatefulPartitionedCall/model_6/stack_1/block_2/depthwise_activation/mul", "op": "Mul", "input": ["StatefulPartitionedCall/model_6/stack_1/block_2/depthwise_activation/Sigmoid", "StatefulPartitionedCall/model_6/stack_1/block_2/depthwise_conv2d/depthwise"], "attr": {"T": {"type": "DT_FLOAT"}}}, {"name": "StatefulPartitionedCall/model_6/stack_1/block_2/se_squeeze/Mean", "op": "Mean", "input": ["StatefulPartitionedCall/model_6/stack_1/block_2/depthwise_activation/mul", "StatefulPartitionedCall/model_6/stack_6/block_1/se_squeeze/Mean/reduction_indices"], "attr": {"keep_dims": {"b": false}, "Tidx": {"type": "DT_INT32"}, "T": {"type": "DT_FLOAT"}}}, {"name": "StatefulPartitionedCall/model_6/stack_1/block_2/se_reshape/Shape", "op": "Shape", "input": ["StatefulPartitionedCall/model_6/stack_1/block_2/se_squeeze/Mean"], "attr": {"out_type": {"type": "DT_INT32"}, "T": {"type": "DT_FLOAT"}}}, {"name": "StatefulPartitionedCall/model_6/stack_1/block_2/se_reshape/strided_slice", "op": "StridedSlice", "input": ["StatefulPartitionedCall/model_6/stack_1/block_2/se_reshape/Shape", "StatefulPartitionedCall/model_6/stack_6/block_1/se_reshape/strided_slice/stack", "StatefulPartitionedCall/model_6/stack_6/block_1/se_reshape/strided_slice/stack_1", "StatefulPartitionedCall/model_6/stack_6/block_1/se_reshape/strided_slice/stack_1"], "attr": {"Index": {"type": "DT_INT32"}, "T": {"type": "DT_INT32"}, "new_axis_mask": {"i": "0"}, "shrink_axis_mask": {"i": "1"}, "end_mask": {"i": "0"}, "begin_mask": {"i": "0"}, "ellipsis_mask": {"i": "0"}}}, {"name": "StatefulPartitionedCall/model_6/stack_1/block_2/se_reshape/Reshape/shape", "op": "Pack", "input": ["StatefulPartitionedCall/model_6/stack_1/block_2/se_reshape/strided_slice", "StatefulPartitionedCall/model_6/stack_6/block_1/se_reshape/Reshape/shape/1", "StatefulPartitionedCall/model_6/stack_6/block_1/se_reshape/Reshape/shape/1", "StatefulPartitionedCall/model_6/stack_1/block_2/se_reshape/Reshape/shape/3"], "attr": {"N": {"i": "4"}, "axis": {"i": "0"}, "T": {"type": "DT_INT32"}}}, {"name": "StatefulPartitionedCall/model_6/stack_1/block_2/se_reshape/Reshape", "op": "Reshape", "input": ["StatefulPartitionedCall/model_6/stack_1/block_2/se_squeeze/Mean", "StatefulPartitionedCall/model_6/stack_1/block_2/se_reshape/Reshape/shape"], "attr": {"Tshape": {"type": "DT_INT32"}, "T": {"type": "DT_FLOAT"}}}, {"name": "StatefulPartitionedCall/model_6/stack_1/block_2/se_reduce_conv2d/BiasAdd", "op": "_FusedConv2D", "input": ["StatefulPartitionedCall/model_6/stack_1/block_2/se_reshape/Reshape", "Func/StatefulPartitionedCall/input/_83", "Func/StatefulPartitionedCall/input/_84"], "device": "/device:CPU:0", "attr": {"strides": {"list": {"i": ["1", "1", "1", "1"]}}, "T": {"type": "DT_FLOAT"}, "data_format": {"s": "TkhXQw=="}, "dilations": {"list": {"i": ["1", "1", "1", "1"]}}, "padding": {"s": "U0FNRQ=="}, "num_args": {"i": "1"}, "explicit_paddings": {"list": {}}, "epsilon": {"f": 0.0}, "use_cudnn_on_gpu": {"b": true}, "fused_ops": {"list": {"s": ["Qmlhc0FkZA=="]}}}}, {"name": "StatefulPartitionedCall/model_6/stack_1/block_2/se_reduce_activation/Sigmoid", "op": "Sigmoid", "input": ["StatefulPartitionedCall/model_6/stack_1/block_2/se_reduce_conv2d/BiasAdd"], "attr": {"T": {"type": "DT_FLOAT"}}}, {"name": "StatefulPartitionedCall/model_6/stack_1/block_2/se_reduce_activation/mul", "op": "Mul", "input": ["StatefulPartitionedCall/model_6/stack_1/block_2/se_reduce_activation/Sigmoid", "StatefulPartitionedCall/model_6/stack_1/block_2/se_reduce_conv2d/BiasAdd"], "attr": {"T": {"type": "DT_FLOAT"}}}, {"name": "StatefulPartitionedCall/model_6/stack_1/block_2/se_expand_conv2d/BiasAdd", "op": "_FusedConv2D", "input": ["StatefulPartitionedCall/model_6/stack_1/block_2/se_reduce_activation/mul", "Func/StatefulPartitionedCall/input/_85", "Func/StatefulPartitionedCall/input/_86"], "device": "/device:CPU:0", "attr": {"num_args": {"i": "1"}, "use_cudnn_on_gpu": {"b": true}, "data_format": {"s": "TkhXQw=="}, "fused_ops": {"list": {"s": ["Qmlhc0FkZA=="]}}, "padding": {"s": "U0FNRQ=="}, "strides": {"list": {"i": ["1", "1", "1", "1"]}}, "epsilon": {"f": 0.0}, "explicit_paddings": {"list": {}}, "dilations": {"list": {"i": ["1", "1", "1", "1"]}}, "T": {"type": "DT_FLOAT"}}}, {"name": "StatefulPartitionedCall/model_6/stack_1/block_2/se_expand_activation/Sigmoid", "op": "Sigmoid", "input": ["StatefulPartitionedCall/model_6/stack_1/block_2/se_expand_conv2d/BiasAdd"], "attr": {"T": {"type": "DT_FLOAT"}}}, {"name": "StatefulPartitionedCall/model_6/stack_1/block_2/se_excite/mul", "op": "Mul", "input": ["StatefulPartitionedCall/model_6/stack_1/block_2/depthwise_activation/mul", "StatefulPartitionedCall/model_6/stack_1/block_2/se_expand_activation/Sigmoid"], "attr": {"T": {"type": "DT_FLOAT"}}}, {"name": "StatefulPartitionedCall/model_6/stack_1/block_2/project_bn/FusedBatchNormV3", "op": "_FusedConv2D", "input": ["StatefulPartitionedCall/model_6/stack_1/block_2/se_excite/mul", "StatefulPartitionedCall/model_6/stack_1/block_2/project_conv2d/Conv2D_weights", "StatefulPartitionedCall/model_6/stack_1/block_2/project_conv2d/Conv2D_bn_offset"], "device": "/device:CPU:0", "attr": {"dilations": {"list": {"i": ["1", "1", "1", "1"]}}, "use_cudnn_on_gpu": {"b": true}, "data_format": {"s": "TkhXQw=="}, "T": {"type": "DT_FLOAT"}, "fused_ops": {"list": {"s": ["Qmlhc0FkZA=="]}}, "explicit_paddings": {"list": {}}, "epsilon": {"f": 0.0}, "strides": {"list": {"i": ["1", "1", "1", "1"]}}, "padding": {"s": "U0FNRQ=="}, "num_args": {"i": "1"}}}, {"name": "StatefulPartitionedCall/model_6/stack_1/block_2/add/add", "op": "AddV2", "input": ["StatefulPartitionedCall/model_6/stack_1/block_1/add/add", "StatefulPartitionedCall/model_6/stack_1/block_2/project_bn/FusedBatchNormV3"], "attr": {"T": {"type": "DT_FLOAT"}}}, {"name": "StatefulPartitionedCall/model_6/stack_2/block_0/expand_bn/FusedBatchNormV3", "op": "_FusedConv2D", "input": ["StatefulPartitionedCall/model_6/stack_1/block_2/add/add", "StatefulPartitionedCall/model_6/stack_2/block_0/expand_conv2d/Conv2D_weights", "StatefulPartitionedCall/model_6/stack_2/block_0/expand_conv2d/Conv2D_bn_offset"], "device": "/device:CPU:0", "attr": {"strides": {"list": {"i": ["1", "1", "1", "1"]}}, "epsilon": {"f": 0.0}, "dilations": {"list": {"i": ["1", "1", "1", "1"]}}, "padding": {"s": "U0FNRQ=="}, "explicit_paddings": {"list": {}}, "num_args": {"i": "1"}, "data_format": {"s": "TkhXQw=="}, "fused_ops": {"list": {"s": ["Qmlhc0FkZA=="]}}, "T": {"type": "DT_FLOAT"}, "use_cudnn_on_gpu": {"b": true}}}, {"name": "StatefulPartitionedCall/model_6/stack_2/block_0/expand_activation/Sigmoid", "op": "Sigmoid", "input": ["StatefulPartitionedCall/model_6/stack_2/block_0/expand_bn/FusedBatchNormV3"], "attr": {"T": {"type": "DT_FLOAT"}}}, {"name": "StatefulPartitionedCall/model_6/stack_2/block_0/expand_activation/mul", "op": "Mul", "input": ["StatefulPartitionedCall/model_6/stack_2/block_0/expand_activation/Sigmoid", "StatefulPartitionedCall/model_6/stack_2/block_0/expand_bn/FusedBatchNormV3"], "attr": {"T": {"type": "DT_FLOAT"}}}, {"name": "StatefulPartitionedCall/model_6/stack_2/block_0/depthwise_conv2d/depthwise", "op": "FusedDepthwiseConv2dNative", "input": ["StatefulPartitionedCall/model_6/stack_2/block_0/expand_activation/mul", "StatefulPartitionedCall/model_6/stack_2/block_0/depthwise_conv2d/depthwise_weights", "StatefulPartitionedCall/model_6/stack_2/block_0/depthwise_conv2d/depthwise_bn_offset"], "attr": {"strides": {"list": {"i": ["1", "2", "2", "1"]}}, "num_args": {"i": "1"}, "data_format": {"s": "TkhXQw=="}, "T": {"type": "DT_FLOAT"}, "dilations": {"list": {"i": ["1", "1", "1", "1"]}}, "padding": {"s": "U0FNRQ=="}, "fused_ops": {"list": {"s": ["Qmlhc0FkZA=="]}}}}, {"name": "StatefulPartitionedCall/model_6/stack_2/block_0/depthwise_activation/Sigmoid", "op": "Sigmoid", "input": ["StatefulPartitionedCall/model_6/stack_2/block_0/depthwise_conv2d/depthwise"], "attr": {"T": {"type": "DT_FLOAT"}}}, {"name": "StatefulPartitionedCall/model_6/stack_2/block_0/depthwise_activation/mul", "op": "Mul", "input": ["StatefulPartitionedCall/model_6/stack_2/block_0/depthwise_activation/Sigmoid", "StatefulPartitionedCall/model_6/stack_2/block_0/depthwise_conv2d/depthwise"], "attr": {"T": {"type": "DT_FLOAT"}}}, {"name": "StatefulPartitionedCall/model_6/stack_2/block_0/se_squeeze/Mean", "op": "Mean", "input": ["StatefulPartitionedCall/model_6/stack_2/block_0/depthwise_activation/mul", "StatefulPartitionedCall/model_6/stack_6/block_1/se_squeeze/Mean/reduction_indices"], "attr": {"keep_dims": {"b": false}, "T": {"type": "DT_FLOAT"}, "Tidx": {"type": "DT_INT32"}}}, {"name": "StatefulPartitionedCall/model_6/stack_2/block_0/se_reshape/Shape", "op": "Shape", "input": ["StatefulPartitionedCall/model_6/stack_2/block_0/se_squeeze/Mean"], "attr": {"out_type": {"type": "DT_INT32"}, "T": {"type": "DT_FLOAT"}}}, {"name": "StatefulPartitionedCall/model_6/stack_2/block_0/se_reshape/strided_slice", "op": "StridedSlice", "input": ["StatefulPartitionedCall/model_6/stack_2/block_0/se_reshape/Shape", "StatefulPartitionedCall/model_6/stack_6/block_1/se_reshape/strided_slice/stack", "StatefulPartitionedCall/model_6/stack_6/block_1/se_reshape/strided_slice/stack_1", "StatefulPartitionedCall/model_6/stack_6/block_1/se_reshape/strided_slice/stack_1"], "attr": {"T": {"type": "DT_INT32"}, "new_axis_mask": {"i": "0"}, "Index": {"type": "DT_INT32"}, "begin_mask": {"i": "0"}, "shrink_axis_mask": {"i": "1"}, "end_mask": {"i": "0"}, "ellipsis_mask": {"i": "0"}}}, {"name": "StatefulPartitionedCall/model_6/stack_2/block_0/se_reshape/Reshape/shape", "op": "Pack", "input": ["StatefulPartitionedCall/model_6/stack_2/block_0/se_reshape/strided_slice", "StatefulPartitionedCall/model_6/stack_6/block_1/se_reshape/Reshape/shape/1", "StatefulPartitionedCall/model_6/stack_6/block_1/se_reshape/Reshape/shape/1", "StatefulPartitionedCall/model_6/stack_1/block_2/se_reshape/Reshape/shape/3"], "attr": {"T": {"type": "DT_INT32"}, "N": {"i": "4"}, "axis": {"i": "0"}}}, {"name": "StatefulPartitionedCall/model_6/stack_2/block_0/se_reshape/Reshape", "op": "Reshape", "input": ["StatefulPartitionedCall/model_6/stack_2/block_0/se_squeeze/Mean", "StatefulPartitionedCall/model_6/stack_2/block_0/se_reshape/Reshape/shape"], "attr": {"T": {"type": "DT_FLOAT"}, "Tshape": {"type": "DT_INT32"}}}, {"name": "StatefulPartitionedCall/model_6/stack_2/block_0/se_reduce_conv2d/BiasAdd", "op": "_FusedConv2D", "input": ["StatefulPartitionedCall/model_6/stack_2/block_0/se_reshape/Reshape", "Func/StatefulPartitionedCall/input/_102", "Func/StatefulPartitionedCall/input/_103"], "device": "/device:CPU:0", "attr": {"strides": {"list": {"i": ["1", "1", "1", "1"]}}, "padding": {"s": "U0FNRQ=="}, "explicit_paddings": {"list": {}}, "data_format": {"s": "TkhXQw=="}, "use_cudnn_on_gpu": {"b": true}, "epsilon": {"f": 0.0}, "T": {"type": "DT_FLOAT"}, "fused_ops": {"list": {"s": ["Qmlhc0FkZA=="]}}, "num_args": {"i": "1"}, "dilations": {"list": {"i": ["1", "1", "1", "1"]}}}}, {"name": "StatefulPartitionedCall/model_6/stack_2/block_0/se_reduce_activation/Sigmoid", "op": "Sigmoid", "input": ["StatefulPartitionedCall/model_6/stack_2/block_0/se_reduce_conv2d/BiasAdd"], "attr": {"T": {"type": "DT_FLOAT"}}}, {"name": "StatefulPartitionedCall/model_6/stack_2/block_0/se_reduce_activation/mul", "op": "Mul", "input": ["StatefulPartitionedCall/model_6/stack_2/block_0/se_reduce_activation/Sigmoid", "StatefulPartitionedCall/model_6/stack_2/block_0/se_reduce_conv2d/BiasAdd"], "attr": {"T": {"type": "DT_FLOAT"}}}, {"name": "StatefulPartitionedCall/model_6/stack_2/block_0/se_expand_conv2d/BiasAdd", "op": "_FusedConv2D", "input": ["StatefulPartitionedCall/model_6/stack_2/block_0/se_reduce_activation/mul", "Func/StatefulPartitionedCall/input/_104", "Func/StatefulPartitionedCall/input/_105"], "device": "/device:CPU:0", "attr": {"padding": {"s": "U0FNRQ=="}, "fused_ops": {"list": {"s": ["Qmlhc0FkZA=="]}}, "T": {"type": "DT_FLOAT"}, "data_format": {"s": "TkhXQw=="}, "dilations": {"list": {"i": ["1", "1", "1", "1"]}}, "num_args": {"i": "1"}, "strides": {"list": {"i": ["1", "1", "1", "1"]}}, "use_cudnn_on_gpu": {"b": true}, "explicit_paddings": {"list": {}}, "epsilon": {"f": 0.0}}}, {"name": "StatefulPartitionedCall/model_6/stack_2/block_0/se_expand_activation/Sigmoid", "op": "Sigmoid", "input": ["StatefulPartitionedCall/model_6/stack_2/block_0/se_expand_conv2d/BiasAdd"], "attr": {"T": {"type": "DT_FLOAT"}}}, {"name": "StatefulPartitionedCall/model_6/stack_2/block_0/se_excite/mul", "op": "Mul", "input": ["StatefulPartitionedCall/model_6/stack_2/block_0/depthwise_activation/mul", "StatefulPartitionedCall/model_6/stack_2/block_0/se_expand_activation/Sigmoid"], "attr": {"T": {"type": "DT_FLOAT"}}}, {"name": "StatefulPartitionedCall/model_6/stack_2/block_0/project_bn/FusedBatchNormV3", "op": "_FusedConv2D", "input": ["StatefulPartitionedCall/model_6/stack_2/block_0/se_excite/mul", "StatefulPartitionedCall/model_6/stack_2/block_0/project_conv2d/Conv2D_weights", "StatefulPartitionedCall/model_6/stack_2/block_0/project_conv2d/Conv2D_bn_offset"], "device": "/device:CPU:0", "attr": {"fused_ops": {"list": {"s": ["Qmlhc0FkZA=="]}}, "num_args": {"i": "1"}, "dilations": {"list": {"i": ["1", "1", "1", "1"]}}, "T": {"type": "DT_FLOAT"}, "padding": {"s": "U0FNRQ=="}, "strides": {"list": {"i": ["1", "1", "1", "1"]}}, "use_cudnn_on_gpu": {"b": true}, "epsilon": {"f": 0.0}, "explicit_paddings": {"list": {}}, "data_format": {"s": "TkhXQw=="}}}, {"name": "StatefulPartitionedCall/model_6/stack_2/block_1/expand_bn/FusedBatchNormV3", "op": "_FusedConv2D", "input": ["StatefulPartitionedCall/model_6/stack_2/block_0/project_bn/FusedBatchNormV3", "StatefulPartitionedCall/model_6/stack_2/block_1/expand_conv2d/Conv2D_weights", "StatefulPartitionedCall/model_6/stack_2/block_1/expand_conv2d/Conv2D_bn_offset"], "device": "/device:CPU:0", "attr": {"padding": {"s": "U0FNRQ=="}, "fused_ops": {"list": {"s": ["Qmlhc0FkZA=="]}}, "use_cudnn_on_gpu": {"b": true}, "explicit_paddings": {"list": {}}, "strides": {"list": {"i": ["1", "1", "1", "1"]}}, "T": {"type": "DT_FLOAT"}, "epsilon": {"f": 0.0}, "data_format": {"s": "TkhXQw=="}, "dilations": {"list": {"i": ["1", "1", "1", "1"]}}, "num_args": {"i": "1"}}}, {"name": "StatefulPartitionedCall/model_6/stack_2/block_1/expand_activation/Sigmoid", "op": "Sigmoid", "input": ["StatefulPartitionedCall/model_6/stack_2/block_1/expand_bn/FusedBatchNormV3"], "attr": {"T": {"type": "DT_FLOAT"}}}, {"name": "StatefulPartitionedCall/model_6/stack_2/block_1/expand_activation/mul", "op": "Mul", "input": ["StatefulPartitionedCall/model_6/stack_2/block_1/expand_activation/Sigmoid", "StatefulPartitionedCall/model_6/stack_2/block_1/expand_bn/FusedBatchNormV3"], "attr": {"T": {"type": "DT_FLOAT"}}}, {"name": "StatefulPartitionedCall/model_6/stack_2/block_1/depthwise_conv2d/depthwise", "op": "FusedDepthwiseConv2dNative", "input": ["StatefulPartitionedCall/model_6/stack_2/block_1/expand_activation/mul", "StatefulPartitionedCall/model_6/stack_2/block_1/depthwise_conv2d/depthwise_weights", "StatefulPartitionedCall/model_6/stack_2/block_1/depthwise_conv2d/depthwise_bn_offset"], "attr": {"fused_ops": {"list": {"s": ["Qmlhc0FkZA=="]}}, "padding": {"s": "U0FNRQ=="}, "strides": {"list": {"i": ["1", "1", "1", "1"]}}, "num_args": {"i": "1"}, "data_format": {"s": "TkhXQw=="}, "T": {"type": "DT_FLOAT"}, "dilations": {"list": {"i": ["1", "1", "1", "1"]}}}}, {"name": "StatefulPartitionedCall/model_6/stack_2/block_1/depthwise_activation/Sigmoid", "op": "Sigmoid", "input": ["StatefulPartitionedCall/model_6/stack_2/block_1/depthwise_conv2d/depthwise"], "attr": {"T": {"type": "DT_FLOAT"}}}, {"name": "StatefulPartitionedCall/model_6/stack_2/block_1/depthwise_activation/mul", "op": "Mul", "input": ["StatefulPartitionedCall/model_6/stack_2/block_1/depthwise_activation/Sigmoid", "StatefulPartitionedCall/model_6/stack_2/block_1/depthwise_conv2d/depthwise"], "attr": {"T": {"type": "DT_FLOAT"}}}, {"name": "StatefulPartitionedCall/model_6/stack_2/block_1/se_squeeze/Mean", "op": "Mean", "input": ["StatefulPartitionedCall/model_6/stack_2/block_1/depthwise_activation/mul", "StatefulPartitionedCall/model_6/stack_6/block_1/se_squeeze/Mean/reduction_indices"], "attr": {"Tidx": {"type": "DT_INT32"}, "keep_dims": {"b": false}, "T": {"type": "DT_FLOAT"}}}, {"name": "StatefulPartitionedCall/model_6/stack_2/block_1/se_reshape/Shape", "op": "Shape", "input": ["StatefulPartitionedCall/model_6/stack_2/block_1/se_squeeze/Mean"], "attr": {"T": {"type": "DT_FLOAT"}, "out_type": {"type": "DT_INT32"}}}, {"name": "StatefulPartitionedCall/model_6/stack_2/block_1/se_reshape/strided_slice", "op": "StridedSlice", "input": ["StatefulPartitionedCall/model_6/stack_2/block_1/se_reshape/Shape", "StatefulPartitionedCall/model_6/stack_6/block_1/se_reshape/strided_slice/stack", "StatefulPartitionedCall/model_6/stack_6/block_1/se_reshape/strided_slice/stack_1", "StatefulPartitionedCall/model_6/stack_6/block_1/se_reshape/strided_slice/stack_1"], "attr": {"ellipsis_mask": {"i": "0"}, "T": {"type": "DT_INT32"}, "Index": {"type": "DT_INT32"}, "shrink_axis_mask": {"i": "1"}, "begin_mask": {"i": "0"}, "end_mask": {"i": "0"}, "new_axis_mask": {"i": "0"}}}, {"name": "StatefulPartitionedCall/model_6/stack_2/block_1/se_reshape/Reshape/shape", "op": "Pack", "input": ["StatefulPartitionedCall/model_6/stack_2/block_1/se_reshape/strided_slice", "StatefulPartitionedCall/model_6/stack_6/block_1/se_reshape/Reshape/shape/1", "StatefulPartitionedCall/model_6/stack_6/block_1/se_reshape/Reshape/shape/1", "StatefulPartitionedCall/model_6/stack_2/block_2/se_reshape/Reshape/shape/3"], "attr": {"N": {"i": "4"}, "T": {"type": "DT_INT32"}, "axis": {"i": "0"}}}, {"name": "StatefulPartitionedCall/model_6/stack_2/block_1/se_reshape/Reshape", "op": "Reshape", "input": ["StatefulPartitionedCall/model_6/stack_2/block_1/se_squeeze/Mean", "StatefulPartitionedCall/model_6/stack_2/block_1/se_reshape/Reshape/shape"], "attr": {"Tshape": {"type": "DT_INT32"}, "T": {"type": "DT_FLOAT"}}}, {"name": "StatefulPartitionedCall/model_6/stack_2/block_1/se_reduce_conv2d/BiasAdd", "op": "_FusedConv2D", "input": ["StatefulPartitionedCall/model_6/stack_2/block_1/se_reshape/Reshape", "Func/StatefulPartitionedCall/input/_121", "Func/StatefulPartitionedCall/input/_122"], "device": "/device:CPU:0", "attr": {"explicit_paddings": {"list": {}}, "epsilon": {"f": 0.0}, "T": {"type": "DT_FLOAT"}, "padding": {"s": "U0FNRQ=="}, "fused_ops": {"list": {"s": ["Qmlhc0FkZA=="]}}, "use_cudnn_on_gpu": {"b": true}, "dilations": {"list": {"i": ["1", "1", "1", "1"]}}, "num_args": {"i": "1"}, "strides": {"list": {"i": ["1", "1", "1", "1"]}}, "data_format": {"s": "TkhXQw=="}}}, {"name": "StatefulPartitionedCall/model_6/stack_2/block_1/se_reduce_activation/Sigmoid", "op": "Sigmoid", "input": ["StatefulPartitionedCall/model_6/stack_2/block_1/se_reduce_conv2d/BiasAdd"], "attr": {"T": {"type": "DT_FLOAT"}}}, {"name": "StatefulPartitionedCall/model_6/stack_2/block_1/se_reduce_activation/mul", "op": "Mul", "input": ["StatefulPartitionedCall/model_6/stack_2/block_1/se_reduce_activation/Sigmoid", "StatefulPartitionedCall/model_6/stack_2/block_1/se_reduce_conv2d/BiasAdd"], "attr": {"T": {"type": "DT_FLOAT"}}}, {"name": "StatefulPartitionedCall/model_6/stack_2/block_1/se_expand_conv2d/BiasAdd", "op": "_FusedConv2D", "input": ["StatefulPartitionedCall/model_6/stack_2/block_1/se_reduce_activation/mul", "Func/StatefulPartitionedCall/input/_123", "Func/StatefulPartitionedCall/input/_124"], "device": "/device:CPU:0", "attr": {"num_args": {"i": "1"}, "fused_ops": {"list": {"s": ["Qmlhc0FkZA=="]}}, "use_cudnn_on_gpu": {"b": true}, "T": {"type": "DT_FLOAT"}, "strides": {"list": {"i": ["1", "1", "1", "1"]}}, "explicit_paddings": {"list": {}}, "dilations": {"list": {"i": ["1", "1", "1", "1"]}}, "padding": {"s": "U0FNRQ=="}, "data_format": {"s": "TkhXQw=="}, "epsilon": {"f": 0.0}}}, {"name": "StatefulPartitionedCall/model_6/stack_2/block_1/se_expand_activation/Sigmoid", "op": "Sigmoid", "input": ["StatefulPartitionedCall/model_6/stack_2/block_1/se_expand_conv2d/BiasAdd"], "attr": {"T": {"type": "DT_FLOAT"}}}, {"name": "StatefulPartitionedCall/model_6/stack_2/block_1/se_excite/mul", "op": "Mul", "input": ["StatefulPartitionedCall/model_6/stack_2/block_1/depthwise_activation/mul", "StatefulPartitionedCall/model_6/stack_2/block_1/se_expand_activation/Sigmoid"], "attr": {"T": {"type": "DT_FLOAT"}}}, {"name": "StatefulPartitionedCall/model_6/stack_2/block_1/project_bn/FusedBatchNormV3", "op": "_FusedConv2D", "input": ["StatefulPartitionedCall/model_6/stack_2/block_1/se_excite/mul", "StatefulPartitionedCall/model_6/stack_2/block_1/project_conv2d/Conv2D_weights", "StatefulPartitionedCall/model_6/stack_2/block_1/project_conv2d/Conv2D_bn_offset"], "device": "/device:CPU:0", "attr": {"padding": {"s": "U0FNRQ=="}, "explicit_paddings": {"list": {}}, "use_cudnn_on_gpu": {"b": true}, "T": {"type": "DT_FLOAT"}, "num_args": {"i": "1"}, "data_format": {"s": "TkhXQw=="}, "epsilon": {"f": 0.0}, "fused_ops": {"list": {"s": ["Qmlhc0FkZA=="]}}, "strides": {"list": {"i": ["1", "1", "1", "1"]}}, "dilations": {"list": {"i": ["1", "1", "1", "1"]}}}}, {"name": "StatefulPartitionedCall/model_6/stack_2/block_1/add/add", "op": "AddV2", "input": ["StatefulPartitionedCall/model_6/stack_2/block_0/project_bn/FusedBatchNormV3", "StatefulPartitionedCall/model_6/stack_2/block_1/project_bn/FusedBatchNormV3"], "attr": {"T": {"type": "DT_FLOAT"}}}, {"name": "StatefulPartitionedCall/model_6/stack_2/block_2/expand_bn/FusedBatchNormV3", "op": "_FusedConv2D", "input": ["StatefulPartitionedCall/model_6/stack_2/block_1/add/add", "StatefulPartitionedCall/model_6/stack_2/block_2/expand_conv2d/Conv2D_weights", "StatefulPartitionedCall/model_6/stack_2/block_2/expand_conv2d/Conv2D_bn_offset"], "device": "/device:CPU:0", "attr": {"data_format": {"s": "TkhXQw=="}, "T": {"type": "DT_FLOAT"}, "padding": {"s": "U0FNRQ=="}, "dilations": {"list": {"i": ["1", "1", "1", "1"]}}, "fused_ops": {"list": {"s": ["Qmlhc0FkZA=="]}}, "num_args": {"i": "1"}, "use_cudnn_on_gpu": {"b": true}, "strides": {"list": {"i": ["1", "1", "1", "1"]}}, "explicit_paddings": {"list": {}}, "epsilon": {"f": 0.0}}}, {"name": "StatefulPartitionedCall/model_6/stack_2/block_2/expand_activation/Sigmoid", "op": "Sigmoid", "input": ["StatefulPartitionedCall/model_6/stack_2/block_2/expand_bn/FusedBatchNormV3"], "attr": {"T": {"type": "DT_FLOAT"}}}, {"name": "StatefulPartitionedCall/model_6/stack_2/block_2/expand_activation/mul", "op": "Mul", "input": ["StatefulPartitionedCall/model_6/stack_2/block_2/expand_activation/Sigmoid", "StatefulPartitionedCall/model_6/stack_2/block_2/expand_bn/FusedBatchNormV3"], "attr": {"T": {"type": "DT_FLOAT"}}}, {"name": "StatefulPartitionedCall/model_6/stack_2/block_2/depthwise_conv2d/depthwise", "op": "FusedDepthwiseConv2dNative", "input": ["StatefulPartitionedCall/model_6/stack_2/block_2/expand_activation/mul", "StatefulPartitionedCall/model_6/stack_2/block_2/depthwise_conv2d/depthwise_weights", "StatefulPartitionedCall/model_6/stack_2/block_2/depthwise_conv2d/depthwise_bn_offset"], "attr": {"dilations": {"list": {"i": ["1", "1", "1", "1"]}}, "padding": {"s": "U0FNRQ=="}, "strides": {"list": {"i": ["1", "1", "1", "1"]}}, "T": {"type": "DT_FLOAT"}, "fused_ops": {"list": {"s": ["Qmlhc0FkZA=="]}}, "num_args": {"i": "1"}, "data_format": {"s": "TkhXQw=="}}}, {"name": "StatefulPartitionedCall/model_6/stack_2/block_2/depthwise_activation/Sigmoid", "op": "Sigmoid", "input": ["StatefulPartitionedCall/model_6/stack_2/block_2/depthwise_conv2d/depthwise"], "attr": {"T": {"type": "DT_FLOAT"}}}, {"name": "StatefulPartitionedCall/model_6/stack_2/block_2/depthwise_activation/mul", "op": "Mul", "input": ["StatefulPartitionedCall/model_6/stack_2/block_2/depthwise_activation/Sigmoid", "StatefulPartitionedCall/model_6/stack_2/block_2/depthwise_conv2d/depthwise"], "attr": {"T": {"type": "DT_FLOAT"}}}, {"name": "StatefulPartitionedCall/model_6/stack_2/block_2/se_squeeze/Mean", "op": "Mean", "input": ["StatefulPartitionedCall/model_6/stack_2/block_2/depthwise_activation/mul", "StatefulPartitionedCall/model_6/stack_6/block_1/se_squeeze/Mean/reduction_indices"], "attr": {"Tidx": {"type": "DT_INT32"}, "keep_dims": {"b": false}, "T": {"type": "DT_FLOAT"}}}, {"name": "StatefulPartitionedCall/model_6/stack_2/block_2/se_reshape/Shape", "op": "Shape", "input": ["StatefulPartitionedCall/model_6/stack_2/block_2/se_squeeze/Mean"], "attr": {"T": {"type": "DT_FLOAT"}, "out_type": {"type": "DT_INT32"}}}, {"name": "StatefulPartitionedCall/model_6/stack_2/block_2/se_reshape/strided_slice", "op": "StridedSlice", "input": ["StatefulPartitionedCall/model_6/stack_2/block_2/se_reshape/Shape", "StatefulPartitionedCall/model_6/stack_6/block_1/se_reshape/strided_slice/stack", "StatefulPartitionedCall/model_6/stack_6/block_1/se_reshape/strided_slice/stack_1", "StatefulPartitionedCall/model_6/stack_6/block_1/se_reshape/strided_slice/stack_1"], "attr": {"T": {"type": "DT_INT32"}, "shrink_axis_mask": {"i": "1"}, "Index": {"type": "DT_INT32"}, "begin_mask": {"i": "0"}, "ellipsis_mask": {"i": "0"}, "new_axis_mask": {"i": "0"}, "end_mask": {"i": "0"}}}, {"name": "StatefulPartitionedCall/model_6/stack_2/block_2/se_reshape/Reshape/shape", "op": "Pack", "input": ["StatefulPartitionedCall/model_6/stack_2/block_2/se_reshape/strided_slice", "StatefulPartitionedCall/model_6/stack_6/block_1/se_reshape/Reshape/shape/1", "StatefulPartitionedCall/model_6/stack_6/block_1/se_reshape/Reshape/shape/1", "StatefulPartitionedCall/model_6/stack_2/block_2/se_reshape/Reshape/shape/3"], "attr": {"axis": {"i": "0"}, "T": {"type": "DT_INT32"}, "N": {"i": "4"}}}, {"name": "StatefulPartitionedCall/model_6/stack_2/block_2/se_reshape/Reshape", "op": "Reshape", "input": ["StatefulPartitionedCall/model_6/stack_2/block_2/se_squeeze/Mean", "StatefulPartitionedCall/model_6/stack_2/block_2/se_reshape/Reshape/shape"], "attr": {"T": {"type": "DT_FLOAT"}, "Tshape": {"type": "DT_INT32"}}}, {"name": "StatefulPartitionedCall/model_6/stack_2/block_2/se_reduce_conv2d/BiasAdd", "op": "_FusedConv2D", "input": ["StatefulPartitionedCall/model_6/stack_2/block_2/se_reshape/Reshape", "Func/StatefulPartitionedCall/input/_140", "Func/StatefulPartitionedCall/input/_141"], "device": "/device:CPU:0", "attr": {"T": {"type": "DT_FLOAT"}, "explicit_paddings": {"list": {}}, "use_cudnn_on_gpu": {"b": true}, "num_args": {"i": "1"}, "data_format": {"s": "TkhXQw=="}, "dilations": {"list": {"i": ["1", "1", "1", "1"]}}, "padding": {"s": "U0FNRQ=="}, "strides": {"list": {"i": ["1", "1", "1", "1"]}}, "fused_ops": {"list": {"s": ["Qmlhc0FkZA=="]}}, "epsilon": {"f": 0.0}}}, {"name": "StatefulPartitionedCall/model_6/stack_2/block_2/se_reduce_activation/Sigmoid", "op": "Sigmoid", "input": ["StatefulPartitionedCall/model_6/stack_2/block_2/se_reduce_conv2d/BiasAdd"], "attr": {"T": {"type": "DT_FLOAT"}}}, {"name": "StatefulPartitionedCall/model_6/stack_2/block_2/se_reduce_activation/mul", "op": "Mul", "input": ["StatefulPartitionedCall/model_6/stack_2/block_2/se_reduce_activation/Sigmoid", "StatefulPartitionedCall/model_6/stack_2/block_2/se_reduce_conv2d/BiasAdd"], "attr": {"T": {"type": "DT_FLOAT"}}}, {"name": "StatefulPartitionedCall/model_6/stack_2/block_2/se_expand_conv2d/BiasAdd", "op": "_FusedConv2D", "input": ["StatefulPartitionedCall/model_6/stack_2/block_2/se_reduce_activation/mul", "Func/StatefulPartitionedCall/input/_142", "Func/StatefulPartitionedCall/input/_143"], "device": "/device:CPU:0", "attr": {"strides": {"list": {"i": ["1", "1", "1", "1"]}}, "num_args": {"i": "1"}, "data_format": {"s": "TkhXQw=="}, "use_cudnn_on_gpu": {"b": true}, "epsilon": {"f": 0.0}, "explicit_paddings": {"list": {}}, "dilations": {"list": {"i": ["1", "1", "1", "1"]}}, "padding": {"s": "U0FNRQ=="}, "T": {"type": "DT_FLOAT"}, "fused_ops": {"list": {"s": ["Qmlhc0FkZA=="]}}}}, {"name": "StatefulPartitionedCall/model_6/stack_2/block_2/se_expand_activation/Sigmoid", "op": "Sigmoid", "input": ["StatefulPartitionedCall/model_6/stack_2/block_2/se_expand_conv2d/BiasAdd"], "attr": {"T": {"type": "DT_FLOAT"}}}, {"name": "StatefulPartitionedCall/model_6/stack_2/block_2/se_excite/mul", "op": "Mul", "input": ["StatefulPartitionedCall/model_6/stack_2/block_2/depthwise_activation/mul", "StatefulPartitionedCall/model_6/stack_2/block_2/se_expand_activation/Sigmoid"], "attr": {"T": {"type": "DT_FLOAT"}}}, {"name": "StatefulPartitionedCall/model_6/stack_2/block_2/project_bn/FusedBatchNormV3", "op": "_FusedConv2D", "input": ["StatefulPartitionedCall/model_6/stack_2/block_2/se_excite/mul", "StatefulPartitionedCall/model_6/stack_2/block_2/project_conv2d/Conv2D_weights", "StatefulPartitionedCall/model_6/stack_2/block_2/project_conv2d/Conv2D_bn_offset"], "device": "/device:CPU:0", "attr": {"explicit_paddings": {"list": {}}, "data_format": {"s": "TkhXQw=="}, "dilations": {"list": {"i": ["1", "1", "1", "1"]}}, "T": {"type": "DT_FLOAT"}, "num_args": {"i": "1"}, "strides": {"list": {"i": ["1", "1", "1", "1"]}}, "fused_ops": {"list": {"s": ["Qmlhc0FkZA=="]}}, "epsilon": {"f": 0.0}, "use_cudnn_on_gpu": {"b": true}, "padding": {"s": "U0FNRQ=="}}}, {"name": "StatefulPartitionedCall/model_6/stack_2/block_2/add/add", "op": "AddV2", "input": ["StatefulPartitionedCall/model_6/stack_2/block_1/add/add", "StatefulPartitionedCall/model_6/stack_2/block_2/project_bn/FusedBatchNormV3"], "attr": {"T": {"type": "DT_FLOAT"}}}, {"name": "StatefulPartitionedCall/model_6/stack_3/block_0/expand_bn/FusedBatchNormV3", "op": "_FusedConv2D", "input": ["StatefulPartitionedCall/model_6/stack_2/block_2/add/add", "StatefulPartitionedCall/model_6/stack_3/block_0/expand_conv2d/Conv2D_weights", "StatefulPartitionedCall/model_6/stack_3/block_0/expand_conv2d/Conv2D_bn_offset"], "device": "/device:CPU:0", "attr": {"data_format": {"s": "TkhXQw=="}, "padding": {"s": "U0FNRQ=="}, "use_cudnn_on_gpu": {"b": true}, "num_args": {"i": "1"}, "dilations": {"list": {"i": ["1", "1", "1", "1"]}}, "fused_ops": {"list": {"s": ["Qmlhc0FkZA=="]}}, "T": {"type": "DT_FLOAT"}, "explicit_paddings": {"list": {}}, "epsilon": {"f": 0.0}, "strides": {"list": {"i": ["1", "1", "1", "1"]}}}}, {"name": "StatefulPartitionedCall/model_6/stack_3/block_0/expand_activation/Sigmoid", "op": "Sigmoid", "input": ["StatefulPartitionedCall/model_6/stack_3/block_0/expand_bn/FusedBatchNormV3"], "attr": {"T": {"type": "DT_FLOAT"}}}, {"name": "StatefulPartitionedCall/model_6/stack_3/block_0/expand_activation/mul", "op": "Mul", "input": ["StatefulPartitionedCall/model_6/stack_3/block_0/expand_activation/Sigmoid", "StatefulPartitionedCall/model_6/stack_3/block_0/expand_bn/FusedBatchNormV3"], "attr": {"T": {"type": "DT_FLOAT"}}}, {"name": "StatefulPartitionedCall/model_6/stack_3/block_0/depthwise_conv2d/depthwise", "op": "FusedDepthwiseConv2dNative", "input": ["StatefulPartitionedCall/model_6/stack_3/block_0/expand_activation/mul", "StatefulPartitionedCall/model_6/stack_3/block_0/depthwise_conv2d/depthwise_weights", "StatefulPartitionedCall/model_6/stack_3/block_0/depthwise_conv2d/depthwise_bn_offset"], "attr": {"num_args": {"i": "1"}, "padding": {"s": "U0FNRQ=="}, "T": {"type": "DT_FLOAT"}, "fused_ops": {"list": {"s": ["Qmlhc0FkZA=="]}}, "strides": {"list": {"i": ["1", "2", "2", "1"]}}, "dilations": {"list": {"i": ["1", "1", "1", "1"]}}, "data_format": {"s": "TkhXQw=="}}}, {"name": "StatefulPartitionedCall/model_6/stack_3/block_0/depthwise_activation/Sigmoid", "op": "Sigmoid", "input": ["StatefulPartitionedCall/model_6/stack_3/block_0/depthwise_conv2d/depthwise"], "attr": {"T": {"type": "DT_FLOAT"}}}, {"name": "StatefulPartitionedCall/model_6/stack_3/block_0/depthwise_activation/mul", "op": "Mul", "input": ["StatefulPartitionedCall/model_6/stack_3/block_0/depthwise_activation/Sigmoid", "StatefulPartitionedCall/model_6/stack_3/block_0/depthwise_conv2d/depthwise"], "attr": {"T": {"type": "DT_FLOAT"}}}, {"name": "StatefulPartitionedCall/model_6/stack_3/block_0/se_squeeze/Mean", "op": "Mean", "input": ["StatefulPartitionedCall/model_6/stack_3/block_0/depthwise_activation/mul", "StatefulPartitionedCall/model_6/stack_6/block_1/se_squeeze/Mean/reduction_indices"], "attr": {"keep_dims": {"b": false}, "T": {"type": "DT_FLOAT"}, "Tidx": {"type": "DT_INT32"}}}, {"name": "StatefulPartitionedCall/model_6/stack_3/block_0/se_reshape/Shape", "op": "Shape", "input": ["StatefulPartitionedCall/model_6/stack_3/block_0/se_squeeze/Mean"], "attr": {"T": {"type": "DT_FLOAT"}, "out_type": {"type": "DT_INT32"}}}, {"name": "StatefulPartitionedCall/model_6/stack_3/block_0/se_reshape/strided_slice", "op": "StridedSlice", "input": ["StatefulPartitionedCall/model_6/stack_3/block_0/se_reshape/Shape", "StatefulPartitionedCall/model_6/stack_6/block_1/se_reshape/strided_slice/stack", "StatefulPartitionedCall/model_6/stack_6/block_1/se_reshape/strided_slice/stack_1", "StatefulPartitionedCall/model_6/stack_6/block_1/se_reshape/strided_slice/stack_1"], "attr": {"T": {"type": "DT_INT32"}, "shrink_axis_mask": {"i": "1"}, "end_mask": {"i": "0"}, "Index": {"type": "DT_INT32"}, "begin_mask": {"i": "0"}, "ellipsis_mask": {"i": "0"}, "new_axis_mask": {"i": "0"}}}, {"name": "StatefulPartitionedCall/model_6/stack_3/block_0/se_reshape/Reshape/shape", "op": "Pack", "input": ["StatefulPartitionedCall/model_6/stack_3/block_0/se_reshape/strided_slice", "StatefulPartitionedCall/model_6/stack_6/block_1/se_reshape/Reshape/shape/1", "StatefulPartitionedCall/model_6/stack_6/block_1/se_reshape/Reshape/shape/1", "StatefulPartitionedCall/model_6/stack_2/block_2/se_reshape/Reshape/shape/3"], "attr": {"axis": {"i": "0"}, "N": {"i": "4"}, "T": {"type": "DT_INT32"}}}, {"name": "StatefulPartitionedCall/model_6/stack_3/block_0/se_reshape/Reshape", "op": "Reshape", "input": ["StatefulPartitionedCall/model_6/stack_3/block_0/se_squeeze/Mean", "StatefulPartitionedCall/model_6/stack_3/block_0/se_reshape/Reshape/shape"], "attr": {"Tshape": {"type": "DT_INT32"}, "T": {"type": "DT_FLOAT"}}}, {"name": "StatefulPartitionedCall/model_6/stack_3/block_0/se_reduce_conv2d/BiasAdd", "op": "_FusedConv2D", "input": ["StatefulPartitionedCall/model_6/stack_3/block_0/se_reshape/Reshape", "Func/StatefulPartitionedCall/input/_159", "Func/StatefulPartitionedCall/input/_160"], "device": "/device:CPU:0", "attr": {"epsilon": {"f": 0.0}, "fused_ops": {"list": {"s": ["Qmlhc0FkZA=="]}}, "num_args": {"i": "1"}, "T": {"type": "DT_FLOAT"}, "use_cudnn_on_gpu": {"b": true}, "strides": {"list": {"i": ["1", "1", "1", "1"]}}, "explicit_paddings": {"list": {}}, "data_format": {"s": "TkhXQw=="}, "dilations": {"list": {"i": ["1", "1", "1", "1"]}}, "padding": {"s": "U0FNRQ=="}}}, {"name": "StatefulPartitionedCall/model_6/stack_3/block_0/se_reduce_activation/Sigmoid", "op": "Sigmoid", "input": ["StatefulPartitionedCall/model_6/stack_3/block_0/se_reduce_conv2d/BiasAdd"], "attr": {"T": {"type": "DT_FLOAT"}}}, {"name": "StatefulPartitionedCall/model_6/stack_3/block_0/se_reduce_activation/mul", "op": "Mul", "input": ["StatefulPartitionedCall/model_6/stack_3/block_0/se_reduce_activation/Sigmoid", "StatefulPartitionedCall/model_6/stack_3/block_0/se_reduce_conv2d/BiasAdd"], "attr": {"T": {"type": "DT_FLOAT"}}}, {"name": "StatefulPartitionedCall/model_6/stack_3/block_0/se_expand_conv2d/BiasAdd", "op": "_FusedConv2D", "input": ["StatefulPartitionedCall/model_6/stack_3/block_0/se_reduce_activation/mul", "Func/StatefulPartitionedCall/input/_161", "Func/StatefulPartitionedCall/input/_162"], "device": "/device:CPU:0", "attr": {"explicit_paddings": {"list": {}}, "epsilon": {"f": 0.0}, "use_cudnn_on_gpu": {"b": true}, "num_args": {"i": "1"}, "padding": {"s": "U0FNRQ=="}, "data_format": {"s": "TkhXQw=="}, "dilations": {"list": {"i": ["1", "1", "1", "1"]}}, "fused_ops": {"list": {"s": ["Qmlhc0FkZA=="]}}, "T": {"type": "DT_FLOAT"}, "strides": {"list": {"i": ["1", "1", "1", "1"]}}}}, {"name": "StatefulPartitionedCall/model_6/stack_3/block_0/se_expand_activation/Sigmoid", "op": "Sigmoid", "input": ["StatefulPartitionedCall/model_6/stack_3/block_0/se_expand_conv2d/BiasAdd"], "attr": {"T": {"type": "DT_FLOAT"}}}, {"name": "StatefulPartitionedCall/model_6/stack_3/block_0/se_excite/mul", "op": "Mul", "input": ["StatefulPartitionedCall/model_6/stack_3/block_0/depthwise_activation/mul", "StatefulPartitionedCall/model_6/stack_3/block_0/se_expand_activation/Sigmoid"], "attr": {"T": {"type": "DT_FLOAT"}}}, {"name": "StatefulPartitionedCall/model_6/stack_3/block_0/project_bn/FusedBatchNormV3", "op": "_FusedConv2D", "input": ["StatefulPartitionedCall/model_6/stack_3/block_0/se_excite/mul", "StatefulPartitionedCall/model_6/stack_3/block_0/project_conv2d/Conv2D_weights", "StatefulPartitionedCall/model_6/stack_3/block_0/project_conv2d/Conv2D_bn_offset"], "device": "/device:CPU:0", "attr": {"padding": {"s": "U0FNRQ=="}, "T": {"type": "DT_FLOAT"}, "epsilon": {"f": 0.0}, "explicit_paddings": {"list": {}}, "fused_ops": {"list": {"s": ["Qmlhc0FkZA=="]}}, "dilations": {"list": {"i": ["1", "1", "1", "1"]}}, "strides": {"list": {"i": ["1", "1", "1", "1"]}}, "data_format": {"s": "TkhXQw=="}, "num_args": {"i": "1"}, "use_cudnn_on_gpu": {"b": true}}}, {"name": "StatefulPartitionedCall/model_6/stack_3/block_1/expand_bn/FusedBatchNormV3", "op": "_FusedConv2D", "input": ["StatefulPartitionedCall/model_6/stack_3/block_0/project_bn/FusedBatchNormV3", "StatefulPartitionedCall/model_6/stack_3/block_1/expand_conv2d/Conv2D_weights", "StatefulPartitionedCall/model_6/stack_3/block_1/expand_conv2d/Conv2D_bn_offset"], "device": "/device:CPU:0", "attr": {"data_format": {"s": "TkhXQw=="}, "strides": {"list": {"i": ["1", "1", "1", "1"]}}, "dilations": {"list": {"i": ["1", "1", "1", "1"]}}, "num_args": {"i": "1"}, "use_cudnn_on_gpu": {"b": true}, "T": {"type": "DT_FLOAT"}, "padding": {"s": "U0FNRQ=="}, "explicit_paddings": {"list": {}}, "epsilon": {"f": 0.0}, "fused_ops": {"list": {"s": ["Qmlhc0FkZA=="]}}}}, {"name": "StatefulPartitionedCall/model_6/stack_3/block_1/expand_activation/Sigmoid", "op": "Sigmoid", "input": ["StatefulPartitionedCall/model_6/stack_3/block_1/expand_bn/FusedBatchNormV3"], "attr": {"T": {"type": "DT_FLOAT"}}}, {"name": "StatefulPartitionedCall/model_6/stack_3/block_1/expand_activation/mul", "op": "Mul", "input": ["StatefulPartitionedCall/model_6/stack_3/block_1/expand_activation/Sigmoid", "StatefulPartitionedCall/model_6/stack_3/block_1/expand_bn/FusedBatchNormV3"], "attr": {"T": {"type": "DT_FLOAT"}}}, {"name": "StatefulPartitionedCall/model_6/stack_3/block_1/depthwise_conv2d/depthwise", "op": "FusedDepthwiseConv2dNative", "input": ["StatefulPartitionedCall/model_6/stack_3/block_1/expand_activation/mul", "StatefulPartitionedCall/model_6/stack_3/block_1/depthwise_conv2d/depthwise_weights", "StatefulPartitionedCall/model_6/stack_3/block_1/depthwise_conv2d/depthwise_bn_offset"], "attr": {"padding": {"s": "U0FNRQ=="}, "num_args": {"i": "1"}, "data_format": {"s": "TkhXQw=="}, "strides": {"list": {"i": ["1", "1", "1", "1"]}}, "fused_ops": {"list": {"s": ["Qmlhc0FkZA=="]}}, "dilations": {"list": {"i": ["1", "1", "1", "1"]}}, "T": {"type": "DT_FLOAT"}}}, {"name": "StatefulPartitionedCall/model_6/stack_3/block_1/depthwise_activation/Sigmoid", "op": "Sigmoid", "input": ["StatefulPartitionedCall/model_6/stack_3/block_1/depthwise_conv2d/depthwise"], "attr": {"T": {"type": "DT_FLOAT"}}}, {"name": "StatefulPartitionedCall/model_6/stack_3/block_1/depthwise_activation/mul", "op": "Mul", "input": ["StatefulPartitionedCall/model_6/stack_3/block_1/depthwise_activation/Sigmoid", "StatefulPartitionedCall/model_6/stack_3/block_1/depthwise_conv2d/depthwise"], "attr": {"T": {"type": "DT_FLOAT"}}}, {"name": "StatefulPartitionedCall/model_6/stack_3/block_1/se_squeeze/Mean", "op": "Mean", "input": ["StatefulPartitionedCall/model_6/stack_3/block_1/depthwise_activation/mul", "StatefulPartitionedCall/model_6/stack_6/block_1/se_squeeze/Mean/reduction_indices"], "attr": {"keep_dims": {"b": false}, "Tidx": {"type": "DT_INT32"}, "T": {"type": "DT_FLOAT"}}}, {"name": "StatefulPartitionedCall/model_6/stack_3/block_1/se_reshape/Shape", "op": "Shape", "input": ["StatefulPartitionedCall/model_6/stack_3/block_1/se_squeeze/Mean"], "attr": {"out_type": {"type": "DT_INT32"}, "T": {"type": "DT_FLOAT"}}}, {"name": "StatefulPartitionedCall/model_6/stack_3/block_1/se_reshape/strided_slice", "op": "StridedSlice", "input": ["StatefulPartitionedCall/model_6/stack_3/block_1/se_reshape/Shape", "StatefulPartitionedCall/model_6/stack_6/block_1/se_reshape/strided_slice/stack", "StatefulPartitionedCall/model_6/stack_6/block_1/se_reshape/strided_slice/stack_1", "StatefulPartitionedCall/model_6/stack_6/block_1/se_reshape/strided_slice/stack_1"], "attr": {"T": {"type": "DT_INT32"}, "end_mask": {"i": "0"}, "begin_mask": {"i": "0"}, "new_axis_mask": {"i": "0"}, "shrink_axis_mask": {"i": "1"}, "ellipsis_mask": {"i": "0"}, "Index": {"type": "DT_INT32"}}}, {"name": "StatefulPartitionedCall/model_6/stack_3/block_1/se_reshape/Reshape/shape", "op": "Pack", "input": ["StatefulPartitionedCall/model_6/stack_3/block_1/se_reshape/strided_slice", "StatefulPartitionedCall/model_6/stack_6/block_1/se_reshape/Reshape/shape/1", "StatefulPartitionedCall/model_6/stack_6/block_1/se_reshape/Reshape/shape/1", "StatefulPartitionedCall/model_6/stack_3/block_4/se_reshape/Reshape/shape/3"], "attr": {"N": {"i": "4"}, "T": {"type": "DT_INT32"}, "axis": {"i": "0"}}}, {"name": "StatefulPartitionedCall/model_6/stack_3/block_1/se_reshape/Reshape", "op": "Reshape", "input": ["StatefulPartitionedCall/model_6/stack_3/block_1/se_squeeze/Mean", "StatefulPartitionedCall/model_6/stack_3/block_1/se_reshape/Reshape/shape"], "attr": {"Tshape": {"type": "DT_INT32"}, "T": {"type": "DT_FLOAT"}}}, {"name": "StatefulPartitionedCall/model_6/stack_3/block_1/se_reduce_conv2d/BiasAdd", "op": "_FusedConv2D", "input": ["StatefulPartitionedCall/model_6/stack_3/block_1/se_reshape/Reshape", "Func/StatefulPartitionedCall/input/_178", "Func/StatefulPartitionedCall/input/_179"], "device": "/device:CPU:0", "attr": {"T": {"type": "DT_FLOAT"}, "num_args": {"i": "1"}, "fused_ops": {"list": {"s": ["Qmlhc0FkZA=="]}}, "strides": {"list": {"i": ["1", "1", "1", "1"]}}, "explicit_paddings": {"list": {}}, "epsilon": {"f": 0.0}, "dilations": {"list": {"i": ["1", "1", "1", "1"]}}, "use_cudnn_on_gpu": {"b": true}, "data_format": {"s": "TkhXQw=="}, "padding": {"s": "U0FNRQ=="}}}, {"name": "StatefulPartitionedCall/model_6/stack_3/block_1/se_reduce_activation/Sigmoid", "op": "Sigmoid", "input": ["StatefulPartitionedCall/model_6/stack_3/block_1/se_reduce_conv2d/BiasAdd"], "attr": {"T": {"type": "DT_FLOAT"}}}, {"name": "StatefulPartitionedCall/model_6/stack_3/block_1/se_reduce_activation/mul", "op": "Mul", "input": ["StatefulPartitionedCall/model_6/stack_3/block_1/se_reduce_activation/Sigmoid", "StatefulPartitionedCall/model_6/stack_3/block_1/se_reduce_conv2d/BiasAdd"], "attr": {"T": {"type": "DT_FLOAT"}}}, {"name": "StatefulPartitionedCall/model_6/stack_3/block_1/se_expand_conv2d/BiasAdd", "op": "_FusedConv2D", "input": ["StatefulPartitionedCall/model_6/stack_3/block_1/se_reduce_activation/mul", "Func/StatefulPartitionedCall/input/_180", "Func/StatefulPartitionedCall/input/_181"], "device": "/device:CPU:0", "attr": {"dilations": {"list": {"i": ["1", "1", "1", "1"]}}, "strides": {"list": {"i": ["1", "1", "1", "1"]}}, "explicit_paddings": {"list": {}}, "T": {"type": "DT_FLOAT"}, "use_cudnn_on_gpu": {"b": true}, "padding": {"s": "U0FNRQ=="}, "data_format": {"s": "TkhXQw=="}, "epsilon": {"f": 0.0}, "num_args": {"i": "1"}, "fused_ops": {"list": {"s": ["Qmlhc0FkZA=="]}}}}, {"name": "StatefulPartitionedCall/model_6/stack_3/block_1/se_expand_activation/Sigmoid", "op": "Sigmoid", "input": ["StatefulPartitionedCall/model_6/stack_3/block_1/se_expand_conv2d/BiasAdd"], "attr": {"T": {"type": "DT_FLOAT"}}}, {"name": "StatefulPartitionedCall/model_6/stack_3/block_1/se_excite/mul", "op": "Mul", "input": ["StatefulPartitionedCall/model_6/stack_3/block_1/depthwise_activation/mul", "StatefulPartitionedCall/model_6/stack_3/block_1/se_expand_activation/Sigmoid"], "attr": {"T": {"type": "DT_FLOAT"}}}, {"name": "StatefulPartitionedCall/model_6/stack_3/block_1/project_bn/FusedBatchNormV3", "op": "_FusedConv2D", "input": ["StatefulPartitionedCall/model_6/stack_3/block_1/se_excite/mul", "StatefulPartitionedCall/model_6/stack_3/block_1/project_conv2d/Conv2D_weights", "StatefulPartitionedCall/model_6/stack_3/block_1/project_conv2d/Conv2D_bn_offset"], "device": "/device:CPU:0", "attr": {"padding": {"s": "U0FNRQ=="}, "strides": {"list": {"i": ["1", "1", "1", "1"]}}, "dilations": {"list": {"i": ["1", "1", "1", "1"]}}, "num_args": {"i": "1"}, "data_format": {"s": "TkhXQw=="}, "use_cudnn_on_gpu": {"b": true}, "fused_ops": {"list": {"s": ["Qmlhc0FkZA=="]}}, "explicit_paddings": {"list": {}}, "epsilon": {"f": 0.0}, "T": {"type": "DT_FLOAT"}}}, {"name": "StatefulPartitionedCall/model_6/stack_3/block_1/add/add", "op": "AddV2", "input": ["StatefulPartitionedCall/model_6/stack_3/block_0/project_bn/FusedBatchNormV3", "StatefulPartitionedCall/model_6/stack_3/block_1/project_bn/FusedBatchNormV3"], "attr": {"T": {"type": "DT_FLOAT"}}}, {"name": "StatefulPartitionedCall/model_6/stack_3/block_2/expand_bn/FusedBatchNormV3", "op": …
}}}, {"name": "StatefulPartitionedCall/model_6/stack_6/block_0/expand_activation/mul", "op": "Mul", "input": ["StatefulPartitionedCall/model_6/stack_6/block_0/expand_activation/Sigmoid", "StatefulPartitionedCall/model_6/stack_6/block_0/expand_bn/FusedBatchNormV3"], "attr": {"T": {"type": "DT_FLOAT"}}}, {"name": "StatefulPartitionedCall/model_6/stack_6/block_0/depthwise_conv2d/depthwise", "op": "FusedDepthwiseConv2dNative", "input": ["StatefulPartitionedCall/model_6/stack_6/block_0/expand_activation/mul", "StatefulPartitionedCall/model_6/stack_6/block_0/depthwise_conv2d/depthwise_weights", "StatefulPartitionedCall/model_6/stack_6/block_0/depthwise_conv2d/depthwise_bn_offset"], "attr": {"num_args": {"i": "1"}, "data_format": {"s": "TkhXQw=="}, "dilations": {"list": {"i": ["1", "1", "1", "1"]}}, "T": {"type": "DT_FLOAT"}, "strides": {"list": {"i": ["1", "1", "1", "1"]}}, "padding": {"s": "U0FNRQ=="}, "fused_ops": {"list": {"s": ["Qmlhc0FkZA=="]}}}}, {"name": "StatefulPartitionedCall/model_6/stack_6/block_0/depthwise_activation/Sigmoid", "op": "Sigmoid", "input": ["StatefulPartitionedCall/model_6/stack_6/block_0/depthwise_conv2d/depthwise"], "attr": {"T": {"type": "DT_FLOAT"}}}, {"name": "StatefulPartitionedCall/model_6/stack_6/block_0/depthwise_activation/mul", "op": "Mul", "input": ["StatefulPartitionedCall/model_6/stack_6/block_0/depthwise_activation/Sigmoid", "StatefulPartitionedCall/model_6/stack_6/block_0/depthwise_conv2d/depthwise"], "attr": {"T": {"type": "DT_FLOAT"}}}, {"name": "StatefulPartitionedCall/model_6/stack_6/block_0/se_squeeze/Mean", "op": "Mean", "input": ["StatefulPartitionedCall/model_6/stack_6/block_0/depthwise_activation/mul", "StatefulPartitionedCall/model_6/stack_6/block_1/se_squeeze/Mean/reduction_indices"], "attr": {"Tidx": {"type": "DT_INT32"}, "keep_dims": {"b": false}, "T": {"type": "DT_FLOAT"}}}, {"name": "StatefulPartitionedCall/model_6/stack_6/block_0/se_reshape/Shape", "op": "Shape", "input": ["StatefulPartitionedCall/model_6/stack_6/block_0/se_squeeze/Mean"], "attr": {"T": {"type": "DT_FLOAT"}, "out_type": {"type": "DT_INT32"}}}, {"name": "StatefulPartitionedCall/model_6/stack_6/block_0/se_reshape/strided_slice", "op": "StridedSlice", "input": ["StatefulPartitionedCall/model_6/stack_6/block_0/se_reshape/Shape", "StatefulPartitionedCall/model_6/stack_6/block_1/se_reshape/strided_slice/stack", "StatefulPartitionedCall/model_6/stack_6/block_1/se_reshape/strided_slice/stack_1", "StatefulPartitionedCall/model_6/stack_6/block_1/se_reshape/strided_slice/stack_1"], "attr": {"T": {"type": "DT_INT32"}, "begin_mask": {"i": "0"}, "ellipsis_mask": {"i": "0"}, "end_mask": {"i": "0"}, "Index": {"type": "DT_INT32"}, "shrink_axis_mask": {"i": "1"}, "new_axis_mask": {"i": "0"}}}, {"name": "StatefulPartitionedCall/model_6/stack_6/block_0/se_reshape/Reshape/shape", "op": "Pack", "input": ["StatefulPartitionedCall/model_6/stack_6/block_0/se_reshape/strided_slice", "StatefulPartitionedCall/model_6/stack_6/block_1/se_reshape/Reshape/shape/1", "StatefulPartitionedCall/model_6/stack_6/block_1/se_reshape/Reshape/shape/1", "StatefulPartitionedCall/model_6/stack_5/block_5/se_reshape/Reshape/shape/3"], "attr": {"T": {"type": "DT_INT32"}, "N": {"i": "4"}, "axis": {"i": "0"}}}, {"name": "StatefulPartitionedCall/model_6/stack_6/block_0/se_reshape/Reshape", "op": "Reshape", "input": ["StatefulPartitionedCall/model_6/stack_6/block_0/se_squeeze/Mean", "StatefulPartitionedCall/model_6/stack_6/block_0/se_reshape/Reshape/shape"], "attr": {"Tshape": {"type": "DT_INT32"}, "T": {"type": "DT_FLOAT"}}}, {"name": "StatefulPartitionedCall/model_6/stack_6/block_0/se_reduce_conv2d/BiasAdd", "op": "_FusedConv2D", "input": ["StatefulPartitionedCall/model_6/stack_6/block_0/se_reshape/Reshape", "Func/StatefulPartitionedCall/input/_463", "Func/StatefulPartitionedCall/input/_464"], "device": "/device:CPU:0", "attr": {"dilations": {"list": {"i": ["1", "1", "1", "1"]}}, "padding": {"s": "U0FNRQ=="}, "strides": {"list": {"i": ["1", "1", "1", "1"]}}, "use_cudnn_on_gpu": {"b": true}, "epsilon": {"f": 0.0}, "data_format": {"s": "TkhXQw=="}, "num_args": {"i": "1"}, "T": {"type": "DT_FLOAT"}, "explicit_paddings": {"list": {}}, "fused_ops": {"list": {"s": ["Qmlhc0FkZA=="]}}}}, {"name": "StatefulPartitionedCall/model_6/stack_6/block_0/se_reduce_activation/Sigmoid", "op": "Sigmoid", "input": ["StatefulPartitionedCall/model_6/stack_6/block_0/se_reduce_conv2d/BiasAdd"], "attr": {"T": {"type": "DT_FLOAT"}}}, {"name": "StatefulPartitionedCall/model_6/stack_6/block_0/se_reduce_activation/mul", "op": "Mul", "input": ["StatefulPartitionedCall/model_6/stack_6/block_0/se_reduce_activation/Sigmoid", "StatefulPartitionedCall/model_6/stack_6/block_0/se_reduce_conv2d/BiasAdd"], "attr": {"T": {"type": "DT_FLOAT"}}}, {"name": "StatefulPartitionedCall/model_6/stack_6/block_0/se_expand_conv2d/BiasAdd", "op": "_FusedConv2D", "input": ["StatefulPartitionedCall/model_6/stack_6/block_0/se_reduce_activation/mul", "Func/StatefulPartitionedCall/input/_465", "Func/StatefulPartitionedCall/input/_466"], "device": "/device:CPU:0", "attr": {"num_args": {"i": "1"}, "strides": {"list": {"i": ["1", "1", "1", "1"]}}, "T": {"type": "DT_FLOAT"}, "fused_ops": {"list": {"s": ["Qmlhc0FkZA=="]}}, "data_format": {"s": "TkhXQw=="}, "explicit_paddings": {"list": {}}, "epsilon": {"f": 0.0}, "dilations": {"list": {"i": ["1", "1", "1", "1"]}}, "padding": {"s": "U0FNRQ=="}, "use_cudnn_on_gpu": {"b": true}}}, {"name": "StatefulPartitionedCall/model_6/stack_6/block_0/se_expand_activation/Sigmoid", "op": "Sigmoid", "input": ["StatefulPartitionedCall/model_6/stack_6/block_0/se_expand_conv2d/BiasAdd"], "attr": {"T": {"type": "DT_FLOAT"}}}, {"name": "StatefulPartitionedCall/model_6/stack_6/block_0/se_excite/mul", "op": "Mul", "input": ["StatefulPartitionedCall/model_6/stack_6/block_0/depthwise_activation/mul", "StatefulPartitionedCall/model_6/stack_6/block_0/se_expand_activation/Sigmoid"], "attr": {"T": {"type": "DT_FLOAT"}}}, {"name": "StatefulPartitionedCall/model_6/stack_6/block_0/project_bn/FusedBatchNormV3", "op": "_FusedConv2D", "input": ["StatefulPartitionedCall/model_6/stack_6/block_0/se_excite/mul", "StatefulPartitionedCall/model_6/stack_6/block_0/project_conv2d/Conv2D_weights", "StatefulPartitionedCall/model_6/stack_6/block_0/project_conv2d/Conv2D_bn_offset"], "device": "/device:CPU:0", "attr": {"num_args": {"i": "1"}, "strides": {"list": {"i": ["1", "1", "1", "1"]}}, "dilations": {"list": {"i": ["1", "1", "1", "1"]}}, "data_format": {"s": "TkhXQw=="}, "epsilon": {"f": 0.0}, "explicit_paddings": {"list": {}}, "T": {"type": "DT_FLOAT"}, "fused_ops": {"list": {"s": ["Qmlhc0FkZA=="]}}, "use_cudnn_on_gpu": {"b": true}, "padding": {"s": "U0FNRQ=="}}}, {"name": "StatefulPartitionedCall/model_6/stack_6/block_1/expand_bn/FusedBatchNormV3", "op": "_FusedConv2D", "input": ["StatefulPartitionedCall/model_6/stack_6/block_0/project_bn/FusedBatchNormV3", "StatefulPartitionedCall/model_6/stack_6/block_1/expand_conv2d/Conv2D_weights", "StatefulPartitionedCall/model_6/stack_6/block_1/expand_conv2d/Conv2D_bn_offset"], "device": "/device:CPU:0", "attr": {"dilations": {"list": {"i": ["1", "1", "1", "1"]}}, "use_cudnn_on_gpu": {"b": true}, "data_format": {"s": "TkhXQw=="}, "T": {"type": "DT_FLOAT"}, "explicit_paddings": {"list": {}}, "epsilon": {"f": 0.0}, "padding": {"s": "U0FNRQ=="}, "num_args": {"i": "1"}, "fused_ops": {"list": {"s": ["Qmlhc0FkZA=="]}}, "strides": {"list": {"i": ["1", "1", "1", "1"]}}}}, {"name": "StatefulPartitionedCall/model_6/stack_6/block_1/expand_activation/Sigmoid", "op": "Sigmoid", "input": ["StatefulPartitionedCall/model_6/stack_6/block_1/expand_bn/FusedBatchNormV3"], "attr": {"T": {"type": "DT_FLOAT"}}}, {"name": "StatefulPartitionedCall/model_6/stack_6/block_1/expand_activation/mul", "op": "Mul", "input": ["StatefulPartitionedCall/model_6/stack_6/block_1/expand_activation/Sigmoid", "StatefulPartitionedCall/model_6/stack_6/block_1/expand_bn/FusedBatchNormV3"], "attr": {"T": {"type": "DT_FLOAT"}}}, {"name": "StatefulPartitionedCall/model_6/stack_6/block_1/depthwise_conv2d/depthwise", "op": "FusedDepthwiseConv2dNative", "input": ["StatefulPartitionedCall/model_6/stack_6/block_1/expand_activation/mul", "StatefulPartitionedCall/model_6/stack_6/block_1/depthwise_conv2d/depthwise_weights", "StatefulPartitionedCall/model_6/stack_6/block_1/depthwise_conv2d/depthwise_bn_offset"], "attr": {"strides": {"list": {"i": ["1", "1", "1", "1"]}}, "data_format": {"s": "TkhXQw=="}, "num_args": {"i": "1"}, "fused_ops": {"list": {"s": ["Qmlhc0FkZA=="]}}, "padding": {"s": "U0FNRQ=="}, "T": {"type": "DT_FLOAT"}, "dilations": {"list": {"i": ["1", "1", "1", "1"]}}}}, {"name": "StatefulPartitionedCall/model_6/stack_6/block_1/depthwise_activation/Sigmoid", "op": "Sigmoid", "input": ["StatefulPartitionedCall/model_6/stack_6/block_1/depthwise_conv2d/depthwise"], "attr": {"T": {"type": "DT_FLOAT"}}}, {"name": "StatefulPartitionedCall/model_6/stack_6/block_1/depthwise_activation/mul", "op": "Mul", "input": ["StatefulPartitionedCall/model_6/stack_6/block_1/depthwise_activation/Sigmoid", "StatefulPartitionedCall/model_6/stack_6/block_1/depthwise_conv2d/depthwise"], "attr": {"T": {"type": "DT_FLOAT"}}}, {"name": "StatefulPartitionedCall/model_6/stack_6/block_1/se_squeeze/Mean", "op": "Mean", "input": ["StatefulPartitionedCall/model_6/stack_6/block_1/depthwise_activation/mul", "StatefulPartitionedCall/model_6/stack_6/block_1/se_squeeze/Mean/reduction_indices"], "attr": {"keep_dims": {"b": false}, "T": {"type": "DT_FLOAT"}, "Tidx": {"type": "DT_INT32"}}}, {"name": "StatefulPartitionedCall/model_6/stack_6/block_1/se_reshape/Shape", "op": "Shape", "input": ["StatefulPartitionedCall/model_6/stack_6/block_1/se_squeeze/Mean"], "attr": {"out_type": {"type": "DT_INT32"}, "T": {"type": "DT_FLOAT"}}}, {"name": "StatefulPartitionedCall/model_6/stack_6/block_1/se_reshape/strided_slice", "op": "StridedSlice", "input": ["StatefulPartitionedCall/model_6/stack_6/block_1/se_reshape/Shape", "StatefulPartitionedCall/model_6/stack_6/block_1/se_reshape/strided_slice/stack", "StatefulPartitionedCall/model_6/stack_6/block_1/se_reshape/strided_slice/stack_1", "StatefulPartitionedCall/model_6/stack_6/block_1/se_reshape/strided_slice/stack_1"], "attr": {"new_axis_mask": {"i": "0"}, "T": {"type": "DT_INT32"}, "ellipsis_mask": {"i": "0"}, "end_mask": {"i": "0"}, "Index": {"type": "DT_INT32"}, "begin_mask": {"i": "0"}, "shrink_axis_mask": {"i": "1"}}}, {"name": "StatefulPartitionedCall/model_6/stack_6/block_1/se_reshape/Reshape/shape", "op": "Pack", "input": ["StatefulPartitionedCall/model_6/stack_6/block_1/se_reshape/strided_slice", "StatefulPartitionedCall/model_6/stack_6/block_1/se_reshape/Reshape/shape/1", "StatefulPartitionedCall/model_6/stack_6/block_1/se_reshape/Reshape/shape/1", "StatefulPartitionedCall/model_6/stack_6/block_1/se_reshape/Reshape/shape/3"], "attr": {"axis": {"i": "0"}, "T": {"type": "DT_INT32"}, "N": {"i": "4"}}}, {"name": "StatefulPartitionedCall/model_6/stack_6/block_1/se_reshape/Reshape", "op": "Reshape", "input": ["StatefulPartitionedCall/model_6/stack_6/block_1/se_squeeze/Mean", "StatefulPartitionedCall/model_6/stack_6/block_1/se_reshape/Reshape/shape"], "attr": {"T": {"type": "DT_FLOAT"}, "Tshape": {"type": "DT_INT32"}}}, {"name": "StatefulPartitionedCall/model_6/stack_6/block_1/se_reduce_conv2d/BiasAdd", "op": "_FusedConv2D", "input": ["StatefulPartitionedCall/model_6/stack_6/block_1/se_reshape/Reshape", "Func/StatefulPartitionedCall/input/_482", "Func/StatefulPartitionedCall/input/_483"], "device": "/device:CPU:0", "attr": {"T": {"type": "DT_FLOAT"}, "epsilon": {"f": 0.0}, "explicit_paddings": {"list": {}}, "data_format": {"s": "TkhXQw=="}, "dilations": {"list": {"i": ["1", "1", "1", "1"]}}, "use_cudnn_on_gpu": {"b": true}, "padding": {"s": "U0FNRQ=="}, "strides": {"list": {"i": ["1", "1", "1", "1"]}}, "fused_ops": {"list": {"s": ["Qmlhc0FkZA=="]}}, "num_args": {"i": "1"}}}, {"name": "StatefulPartitionedCall/model_6/stack_6/block_1/se_reduce_activation/Sigmoid", "op": "Sigmoid", "input": ["StatefulPartitionedCall/model_6/stack_6/block_1/se_reduce_conv2d/BiasAdd"], "attr": {"T": {"type": "DT_FLOAT"}}}, {"name": "StatefulPartitionedCall/model_6/stack_6/block_1/se_reduce_activation/mul", "op": "Mul", "input": ["StatefulPartitionedCall/model_6/stack_6/block_1/se_reduce_activation/Sigmoid", "StatefulPartitionedCall/model_6/stack_6/block_1/se_reduce_conv2d/BiasAdd"], "attr": {"T": {"type": "DT_FLOAT"}}}, {"name": "StatefulPartitionedCall/model_6/stack_6/block_1/se_expand_conv2d/BiasAdd", "op": "_FusedConv2D", "input": ["StatefulPartitionedCall/model_6/stack_6/block_1/se_reduce_activation/mul", "Func/StatefulPartitionedCall/input/_484", "Func/StatefulPartitionedCall/input/_485"], "device": "/device:CPU:0", "attr": {"num_args": {"i": "1"}, "T": {"type": "DT_FLOAT"}, "epsilon": {"f": 0.0}, "dilations": {"list": {"i": ["1", "1", "1", "1"]}}, "explicit_paddings": {"list": {}}, "padding": {"s": "U0FNRQ=="}, "fused_ops": {"list": {"s": ["Qmlhc0FkZA=="]}}, "use_cudnn_on_gpu": {"b": true}, "strides": {"list": {"i": ["1", "1", "1", "1"]}}, "data_format": {"s": "TkhXQw=="}}}, {"name": "StatefulPartitionedCall/model_6/stack_6/block_1/se_expand_activation/Sigmoid", "op": "Sigmoid", "input": ["StatefulPartitionedCall/model_6/stack_6/block_1/se_expand_conv2d/BiasAdd"], "attr": {"T": {"type": "DT_FLOAT"}}}, {"name": "StatefulPartitionedCall/model_6/stack_6/block_1/se_excite/mul", "op": "Mul", "input": ["StatefulPartitionedCall/model_6/stack_6/block_1/depthwise_activation/mul", "StatefulPartitionedCall/model_6/stack_6/block_1/se_expand_activation/Sigmoid"], "attr": {"T": {"type": "DT_FLOAT"}}}, {"name": "StatefulPartitionedCall/model_6/stack_6/block_1/project_bn/FusedBatchNormV3", "op": "_FusedConv2D", "input": ["StatefulPartitionedCall/model_6/stack_6/block_1/se_excite/mul", "StatefulPartitionedCall/model_6/stack_6/block_1/project_conv2d/Conv2D_weights", "StatefulPartitionedCall/model_6/stack_6/block_1/project_conv2d/Conv2D_bn_offset"], "device": "/device:CPU:0", "attr": {"strides": {"list": {"i": ["1", "1", "1", "1"]}}, "num_args": {"i": "1"}, "padding": {"s": "U0FNRQ=="}, "data_format": {"s": "TkhXQw=="}, "use_cudnn_on_gpu": {"b": true}, "explicit_paddings": {"list": {}}, "dilations": {"list": {"i": ["1", "1", "1", "1"]}}, "epsilon": {"f": 0.0}, "fused_ops": {"list": {"s": ["Qmlhc0FkZA=="]}}, "T": {"type": "DT_FLOAT"}}}, {"name": "StatefulPartitionedCall/model_6/stack_6/block_1/add/add", "op": "AddV2", "input": ["StatefulPartitionedCall/model_6/stack_6/block_0/project_bn/FusedBatchNormV3", "StatefulPartitionedCall/model_6/stack_6/block_1/project_bn/FusedBatchNormV3"], "attr": {"T": {"type": "DT_FLOAT"}}}, {"name": "StatefulPartitionedCall/model_6/top_bn/FusedBatchNormV3", "op": "_FusedConv2D", "input": ["StatefulPartitionedCall/model_6/stack_6/block_1/add/add", "StatefulPartitionedCall/model_6/top_conv2d/Conv2D_weights", "StatefulPartitionedCall/model_6/top_conv2d/Conv2D_bn_offset"], "device": "/device:CPU:0", "attr": {"T": {"type": "DT_FLOAT"}, "dilations": {"list": {"i": ["1", "1", "1", "1"]}}, "num_args": {"i": "1"}, "explicit_paddings": {"list": {}}, "use_cudnn_on_gpu": {"b": true}, "fused_ops": {"list": {"s": ["Qmlhc0FkZA=="]}}, "data_format": {"s": "TkhXQw=="}, "epsilon": {"f": 0.0}, "padding": {"s": "U0FNRQ=="}, "strides": {"list": {"i": ["1", "1", "1", "1"]}}}}, {"name": "StatefulPartitionedCall/model_6/top_activation/Sigmoid", "op": "Sigmoid", "input": ["StatefulPartitionedCall/model_6/top_bn/FusedBatchNormV3"], "attr": {"T": {"type": "DT_FLOAT"}}}, {"name": "StatefulPartitionedCall/model_6/top_activation/mul", "op": "Mul", "input": ["StatefulPartitionedCall/model_6/top_activation/Sigmoid", "StatefulPartitionedCall/model_6/top_bn/FusedBatchNormV3"], "attr": {"T": {"type": "DT_FLOAT"}}}, {"name": "StatefulPartitionedCall/model_6/top_pool/Mean", "op": "Mean", "input": ["StatefulPartitionedCall/model_6/top_activation/mul", "StatefulPartitionedCall/model_6/stack_6/block_1/se_squeeze/Mean/reduction_indices"], "attr": {"T": {"type": "DT_FLOAT"}, "keep_dims": {"b": false}, "Tidx": {"type": "DT_INT32"}}}, {"name": "StatefulPartitionedCall/model_6/logits/BiasAdd", "op": "_FusedMatMul", "input": ["StatefulPartitionedCall/model_6/top_pool/Mean", "Func/StatefulPartitionedCall/input/_496", "Func/StatefulPartitionedCall/input/_497"], "device": "/device:CPU:0", "attr": {"transpose_a": {"b": false}, "epsilon": {"f": 0.0}, "num_args": {"i": "1"}, "transpose_b": {"b": false}, "fused_ops": {"list": {"s": ["Qmlhc0FkZA=="]}}, "T": {"type": "DT_FLOAT"}}}, {"name": "StatefulPartitionedCall/model_6/probs/Softmax", "op": "Softmax", "input": ["StatefulPartitionedCall/model_6/logits/BiasAdd"], "attr": {"T": {"type": "DT_FLOAT"}}}, {"name": "Identity", "op": "Identity", "input": ["StatefulPartitionedCall/model_6/probs/Softmax"], "attr": {"T": {"type": "DT_FLOAT"}}}], "library": {}, "versions": {"producer": 175}}, "weightsManifest": [{"paths": ["group1-shard1of12.bin", "group1-shard2of12.bin", "group1-shard3of12.bin", "group1-shard4of12.bin", "group1-shard5of12.bin", "group1-shard6of12.bin", "group1-shard7of12.bin", "group1-shard8of12.bin", "group1-shard9of12.bin", "group1-shard10of12.bin", "group1-shard11of12.bin", "group1-shard12of12.bin"], "weights": [{"name": "StatefulPartitionedCall/model_6/stem_conv2d/Conv2D_weights", "shape": [3, 3, 3, 40], "dtype": "float32"}, {"name": "StatefulPartitionedCall/model_6/stack_5/block_4/project_conv2d/Conv2D_weights", "shape": [1, 1, 1392, 232], "dtype": "float32"}, {"name": "StatefulPartitionedCall/model_6/stem_conv2d/Conv2D_bn_offset", "shape": [40], "dtype": "float32"}, {"name": "StatefulPartitionedCall/model_6/stack_0/block_0/depthwise_conv2d/depthwise_weights", "shape": [3, 3, 40, 1], "dtype": "float32"}, {"name": "StatefulPartitionedCall/model_6/stack_0/block_0/depthwise_conv2d/depthwise_bn_offset", "shape": [40], "dtype": "float32"}, {"name": "StatefulPartitionedCall/model_6/stack_5/block_4/project_conv2d/Conv2D_bn_offset", "shape": [232], "dtype": "float32"}, {"name": "StatefulPartitionedCall/model_6/stack_0/block_0/project_conv2d/Conv2D_weights", "shape": [1, 1, 40, 24], "dtype": "float32"}, {"name": "StatefulPartitionedCall/model_6/stack_0/block_0/project_conv2d/Conv2D_bn_offset", "shape": [24], "dtype": "float32"}, {"name": "StatefulPartitionedCall/model_6/stack_0/block_1/depthwise_conv2d/depthwise_weights", "shape": [3, 3, 24, 1], "dtype": "float32"}, {"name": "StatefulPartitionedCall/model_6/stack_0/block_1/depthwise_conv2d/depthwise_bn_offset", "shape": [24], "dtype": "float32"}, {"name": "StatefulPartitionedCall/model_6/stack_5/block_5/expand_conv2d/Conv2D_weights", "shape": [1, 1, 232, 1392], "dtype": "float32"}, {"name": "StatefulPartitionedCall/model_6/stack_0/block_1/project_conv2d/Conv2D_weights", "shape": [1, 1, 24, 24], "dtype": "float32"}, {"name": "StatefulPartitionedCall/model_6/stack_6/block_1/project_conv2d/Conv2D_bn_offset", "shape": [384], "dtype": "float32"}, {"name": "StatefulPartitionedCall/model_6/stack_0/block_1/project_conv2d/Conv2D_bn_offset", "shape": [24], "dtype": "float32"}, {"name": "StatefulPartitionedCall/model_6/stack_1/block_0/expand_conv2d/Conv2D_weights", "shape": [1, 1, 24, 144], "dtype": "float32"}, {"name": "StatefulPartitionedCall/model_6/stack_5/block_5/expand_conv2d/Conv2D_bn_offset", "shape": [1392], "dtype": "float32"}, {"name": "StatefulPartitionedCall/model_6/stack_1/block_0/expand_conv2d/Conv2D_bn_offset", "shape": [144], "dtype": "float32"}, {"name": "StatefulPartitionedCall/model_6/stack_1/block_0/depthwise_conv2d/depthwise_weights", "shape": [3, 3, 144, 1], "dtype": "float32"}, {"name": "StatefulPartitionedCall/model_6/stack_1/block_0/depthwise_conv2d/depthwise_bn_offset", "shape": [144], "dtype": "float32"}, {"name": "StatefulPartitionedCall/model_6/stack_1/block_0/project_conv2d/Conv2D_weights", "shape": [1, 1, 144, 32], "dtype": "float32"}, {"name": "StatefulPartitionedCall/model_6/stack_1/block_0/project_conv2d/Conv2D_bn_offset", "shape": [32], "dtype": "float32"}, {"name": "StatefulPartitionedCall/model_6/stack_1/block_1/expand_conv2d/Conv2D_weights", "shape": [1, 1, 32, 192], "dtype": "float32"}, {"name": "StatefulPartitionedCall/model_6/stack_5/block_5/depthwise_conv2d/depthwise_weights", "shape": [5, 5, 1392, 1], "dtype": "float32"}, {"name": "StatefulPartitionedCall/model_6/stack_1/block_1/expand_conv2d/Conv2D_bn_offset", "shape": [192], "dtype": "float32"}, {"name": "StatefulPartitionedCall/model_6/stack_1/block_1/depthwise_conv2d/depthwise_weights", "shape": [3, 3, 192, 1], "dtype": "float32"}, {"name": "StatefulPartitionedCall/model_6/stack_1/block_1/depthwise_conv2d/depthwise_bn_offset", "shape": [192], "dtype": "float32"}, {"name": "StatefulPartitionedCall/model_6/stack_5/block_5/depthwise_conv2d/depthwise_bn_offset", "shape": [1392], "dtype": "float32"}, {"name": "StatefulPartitionedCall/model_6/stack_1/block_1/project_conv2d/Conv2D_weights", "shape": [1, 1, 192, 32], "dtype": "float32"}, {"name": "StatefulPartitionedCall/model_6/stack_1/block_1/project_conv2d/Conv2D_bn_offset", "shape": [32], "dtype": "float32"}, {"name": "StatefulPartitionedCall/model_6/stack_1/block_2/expand_conv2d/Conv2D_weights", "shape": [1, 1, 32, 192], "dtype": "float32"}, {"name": "StatefulPartitionedCall/model_6/stack_1/block_2/expand_conv2d/Conv2D_bn_offset", "shape": [192], "dtype": "float32"}, {"name": "StatefulPartitionedCall/model_6/stack_1/block_2/depthwise_conv2d/depthwise_weights", "shape": [3, 3, 192, 1], "dtype": "float32"}, {"name": "StatefulPartitionedCall/model_6/stack_1/block_2/depthwise_conv2d/depthwise_bn_offset", "shape": [192], "dtype": "float32"}, {"name": "StatefulPartitionedCall/model_6/stack_1/block_2/project_conv2d/Conv2D_weights", "shape": [1, 1, 192, 32], "dtype": "float32"}, {"name": "StatefulPartitionedCall/model_6/stack_1/block_2/project_conv2d/Conv2D_bn_offset", "shape": [32], "dtype": "float32"}, {"name": "StatefulPartitionedCall/model_6/stack_2/block_0/expand_conv2d/Conv2D_weights", "shape": [1, 1, 32, 192], "dtype": "float32"}, {"name": "StatefulPartitionedCall/model_6/stack_2/block_0/expand_conv2d/Conv2D_bn_offset", "shape": [192], "dtype": "float32"}, {"name": "StatefulPartitionedCall/model_6/stack_2/block_0/depthwise_conv2d/depthwise_weights", "shape": [5, 5, 192, 1], "dtype": "float32"}, {"name": "StatefulPartitionedCall/model_6/stack_2/block_0/depthwise_conv2d/depthwise_bn_offset", "shape": [192], "dtype": "float32"}, {"name": "StatefulPartitionedCall/model_6/stack_2/block_0/project_conv2d/Conv2D_weights", "shape": [1, 1, 192, 48], "dtype": "float32"}, {"name": "StatefulPartitionedCall/model_6/stack_2/block_0/project_conv2d/Conv2D_bn_offset", "shape": [48], "dtype": "float32"}, {"name": "StatefulPartitionedCall/model_6/stack_2/block_1/expand_conv2d/Conv2D_weights", "shape": [1, 1, 48, 288], "dtype": "float32"}, {"name": "StatefulPartitionedCall/model_6/stack_2/block_1/expand_conv2d/Conv2D_bn_offset", "shape": [288], "dtype": "float32"}, {"name": "StatefulPartitionedCall/model_6/stack_2/block_1/depthwise_conv2d/depthwise_weights", "shape": [5, 5, 288, 1], "dtype": "float32"}, {"name": "StatefulPartitionedCall/model_6/stack_2/block_1/depthwise_conv2d/depthwise_bn_offset", "shape": [288], "dtype": "float32"}, {"name": "StatefulPartitionedCall/model_6/stack_2/block_1/project_conv2d/Conv2D_weights", "shape": [1, 1, 288, 48], "dtype": "float32"}, {"name": "StatefulPartitionedCall/model_6/stack_2/block_1/project_conv2d/Conv2D_bn_offset", "shape": [48], "dtype": "float32"}, {"name": "StatefulPartitionedCall/model_6/stack_2/block_2/expand_conv2d/Conv2D_weights", "shape": [1, 1, 48, 288], "dtype": "float32"}, {"name": "StatefulPartitionedCall/model_6/stack_2/block_2/expand_conv2d/Conv2D_bn_offset", "shape": [288], "dtype": "float32"}, {"name": "StatefulPartitionedCall/model_6/stack_2/block_2/depthwise_conv2d/depthwise_weights", "shape": [5, 5, 288, 1], "dtype": "float32"}, {"name": "StatefulPartitionedCall/model_6/stack_2/block_2/depthwise_conv2d/depthwise_bn_offset", "shape": [288], "dtype": "float32"}, {"name": "StatefulPartitionedCall/model_6/stack_2/block_2/project_conv2d/Conv2D_weights", "shape": [1, 1, 288, 48], "dtype": "float32"}, {"name": "StatefulPartitionedCall/model_6/stack_5/block_5/project_conv2d/Conv2D_weights", "shape": [1, 1, 1392, 232], "dtype": "float32"}, {"name": "StatefulPartitionedCall/model_6/stack_2/block_2/project_conv2d/Conv2D_bn_offset", "shape": [48], "dtype": "float32"}, {"name": "StatefulPartitionedCall/model_6/stack_3/block_0/expand_conv2d/Conv2D_weights", "shape": [1, 1, 48, 288], "dtype": "float32"}, {"name": "StatefulPartitionedCall/model_6/top_conv2d/Conv2D_weights", "shape": [1, 1, 384, 1536], "dtype": "float32"}, {"name": "StatefulPartitionedCall/model_6/stack_3/block_0/expand_conv2d/Conv2D_bn_offset", "shape": [288], "dtype": "float32"}, {"name": "StatefulPartitionedCall/model_6/stack_3/block_0/depthwise_conv2d/depthwise_weights", "shape": [3, 3, 288, 1], "dtype": "float32"}, {"name": "StatefulPartitionedCall/model_6/stack_3/block_0/depthwise_conv2d/depthwise_bn_offset", "shape": [288], "dtype": "float32"}, {"name": "StatefulPartitionedCall/model_6/stack_5/block_5/project_conv2d/Conv2D_bn_offset", "shape": [232], "dtype": "float32"}, {"name": "StatefulPartitionedCall/model_6/stack_3/block_0/project_conv2d/Conv2D_weights", "shape": [1, 1, 288, 96], "dtype": "float32"}, {"name": "StatefulPartitionedCall/model_6/stack_3/block_0/project_conv2d/Conv2D_bn_offset", "shape": [96], "dtype": "float32"}, {"name": "StatefulPartitionedCall/model_6/stack_3/block_1/expand_conv2d/Conv2D_weights", "shape": [1, 1, 96, 576], "dtype": "float32"}, {"name": "StatefulPartitionedCall/model_6/stack_6/block_0/expand_conv2d/Conv2D_weights", "shape": [1, 1, 232, 1392], "dtype": "float32"}, {"name": "StatefulPartitionedCall/model_6/stack_3/block_1/expand_conv2d/Conv2D_bn_offset", "shape": [576], "dtype": "float32"}, {"name": "StatefulPartitionedCall/model_6/stack_3/block_1/depthwise_conv2d/depthwise_weights", "shape": [3, 3, 576, 1], "dtype": "float32"}, {"name": "StatefulPartitionedCall/model_6/stack_3/block_1/depthwise_conv2d/depthwise_bn_offset", "shape": [576], "dtype": "float32"}, {"name": "StatefulPartitionedCall/model_6/stack_6/block_0/expand_conv2d/Conv2D_bn_offset", "shape": [1392], "dtype": "float32"}, {"name": "StatefulPartitionedCall/model_6/stack_3/block_1/project_conv2d/Conv2D_weights", "shape": [1, 1, 576, 96], "dtype": "float32"}, {"name": "StatefulPartitionedCall/model_6/stack_3/block_1/project_conv2d/Conv2D_bn_offset", "shape": [96], "dtype": "float32"}, {"name": "StatefulPartitionedCall/model_6/stack_3/block_2/expand_conv2d/Conv2D_weights", "shape": [1, 1, 96, 576], "dtype": "float32"}, {"name": "StatefulPartitionedCall/model_6/stack_3/block_2/expand_conv2d/Conv2D_bn_offset", "shape": [576], "dtype": "float32"}, {"name": "StatefulPartitionedCall/model_6/stack_3/block_2/depthwise_conv2d/depthwise_weights", "shape": [3, 3, 576, 1], "dtype": "float32"}, {"name": "StatefulPartitionedCall/model_6/stack_3/block_2/depthwise_conv2d/depthwise_bn_offset", "shape": [576], "dtype": "float32"}, {"name": "StatefulPartitionedCall/model_6/stack_6/block_0/depthwise_conv2d/depthwise_weights", "shape": [3, 3, 1392, 1], "dtype": "float32"}, {"name": "StatefulPartitionedCall/model_6/stack_3/block_2/project_conv2d/Conv2D_weights", "shape": [1, 1, 576, 96], "dtype": "float32"}, {"name": "StatefulPartitionedCall/model_6/stack_3/block_2/project_conv2d/Conv2D_bn_offset", "shape": [96], "dtype": "float32"}, {"name": "StatefulPartitionedCall/model_6/stack_3/block_3/expand_conv2d/Conv2D_weights", "shape": [1, 1, 96, 576], "dtype": "float32"}, {"name": "StatefulPartitionedCall/model_6/stack_6/block_0/depthwise_conv2d/depthwise_bn_offset", "shape": [1392], "dtype": "float32"}, {"name": "StatefulPartitionedCall/model_6/stack_3/block_3/expand_conv2d/Conv2D_bn_offset", "shape": [576], "dtype": "float32"}, {"name": "StatefulPartitionedCall/model_6/stack_3/block_3/depthwise_conv2d/depthwise_weights", "shape": [3, 3, 576, 1], "dtype": "float32"}, {"name": "StatefulPartitionedCall/model_6/stack_3/block_3/depthwise_conv2d/depthwise_bn_offset", "shape": [576], "dtype": "float32"}, {"name": "StatefulPartitionedCall/model_6/stack_3/block_3/project_conv2d/Conv2D_weights", "shape": [1, 1, 576, 96], "dtype": "float32"}, {"name": "StatefulPartitionedCall/model_6/stack_3/block_3/project_conv2d/Conv2D_bn_offset", "shape": [96], "dtype": "float32"}, {"name": "StatefulPartitionedCall/model_6/stack_3/block_4/expand_conv2d/Conv2D_weights", "shape": [1, 1, 96, 576], "dtype": "float32"}, {"name": "StatefulPartitionedCall/model_6/stack_3/block_4/expand_conv2d/Conv2D_bn_offset", "shape": [576], "dtype": "float32"}, {"name": "StatefulPartitionedCall/model_6/stack_3/block_4/depthwise_conv2d/depthwise_weights", "shape": [3, 3, 576, 1], "dtype": "float32"}, {"name": "StatefulPartitionedCall/model_6/stack_3/block_4/depthwise_conv2d/depthwise_bn_offset", "shape": [576], "dtype": "float32"}, {"name": "StatefulPartitionedCall/model_6/stack_3/block_4/project_conv2d/Conv2D_weights", "shape": [1, 1, 576, 96], "dtype": "float32"}, {"name": "StatefulPartitionedCall/model_6/stack_3/block_4/project_conv2d/Conv2D_bn_offset", "shape": [96], "dtype": "float32"}, {"name": "StatefulPartitionedCall/model_6/stack_4/block_0/expand_conv2d/Conv2D_weights", "shape": [1, 1, 96, 576], "dtype": "float32"}, {"name": "StatefulPartitionedCall/model_6/stack_4/block_0/expand_conv2d/Conv2D_bn_offset", "shape": [576], "dtype": "float32"}, {"name": "StatefulPartitionedCall/model_6/stack_4/block_0/depthwise_conv2d/depthwise_weights", "shape": [5, 5, 576, 1], "dtype": "float32"}, {"name": "StatefulPartitionedCall/model_6/stack_4/block_0/depthwise_conv2d/depthwise_bn_offset", "shape": [576], "dtype": "float32"}, {"name": "StatefulPartitionedCall/model_6/top_conv2d/Conv2D_bn_offset", "shape": [1536], "dtype": "float32"}, {"name": "StatefulPartitionedCall/model_6/stack_4/block_0/project_conv2d/Conv2D_weights", "shape": [1, 1, 576, 136], "dtype": "float32"}, {"name": "StatefulPartitionedCall/model_6/stack_4/block_0/project_conv2d/Conv2D_bn_offset", "shape": [136], "dtype": "float32"}, {"name": "StatefulPartitionedCall/model_6/stack_4/block_1/expand_conv2d/Conv2D_weights", "shape": [1, 1, 136, 816], "dtype": "float32"}, {"name": "StatefulPartitionedCall/model_6/stack_4/block_1/expand_conv2d/Conv2D_bn_offset", "shape": [816], "dtype": "float32"}, {"name": "StatefulPartitionedCall/model_6/stack_4/block_1/depthwise_conv2d/depthwise_weights", "shape": [5, 5, 816, 1], "dtype": "float32"}, {"name": "StatefulPartitionedCall/model_6/stack_4/block_1/depthwise_conv2d/depthwise_bn_offset", "shape": [816], "dtype": "float32"}, {"name": "StatefulPartitionedCall/model_6/stack_4/block_1/project_conv2d/Conv2D_weights", "shape": [1, 1, 816, 136], "dtype": "float32"}, {"name": "StatefulPartitionedCall/model_6/stack_4/block_1/project_conv2d/Conv2D_bn_offset", "shape": [136], "dtype": "float32"}, {"name": "StatefulPartitionedCall/model_6/stack_4/block_2/expand_conv2d/Conv2D_weights", "shape": [1, 1, 136, 816], "dtype": "float32"}, {"name": "StatefulPartitionedCall/model_6/stack_4/block_2/expand_conv2d/Conv2D_bn_offset", "shape": [816], "dtype": "float32"}, {"name": "StatefulPartitionedCall/model_6/stack_4/block_2/depthwise_conv2d/depthwise_weights", "shape": [5, 5, 816, 1], "dtype": "float32"}, {"name": "StatefulPartitionedCall/model_6/stack_4/block_2/depthwise_conv2d/depthwise_bn_offset", "shape": [816], "dtype": "float32"}, {"name": "StatefulPartitionedCall/model_6/stack_6/block_0/project_conv2d/Conv2D_weights", "shape": [1, 1, 1392, 384], "dtype": "float32"}, {"name": "StatefulPartitionedCall/model_6/stack_4/block_2/project_conv2d/Conv2D_weights", "shape": [1, 1, 816, 136], "dtype": "float32"}, {"name": "StatefulPartitionedCall/model_6/stack_6/block_0/project_conv2d/Conv2D_bn_offset", "shape": [384], "dtype": "float32"}, {"name": "StatefulPartitionedCall/model_6/stack_4/block_2/project_conv2d/Conv2D_bn_offset", "shape": [136], "dtype": "float32"}, {"name": "StatefulPartitionedCall/model_6/stack_4/block_3/expand_conv2d/Conv2D_weights", "shape": [1, 1, 136, 816], "dtype": "float32"}, {"name": "StatefulPartitionedCall/model_6/stack_4/block_3/expand_conv2d/Conv2D_bn_offset", "shape": [816], "dtype": "float32"}, {"name": "StatefulPartitionedCall/model_6/stack_4/block_3/depthwise_conv2d/depthwise_weights", "shape": [5, 5, 816, 1], "dtype": "float32"}, {"name": "StatefulPartitionedCall/model_6/stack_4/block_3/depthwise_conv2d/depthwise_bn_offset", "shape": [816], "dtype": "float32"}, {"name": "StatefulPartitionedCall/model_6/stack_6/block_1/expand_conv2d/Conv2D_weights", "shape": [1, 1, 384, 2304], "dtype": "float32"}, {"name": "StatefulPartitionedCall/model_6/stack_4/block_3/project_conv2d/Conv2D_weights", "shape": [1, 1, 816, 136], "dtype": "float32"}, {"name": "StatefulPartitionedCall/model_6/stack_6/block_1/expand_conv2d/Conv2D_bn_offset", "shape": [2304], "dtype": "float32"}, {"name": "StatefulPartitionedCall/model_6/stack_4/block_3/project_conv2d/Conv2D_bn_offset", "shape": [136], "dtype": "float32"}, {"name": "StatefulPartitionedCall/model_6/stack_4/block_4/expand_conv2d/Conv2D_weights", "shape": [1, 1, 136, 816], "dtype": "float32"}, {"name": "StatefulPartitionedCall/model_6/stack_4/block_4/expand_conv2d/Conv2D_bn_offset", "shape": [816], "dtype": "float32"}, {"name": "StatefulPartitionedCall/model_6/stack_4/block_4/depthwise_conv2d/depthwise_weights", "shape": [5, 5, 816, 1], "dtype": "float32"}, {"name": "StatefulPartitionedCall/model_6/stack_4/block_4/depthwise_conv2d/depthwise_bn_offset", "shape": [816], "dtype": "float32"}, {"name": "StatefulPartitionedCall/model_6/stack_4/block_4/project_conv2d/Conv2D_weights", "shape": [1, 1, 816, 136], "dtype": "float32"}, {"name": "StatefulPartitionedCall/model_6/stack_6/block_1/depthwise_conv2d/depthwise_weights", "shape": [3, 3, 2304, 1], "dtype": "float32"}, {"name": "StatefulPartitionedCall/model_6/stack_4/block_4/project_conv2d/Conv2D_bn_offset", "shape": [136], "dtype": "float32"}, {"name": "StatefulPartitionedCall/model_6/stack_5/block_0/expand_conv2d/Conv2D_weights", "shape": [1, 1, 136, 816], "dtype": "float32"}, {"name": "StatefulPartitionedCall/model_6/stack_5/block_0/expand_conv2d/Conv2D_bn_offset", "shape": [816], "dtype": "float32"}, {"name": "StatefulPartitionedCall/model_6/stack_5/block_0/depthwise_conv2d/depthwise_weights", "shape": [5, 5, 816, 1], "dtype": "float32"}, {"name": "StatefulPartitionedCall/model_6/stack_5/block_0/depthwise_conv2d/depthwise_bn_offset", "shape": [816], "dtype": "float32"}, {"name": "StatefulPartitionedCall/model_6/stack_6/block_1/depthwise_conv2d/depthwise_bn_offset", "shape": [2304], "dtype": "float32"}, {"name": "StatefulPartitionedCall/model_6/stack_5/block_0/project_conv2d/Conv2D_weights", "shape": [1, 1, 816, 232], "dtype": "float32"}, {"name": "StatefulPartitionedCall/model_6/stack_5/block_0/project_conv2d/Conv2D_bn_offset", "shape": [232], "dtype": "float32"}, {"name": "StatefulPartitionedCall/model_6/stack_5/block_1/expand_conv2d/Conv2D_weights", "shape": [1, 1, 232, 1392], "dtype": "float32"}, {"name": "StatefulPartitionedCall/model_6/stack_5/block_1/expand_conv2d/Conv2D_bn_offset", "shape": [1392], "dtype": "float32"}, {"name": "StatefulPartitionedCall/model_6/stack_5/block_1/depthwise_conv2d/depthwise_weights", "shape": [5, 5, 1392, 1], "dtype": "float32"}, {"name": "StatefulPartitionedCall/model_6/stack_5/block_1/depthwise_conv2d/depthwise_bn_offset", "shape": [1392], "dtype": "float32"}, {"name": "StatefulPartitionedCall/model_6/stack_5/block_1/project_conv2d/Conv2D_weights", "shape": [1, 1, 1392, 232], "dtype": "float32"}, {"name": "StatefulPartitionedCall/model_6/stack_5/block_1/project_conv2d/Conv2D_bn_offset", "shape": [232], "dtype": "float32"}, {"name": "StatefulPartitionedCall/model_6/stack_5/block_2/expand_conv2d/Conv2D_weights", "shape": [1, 1, 232, 1392], "dtype": "float32"}, {"name": "StatefulPartitionedCall/model_6/stack_5/block_2/expand_conv2d/Conv2D_bn_offset", "shape": [1392], "dtype": "float32"}, {"name": "StatefulPartitionedCall/model_6/stack_5/block_2/depthwise_conv2d/depthwise_weights", "shape": [5, 5, 1392, 1], "dtype": "float32"}, {"name": "StatefulPartitionedCall/model_6/stack_5/block_2/depthwise_conv2d/depthwise_bn_offset", "shape": [1392], "dtype": "float32"}, {"name": "StatefulPartitionedCall/model_6/stack_5/block_2/project_conv2d/Conv2D_weights", "shape": [1, 1, 1392, 232], "dtype": "float32"}, {"name": "StatefulPartitionedCall/model_6/stack_5/block_2/project_conv2d/Conv2D_bn_offset", "shape": [232], "dtype": "float32"}, {"name": "StatefulPartitionedCall/model_6/stack_5/block_3/expand_conv2d/Conv2D_weights", "shape": [1, 1, 232, 1392], "dtype": "float32"}, {"name": "StatefulPartitionedCall/model_6/stack_5/block_3/expand_conv2d/Conv2D_bn_offset", "shape": [1392], "dtype": "float32"}, {"name": "StatefulPartitionedCall/model_6/stack_5/block_3/depthwise_conv2d/depthwise_weights", "shape": [5, 5, 1392, 1], "dtype": "float32"}, {"name": "StatefulPartitionedCall/model_6/stack_5/block_3/depthwise_conv2d/depthwise_bn_offset", "shape": [1392], "dtype": "float32"}, {"name": "StatefulPartitionedCall/model_6/stack_5/block_3/project_conv2d/Conv2D_weights", "shape": [1, 1, 1392, 232], "dtype": "float32"}, {"name": "StatefulPartitionedCall/model_6/stack_5/block_3/project_conv2d/Conv2D_bn_offset", "shape": [232], "dtype": "float32"}, {"name": "StatefulPartitionedCall/model_6/stack_5/block_4/expand_conv2d/Conv2D_weights", "shape": [1, 1, 232, 1392], "dtype": "float32"}, {"name": "StatefulPartitionedCall/model_6/stack_5/block_4/expand_conv2d/Conv2D_bn_offset", "shape": [1392], "dtype": "float32"}, {"name": "StatefulPartitionedCall/model_6/stack_5/block_4/depthwise_conv2d/depthwise_weights", "shape": [5, 5, 1392, 1], "dtype": "float32"}, {"name": "StatefulPartitionedCall/model_6/stack_5/block_4/depthwise_conv2d/depthwise_bn_offset", "shape": [1392], "dtype": "float32"}, {"name": "StatefulPartitionedCall/model_6/stack_6/block_1/project_conv2d/Conv2D_weights", "shape": [1, 1, 2304, 384], "dtype": "float32"}, {"name": "StatefulPartitionedCall/model_6/tf_op_layer_BroadcastTo_7/BroadcastTo_7/input", "shape": [1, 1, 3], "dtype": "float32"}, {"name": "StatefulPartitionedCall/model_6/tf_op_layer_BroadcastTo_6/BroadcastTo_6/input", "shape": [1, 1, 3], "dtype": "float32"}, {"name": "StatefulPartitionedCall/model_6/tf_op_layer_Mul_3/Mul_3/y", "shape": [], "dtype": "float32"}, {"name": "StatefulPartitionedCall/model_6/stack_0/block_0/se_reshape/Reshape/shape/3", "shape": [], "dtype": "int32"}, {"name": "Func/StatefulPartitionedCall/input/_12", "shape": [1, 1, 40, 10], "dtype": "float32"}, {"name": "Func/StatefulPartitionedCall/input/_13", "shape": [10], "dtype": "float32"}, {"name": "Func/StatefulPartitionedCall/input/_14", "shape": [1, 1, 10, 40], "dtype": "float32"}, {"name": "Func/StatefulPartitionedCall/input/_15", "shape": [40], "dtype": "float32"}, {"name": "StatefulPartitionedCall/model_6/stack_0/block_1/se_reshape/Reshape/shape/3", "shape": [], "dtype": "int32"}, {"name": "Func/StatefulPartitionedCall/input/_26", "shape": [1, 1, 24, 6], "dtype": "float32"}, {"name": "Func/StatefulPartitionedCall/input/_27", "shape": [6], "dtype": "float32"}, {"name": "Func/StatefulPartitionedCall/input/_28", "shape": [1, 1, 6, 24], "dtype": "float32"}, {"name": "Func/StatefulPartitionedCall/input/_29", "shape": [24], "dtype": "float32"}, {"name": "StatefulPartitionedCall/model_6/stack_1/block_0/se_reshape/Reshape/shape/3", "shape": [], "dtype": "int32"}, {"name": "Func/StatefulPartitionedCall/input/_45", "shape": [1, 1, 144, 6], "dtype": "float32"}, {"name": "Func/StatefulPartitionedCall/input/_46", "shape": [6], "dtype": "float32"}, {"name": "Func/StatefulPartitionedCall/input/_47", "shape": [1, 1, 6, 144], "dtype": "float32"}, {"name": "Func/StatefulPartitionedCall/input/_48", "shape": [144], "dtype": "float32"}, {"name": "Func/StatefulPartitionedCall/input/_64", "shape": [1, 1, 192, 8], "dtype": "float32"}, {"name": "Func/StatefulPartitionedCall/input/_65", "shape": [8], "dtype": "float32"}, {"name": "Func/StatefulPartitionedCall/input/_66", "shape": [1, 1, 8, 192], "dtype": "float32"}, {"name": "Func/StatefulPartitionedCall/input/_67", "shape": [192], "dtype": "float32"}, {"name": "Func/StatefulPartitionedCall/input/_83", "shape": [1, 1, 192, 8], "dtype": "float32"}, {"name": "Func/StatefulPartitionedCall/input/_84", "shape": [8], "dtype": "float32"}, {"name": "Func/StatefulPartitionedCall/input/_85", "shape": [1, 1, 8, 192], "dtype": "float32"}, {"name": "Func/StatefulPartitionedCall/input/_86", "shape": [192], "dtype": "float32"}, {"name": "StatefulPartitionedCall/model_6/stack_1/block_2/se_reshape/Reshape/shape/3", "shape": [], "dtype": "int32"}, {"name": "Func/StatefulPartitionedCall/input/_102", "shape": [1, 1, 192, 8], "dtype": "float32"}, {"name": "Func/StatefulPartitionedCall/input/_103", "shape": [8], "dtype": "float32"}, {"name": "Func/StatefulPartitionedCall/input/_104", "shape": [1, 1, 8, 192], "dtype": "float32"}, {"name": "Func/StatefulPartitionedCall/input/_105", "shape": [192], "dtype": "float32"}, {"name": "Func/StatefulPartitionedCall/input/_121", "shape": [1, 1, 288, 12], "dtype": "float32"}, {"name": "Func/StatefulPartitionedCall/input/_122", "shape": [12], "dtype": "float32"}, {"name": "Func/StatefulPartitionedCall/input/_123", "shape": [1, 1, 12, 288], "dtype": "float32"}, {"name": "Func/StatefulPartitionedCall/input/_124", "shape": [288], "dtype": "float32"}, {"name": "Func/StatefulPartitionedCall/input/_140", "shape": [1, 1, 288, 12], "dtype": "float32"}, {"name": "Func/StatefulPartitionedCall/input/_141", "shape": [12], "dtype": "float32"}, {"name": "Func/StatefulPartitionedCall/input/_142", "shape": [1, 1, 12, 288], "dtype": "float32"}, {"name": "Func/StatefulPartitionedCall/input/_143", "shape": [288], "dtype": "float32"}, {"name": "StatefulPartitionedCall/model_6/stack_2/block_2/se_reshape/Reshape/shape/3", "shape": [], "dtype": "int32"}, {"name": "Func/StatefulPartitionedCall/input/_159", "shape": [1, 1, 288, 12], "dtype": "float32"}, {"name": "Func/StatefulPartitionedCall/input/_160", "shape": [12], "dtype": "float32"}, {"name": "Func/StatefulPartitionedCall/input/_161", "shape": [1, 1, 12, 288], "dtype": "float32"}, {"name": "Func/StatefulPartitionedCall/input/_162", "shape": [288], "dtype": "float32"}, {"name": "Func/StatefulPartitionedCall/input/_178", "shape": [1, 1, 576, 24], "dtype": "float32"}, {"name": "Func/StatefulPartitionedCall/input/_179", "shape": [24], "dtype": "float32"}, {"name": "Func/StatefulPartitionedCall/input/_180", "shape": [1, 1, 24, 576], "dtype": "float32"}, {"name": "Func/StatefulPartitionedCall/input/_181", "shape": [576], "dtype": "float32"}, {"name": "Func/StatefulPartitionedCall/input/_197", "shape": [1, 1, 576, 24], "dtype": "float32"}, {"name": "Func/StatefulPartitionedCall/input/_198", "shape": [24], "dtype": "float32"}, {"name": "Func/StatefulPartitionedCall/input/_199", "shape": [1, 1, 24, 576], "dtype": "float32"}, {"name": "Func/StatefulPartitionedCall/input/_200", "shape": [576], "dtype": "float32"}, {"name": "Func/StatefulPartitionedCall/input/_216", "shape": [1, 1, 576, 24], "dtype": "float32"}, {"name": "Func/StatefulPartitionedCall/input/_217", "shape": [24], "dtype": "float32"}, {"name": "Func/StatefulPartitionedCall/input/_218", "shape": [1, 1, 24, 576], "dtype": "float32"}, {"name": "Func/StatefulPartitionedCall/input/_219", "shape": [576], "dtype": "float32"}, {"name": "Func/StatefulPartitionedCall/input/_235", "shape": [1, 1, 576, 24], "dtype": "float32"}, {"name": "Func/StatefulPartitionedCall/input/_236", "shape": [24], "dtype": "float32"}, {"name": "Func/StatefulPartitionedCall/input/_237", "shape": [1, 1, 24, 576], "dtype": "float32"}, {"name": "Func/StatefulPartitionedCall/input/_238", "shape": [576], "dtype": "float32"}, {"name": "StatefulPartitionedCall/model_6/stack_3/block_4/se_reshape/Reshape/shape/3", "shape": [], "dtype": "int32"}, {"name": "Func/StatefulPartitionedCall/input/_254", "shape": [1, 1, 576, 24], "dtype": "float32"}, {"name": "Func/StatefulPartitionedCall/input/_255", "shape": [24], "dtype": "float32"}, {"name": "Func/StatefulPartitionedCall/input/_256", "shape": [1, 1, 24, 576], "dtype": "float32"}, {"name": "Func/StatefulPartitionedCall/input/_257", "shape": [576], "dtype": "float32"}, {"name": "Func/StatefulPartitionedCall/input/_273", "shape": [1, 1, 816, 34], "dtype": "float32"}, {"name": "Func/StatefulPartitionedCall/input/_274", "shape": [34], "dtype": "float32"}, {"name": "Func/StatefulPartitionedCall/input/_275", "shape": [1, 1, 34, 816], "dtype": "float32"}, {"name": "Func/StatefulPartitionedCall/input/_276", "shape": [816], "dtype": "float32"}, {"name": "Func/StatefulPartitionedCall/input/_292", "shape": [1, 1, 816, 34], "dtype": "float32"}, {"name": "Func/StatefulPartitionedCall/input/_293", "shape": [34], "dtype": "float32"}, {"name": "Func/StatefulPartitionedCall/input/_294", "shape": [1, 1, 34, 816], "dtype": "float32"}, {"name": "Func/StatefulPartitionedCall/input/_295", "shape": [816], "dtype": "float32"}, {"name": "Func/StatefulPartitionedCall/input/_311", "shape": [1, 1, 816, 34], "dtype": "float32"}, {"name": "Func/StatefulPartitionedCall/input/_312", "shape": [34], "dtype": "float32"}, {"name": "Func/StatefulPartitionedCall/input/_313", "shape": [1, 1, 34, 816], "dtype": "float32"}, {"name": "Func/StatefulPartitionedCall/input/_314", "shape": [816], "dtype": "float32"}, {"name": "Func/StatefulPartitionedCall/input/_330", "shape": [1, 1, 816, 34], "dtype": "float32"}, {"name": "Func/StatefulPartitionedCall/input/_331", "shape": [34], "dtype": "float32"}, {"name": "Func/StatefulPartitionedCall/input/_332", "shape": [1, 1, 34, 816], "dtype": "float32"}, {"name": "Func/StatefulPartitionedCall/input/_333", "shape": [816], "dtype": "float32"}, {"name": "StatefulPartitionedCall/model_6/stack_4/block_4/se_reshape/Reshape/shape/3", "shape": [], "dtype": "int32"}, {"name": "Func/StatefulPartitionedCall/input/_349", "shape": [1, 1, 816, 34], "dtype": "float32"}, {"name": "Func/StatefulPartitionedCall/input/_350", "shape": [34], "dtype": "float32"}, {"name": "Func/StatefulPartitionedCall/input/_351", "shape": [1, 1, 34, 816], "dtype": "float32"}, {"name": "Func/StatefulPartitionedCall/input/_352", "shape": [816], "dtype": "float32"}, {"name": "Func/StatefulPartitionedCall/input/_368", "shape": [1, 1, 1392, 58], "dtype": "float32"}, {"name": "Func/StatefulPartitionedCall/input/_369", "shape": [58], "dtype": "float32"}, {"name": "Func/StatefulPartitionedCall/input/_370", "shape": [1, 1, 58, 1392], "dtype": "float32"}, {"name": "Func/StatefulPartitionedCall/input/_371", "shape": [1392], "dtype": "float32"}, {"name": "Func/StatefulPartitionedCall/input/_387", "shape": [1, 1, 1392, 58], "dtype": "float32"}, {"name": "Func/StatefulPartitionedCall/input/_388", "shape": [58], "dtype": "float32"}, {"name": "Func/StatefulPartitionedCall/input/_389", "shape": [1, 1, 58, 1392], "dtype": "float32"}, {"name": "Func/StatefulPartitionedCall/input/_390", "shape": [1392], "dtype": "float32"}, {"name": "Func/StatefulPartitionedCall/input/_406", "shape": [1, 1, 1392, 58], "dtype": "float32"}, {"name": "Func/StatefulPartitionedCall/input/_407", "shape": [58], "dtype": "float32"}, {"name": "Func/StatefulPartitionedCall/input/_408", "shape": [1, 1, 58, 1392], "dtype": "float32"}, {"name": "Func/StatefulPartitionedCall/input/_409", "shape": [1392], "dtype": "float32"}, {"name": "Func/StatefulPartitionedCall/input/_425", "shape": [1, 1, 1392, 58], "dtype": "float32"}, {"name": "Func/StatefulPartitionedCall/input/_426", "shape": [58], "dtype": "float32"}, {"name": "Func/StatefulPartitionedCall/input/_427", "shape": [1, 1, 58, 1392], "dtype": "float32"}, {"name": "Func/StatefulPartitionedCall/input/_428", "shape": [1392], "dtype": "float32"}, {"name": "Func/StatefulPartitionedCall/input/_444", "shape": [1, 1, 1392, 58], "dtype": "float32"}, {"name": "Func/StatefulPartitionedCall/input/_445", "shape": [58], "dtype": "float32"}, {"name": "Func/StatefulPartitionedCall/input/_446", "shape": [1, 1, 58, 1392], "dtype": "float32"}, {"name": "Func/StatefulPartitionedCall/input/_447", "shape": [1392], "dtype": "float32"}, {"name": "StatefulPartitionedCall/model_6/stack_5/block_5/se_reshape/Reshape/shape/3", "shape": [], "dtype": "int32"}, {"name": "Func/StatefulPartitionedCall/input/_463", "shape": [1, 1, 1392, 58], "dtype": "float32"}, {"name": "Func/StatefulPartitionedCall/input/_464", "shape": [58], "dtype": "float32"}, {"name": "Func/StatefulPartitionedCall/input/_465", "shape": [1, 1, 58, 1392], "dtype": "float32"}, {"name": "Func/StatefulPartitionedCall/input/_466", "shape": [1392], "dtype": "float32"}, {"name": "StatefulPartitionedCall/model_6/stack_6/block_1/se_reshape/strided_slice/stack", "shape": [1], "dtype": "int32"}, {"name": "StatefulPartitionedCall/model_6/stack_6/block_1/se_reshape/strided_slice/stack_1", "shape": [1], "dtype": "int32"}, {"name": "StatefulPartitionedCall/model_6/stack_6/block_1/se_reshape/Reshape/shape/1", "shape": [], "dtype": "int32"}, {"name": "StatefulPartitionedCall/model_6/stack_6/block_1/se_reshape/Reshape/shape/3", "shape": [], "dtype": "int32"}, {"name": "Func/StatefulPartitionedCall/input/_482", "shape": [1, 1, 2304, 96], "dtype": "float32"}, {"name": "Func/StatefulPartitionedCall/input/_483", "shape": [96], "dtype": "float32"}, {"name": "Func/StatefulPartitionedCall/input/_484", "shape": [1, 1, 96, 2304], "dtype": "float32"}, {"name": "Func/StatefulPartitionedCall/input/_485", "shape": [2304], "dtype": "float32"}, {"name": "StatefulPartitionedCall/model_6/stack_6/block_1/se_squeeze/Mean/reduction_indices", "shape": [2], "dtype": "int32"}, {"name": "Func/StatefulPartitionedCall/input/_496", "shape": [1536, 1000], "dtype": "float32"}, {"name": "Func/StatefulPartitionedCall/input/_497", "shape": [1000], "dtype": "float32"}]}]}